saved_models/montecarlo_q_hybrid.pth (torch, 79632 bytes, 8 tensors)

fc1.weight f4 [64, 24]
0	0x3e942823	0.28936872
1	0x3e290420	0.1650548
2	0x3ea4a5fb	0.32157883
3	0x3d6c9519	0.057759378
4	0x3e06e49a	0.13173142
5	0x3e7b5647	0.24544631
6	0xbcba89d7	-0.022770805
7	0x3e18a777	0.14907633
8	0x3e02c94f	0.12772106
9	0x3e43a109	0.19104399
10	0x3e42722b	0.18988864
11	0x3e7ad9c5	0.24497135
12	0x3e6239dd	0.22092386
13	0x3e689d13	0.22716169
14	0x3cbe132b	0.0232025
15	0x3d8e9ecb	0.06963881
16	0xbd7b61d2	-0.061372586
17	0x3c61e056	0.013786396
18	0xbcdc3ad7	-0.026883526
19	0xbd7b5e3c	-0.061369166
20	0x3b3a06aa	0.002838532
21	0x3cee52c5	0.029092202
22	0x3dc4935e	0.095984206
23	0x3e72ca8d	0.2371008
24	0x3d92add3	0.071620606
25	0x3d2f08b8	0.042732924
26	0xbdd0ef46	-0.10201888
27	0xbd8ee52c	-0.06977305
28	0xbe255a0d	-0.16147633
29	0x3dd48c08	0.10378271
30	0xbe39ce05	-0.18144996
31	0x3e206b0a	0.15665832
32	0x3e57e08e	0.21081755
33	0xbc3443d6	-0.0110025015
34	0x3ce0cf11	0.027442487
35	0x3deb2ac5	0.11482767
36	0x3d80c332	0.062872306
37	0x3e2ce568	0.16884387
38	0x3d9da5cb	0.07697638
39	0x3ec856a3	0.391286
40	0x3d14c293	0.036318373
41	0x3e5ea923	0.21744208
42	0xbcd318a3	-0.025768584
43	0x3e6ff994	0.2343505
44	0x3e699a41	0.2281275
45	0x3f09941b	0.53741616
46	0x3e3a56cb	0.18197171
47	0x3ee249cb	0.44196925
48	0xbe9b7c13	-0.303681
49	0xbd2e0124	-0.042481557
50	0x3dac556c	0.084147304
51	0x3e647705	0.22311027
52	0xbe536236	-0.20642933
53	0xbd023196	-0.03178557
54	0xbe229a21	-0.15879108
55	0x3e9b852a	0.30375034
56	0x3e3e4ceb	0.1858403
57	0x3d6e8493	0.0582319
58	0xbccb0987	-0.024784816
59	0x3cdd874d	0.027042056
60	0xbccf58d9	-0.02531092
61	0x3e221c26	0.1583105
62	0xbce70b4d	-0.02820363
63	0x3e611773	0.21981601
64	0x3ab90fae	0.0014119053
65	0xbd4e379d	-0.050346006
66	0x3ed0ccfa	0.40781385
67	0xbd116a70	-0.035501897
68	0x3e4a8675	0.19777854
69	0x3e6837fd	0.22677608
70	0xbe2f4d1d	-0.1711926
71	0x3deb7da9	0.11498577
72	0xbd576e04	-0.052595153
73	0xbe3f365e	-0.18673083
74	0xbde27435	-0.11057321
75	0xbcbe7c1c	-0.02325254
76	0xbdba4f6c	-0.0909718
77	0x3d93e580	0.07221508
78	0x3d48a8ca	0.048989095
79	0xbe871369	-0.26381996
80	0xbe00598c	-0.1253416
81	0x3c5a2040	0.013313353
82	0xbda8ed12	-0.082483426
83	0xbe453bb2	-0.19261053
84	0xbe8f08d6	-0.2793643
85	0xbdbb4fff	-0.091461174
86	0x3d73e375	0.05954309
87	0x3d91e3de	0.0712354
88	0xbe786656	-0.24257788
89	0x3e3445d1	0.17604758
90	0x3d98e681	0.0746584
91	0xbe64cfc2	-0.22344878
92	0xbe184d59	-0.14873256
93	0x3c781536	0.015141776
94	0x3e5025b7	0.20326887
95	0x3d2b4915	0.041817743
96	0xbea4c23f	-0.32179448
97	0xbda62aed	-0.08113656
98	0xbe13e374	-0.14442235
99	0xbe32df46	-0.17467985
100	0xbe9cdabd	-0.30635634
101	0xbe51da83	-0.20493512
102	0xbdf63f2a	-0.12023766
103	0xbe1e261f	-0.1544423
104	0xbcb86fcb	-0.022514245
105	0xbd5fb62c	-0.054617092
106	0xbd1d8c0e	-0.038463645
107	0xbe30735f	-0.1723151
108	0xbd95b5d9	-0.07310075
109	0xbdf44725	-0.11927632
110	0xbe359f42	-0.17736533
111	0x3e408e6d	0.18804331
112	0x3d07e1c4	0.03317429
113	0x3e09b986	0.13449678
114	0xbde22699	-0.11042518
115	0xbdb6f70e	-0.08933841
116	0xbe1ac367	-0.15113603
117	0x3e816e56	0.25279492
118	0xbe1e7cc0	-0.15477276
119	0xbe68d3a5	-0.22736986
120	0xbd031cb4	-0.032009795
121	0xbcd489f8	-0.025944695
122	0xbc71ec58	-0.014765821
123	0xbe1020ca	-0.14075008
124	0xbe81db0b	-0.2536243
125	0xbe789ba0	-0.24278116
126	0xbe5085c6	-0.2036353
127	0x3ea59308	0.32338738
128	0xbd8f88d8	-0.07008523
129	0xbc91e95a	-0.017811466
130	0x3e725c61	0.23668052
131	0xbe1685e2	-0.1469951
132	0x3de2568e	0.11051665
133	0x3b812a5c	0.003941817
134	0xbdaa5013	-0.08316054
135	0x3d66334d	0.056201268
136	0x3d4d26e3	0.050085913
137	0x3eb3d57b	0.3512381
138	0x3def2407	0.116767935
139	0x3e59e6fd	0.21279521
140	0x3e51a7d1	0.20474173
141	0xbdba1c82	-0.09087469
142	0xbddd5cfe	-0.108087525
143	0xbbfc6fda	-0.0077037634
144	0xbe027701	-0.12740709
145	0x3e42cd52	0.19023636
146	0x3c8f6dfc	0.0175085
147	0x3dc58924	0.09645298
148	0xbc1a2b89	-0.009409794
149	0xbcf9ec4f	-0.030508189
150	0x3da6c932	0.08143844
151	0x3de8391c	0.11339018
152	0x3e3c94d8	0.18416154
153	0x3e0fb6d5	0.14034589
154	0xbd5d5025	-0.05403151
155	0x3e0ea388	0.1392957
156	0xbd15271f	-0.036414262
157	0x3b67de45	0.0035380286
158	0x3d79811e	0.06091415
159	0x3dff936c	0.1247929
160	0x3d76e16e	0.06027358
161	0xbe0473d9	-0.12934817
162	0x3d0bc009	0.034118686
163	0x3e195c74	0.14976674
164	0xbdf87f48	-0.12133652
165	0xbe01dfff	-0.12683104
166	0xbe0ffce7	-0.14061318
167	0x3c392de4	0.011302445
168	0x3c843ce5	0.016142318
169	0xbe5071fa	-0.20355979
170	0xbd5e2169	-0.05423108
171	0x3e4b45d6	0.19850859
172	0x3e3f2fda	0.18670598
173	0xbe38902f	-0.18023752
174	0xbd606d76	-0.05479189
175	0xbdf44eae	-0.119290695
176	0x3d8f9202	0.07010271
177	0xbe1673b0	-0.14692569
178	0xbdc06c96	-0.09395711
179	0x3df931e2	0.121677175
180	0xbcbe861d	-0.02325731
181	0xbba6f995	-0.0050956705
182	0xbe26b865	-0.16281278
183	0xbe0426f9	-0.12905492
184	0x3de5adcd	0.112147905
185	0x3db19ca3	0.08672454
186	0x3d4c65d5	0.049901802
187	0xbe324989	-0.17410864
188	0xbeb298ac	-0.34882104
189	0xbe345907	-0.17612086
190	0xba95b7a1	-0.0011422524
191	0xbdde51e7	-0.108554654
192	0xbecb6fe4	-0.39733803
193	0x3e1d8e56	0.15386328
194	0x3e8bd556	0.273112
195	0x3d4d1b25	0.050074715
196	0xbd17284d	-0.03690367
197	0xbe352846	-0.17691144
198	0xbe38fc07	-0.18064891
199	0x3ea77f79	0.3271444
200	0x3e312082	0.17297557
201	0x3ddc248a	0.10749157
202	0x3d3f3515	0.046681482
203	0x3ca9e676	0.020739775
204	0xbd90bf5d	-0.0706775
205	0x3dd15300	0.10220909
206	0xbe14d366	-0.14533767
207	0x3b6ece1e	0.0036438773
208	0x3d95035d	0.07276032
209	0x3ac7c75f	0.0015241912
210	0x3dccd631	0.10001791
211	0x3e213059	0.157411
212	0x3e6e6b1d	0.23283048
213	0xbe14b3d1	-0.1452172
214	0x3e1a0279	0.15040006
215	0x3e89f726	0.26946372
216	0xbdb89743	-0.09013226
217	0x3ccab980	0.024746656
218	0xbdc2d35e	-0.09512971
219	0x3e2e6f1f	0.17034577
220	0xbd127393	-0.03575475
221	0x3daa288a	0.083085135
222	0xbdb9ce5a	-0.090725616
223	0x3df7e2d2	0.121038094
224	0x3d9c5797	0.07633894
225	0x3d8d8536	0.069101736
226	0x3e94443d	0.28958312
227	0x3e92b8c1	0.2865658
228	0x3d7cda27	0.061731484
229	0x3cf1b1ce	0.02950373
230	0xbdcff758	-0.10154599
231	0x3e73dc3c	0.23814481
232	0xbe33b21c	-0.17548412
233	0xbe12bb00	-0.14329147
234	0x3df96f74	0.12179461
235	0x3e3f16e9	0.18661083
236	0x3e9baed7	0.3040683
237	0x3df3bd6e	0.11901365
238	0x3cdd4786	0.027011644
239	0x3e494897	0.19656597
240	0xbe8cc26c	-0.27492082
241	0xbe0c4e50	-0.13701749
242	0x3d91592d	0.07097087
243	0x3e342f67	0.17596208
244	0xbe59bd1d	-0.21263547
245	0xbe427043	-0.18988137
246	0xbe7742c9	-0.2414657
247	0xbd640c81	-0.055675987
248	0x3e1b4f45	0.15166958
249	0x3d9a3e02	0.07531358
250	0x3d97aaa6	0.074055955
251	0x3d9c271b	0.07624646
252	0x3d89fe18	0.06737918
253	0x3d827ea1	0.06371809
254	0x3e1d925e	0.15387866
255	0xbc0a5bee	-0.008444769

fc1.bias f4 [64]
0	0x3e2d0602	0.16896823
1	0xbd3610d7	-0.044449653
2	0xbdb9dc63	-0.090752386
3	0x3d1d6ec3	0.03843571
4	0xbe9fcfc1	-0.3121319
5	0xbed3be07	-0.41355917
6	0xbd25a66e	-0.040441923
7	0xbd0d75fc	-0.034536347
8	0xbdf03cbd	-0.11730335
9	0xbe853672	-0.260181
10	0xbe25f0d7	-0.16205154
11	0x3deaac99	0.11458702
12	0x3ec0019c	0.37501228
13	0x3efc8f24	0.49327958
14	0x3e70d67e	0.23519322
15	0x3c02e939	0.007990175
16	0xbd0ba8ba	-0.034096457
17	0xbeec7bb2	-0.46188122
18	0xbd1ccb52	-0.03827984
19	0x3e16d07e	0.14727971
20	0x3ea8aded	0.32945195
21	0x3d55f517	0.05223569
22	0x3e9da17c	0.30787265
23	0xbe3db65b	-0.18526594
24	0x3e8a70a6	0.2703907
25	0xbe68f0f0	-0.2274816
26	0x3d87989f	0.06620907
27	0xbcb85332	-0.022500608
28	0x3ed63f56	0.41845196
29	0x3e1e84d3	0.15480356
30	0xbdeb2428	-0.11481506
31	0xbea09574	-0.31364024
32	0xbe31fd2d	-0.17381735
33	0x3e490fbd	0.1963491
34	0xbbfbc58c	-0.0076834615
35	0xbcced1b9	-0.025246488
36	0xbe3e7c4f	-0.18602107
37	0x3e4e8833	0.20169143
38	0xbe4663dc	-0.19374031
39	0xbe083912	-0.1330302
40	0x3e8aa082	0.27075583
41	0xbe91877c	-0.2842368
42	0xbe71774a	-0.23580661
43	0xbc8f7bd2	-0.017515097
44	0xbded195e	-0.11577104
45	0x3eb90aab	0.36140952
46	0x3e7524c4	0.23939806
47	0x3e2d4bcd	0.16923447
48	0x3d5afa92	0.05346162
49	0x3ec42d5a	0.3831585
50	0x3e7a9a1c	0.2447285
51	0x3c9bcdcb	0.019019028
52	0x3cacfecf	0.021117596
53	0x3e9ca54f	0.3059487
54	0x3e1e68ac	0.15469617
55	0x3e51c198	0.20484006
56	0x3e17c2be	0.14820382
57	0x3e0128c5	0.12613209
58	0x3e375d44	0.17906672
59	0x3e36a609	0.17836775
60	0x3e58cfa1	0.21172954
61	0x3e8d610d	0.27613106
62	0x3e5cc355	0.21558888
63	0x3e0b0f9a	0.1358017

fc2.weight f4 [128, 64]
0	0x3d9cc11c	0.0765402
1	0xbe31ecc4	-0.17375475
2	0xbd90f8c9	-0.07078702
3	0xbddbf669	-0.107403584
4	0x3d902ea9	0.0704015
5	0xbe2fc512	-0.1716502
6	0xbd870c06	-0.0659409
7	0x3e500713	0.20315199
8	0xbe41b1cc	-0.1891548
9	0xbd718394	-0.058963373
10	0x3cfc779d	0.030818755
11	0x3c18f090	0.009334698
12	0x3d0a2ccd	0.03373413
13	0x3b050764	0.0020298595
14	0xbcc539f7	-0.024075491
15	0xbd56793e	-0.05236172
16	0x3b2d171e	0.0026411484
17	0x3cf0d802	0.029399876
18	0xbdb6e11c	-0.08929655
19	0xbd8b815b	-0.06811782
20	0xbc21ae3a	-0.009868199
21	0x3c8e52b9	0.01737343
22	0xbd61d24d	-0.0551322
23	0x3c445ca8	0.011984982
24	0x3bb3a020	0.005481735
25	0xbe012e7c	-0.12615389
26	0xbe1a13c5	-0.15046604
27	0xbd047b72	-0.03234429
28	0x3e67e3fd	0.22645564
29	0xbd08ea60	-0.033426642
30	0xbd52648a	-0.051365413
31	0xbe1e7a85	-0.15476425
32	0x3da57ee2	0.080808416
33	0x3e3d963b	0.1851434
34	0x3d2c7952	0.042107888
35	0xbd5da37d	-0.054110993
36	0x3cacf71e	0.021113928
37	0xbd32c7d7	-0.043647613
38	0x3da64326	0.08118276
39	0x3dca18fe	0.09868048
40	0x3d578002	0.052612312
41	0x3e302dc6	0.17204961
42	0x3d5b4c93	0.053539824
43	0x3d18de3a	0.037321307
44	0xbe1aad7a	-0.15105239
45	0x3c7c58ba	0.015402013
46	0xbca35094	-0.019935884
47	0x3e1be44c	0.15223807
48	0x3d2e12a1	0.042498235
49	0x3d394d07	0.045239475
50	0x3d8bf2a2	0.06833388
51	0xbcb43e01	-0.022002222
52	0xbe02ca3f	-0.12772463
53	0x3c4ec726	0.012620723
54	0xbc89de6a	-0.016829688
55	0x3e1a91b2	0.15094641
56	0x3dd8717b	0.1056852
57	0xbe14a2b3	-0.1451519
58	0xbe113046	-0.14178571
59	0xbe0dbd2b	-0.13841693
60	0x3ce9ac89	0.028524654
61	0x3d2a3d45	0.041562337
62	0xbc1055c1	-0.008809508
63	0x3d645fbb	0.05575536
64	0x3da252f2	0.07925977
65	0xbe4d019f	-0.2002015
66	0x3ce67f69	0.028136926
67	0x3d62195c	0.055199966
68	0x3d085ad9	0.033289764
69	0xbe2c42fd	-0.16822429
70	0x3d6fabbc	0.058513388
71	0x3caf56c8	0.021403685
72	0xbe1f56c5	-0.15560444
73	0x3dba6f21	0.091032274
74	0xbdcd2290	-0.10016358
75	0xbe755a59	-0.23960246
76	0xbc574623	-0.0131392805
77	0x3cd7a201	0.026322367
78	0x3ca948e2	0.020664636
79	0xbda0c87f	-0.078507416
80	0xbdcb5f69	-0.099303074
81	0x3df34d7c	0.11880013
82	0xbdbde187	-0.092715316
83	0xbdf70e42	-0.12063266
84	0xbd76b3a4	-0.060229912
85	0x3d65e2e7	0.056124594
86	0xbe32b7db	-0.17452948
87	0xbdcbcd56	-0.09951274
88	0x3d455daf	0.048185047
89	0xbe3928ee	-0.1808202
90	0x3d5f115d	0.05445992
91	0xbd8e3c96	-0.069451496
92	0xbd1d55f6	-0.038412057
93	0xbe4aa6cb	-0.19790189
94	0xbdf3c8a1	-0.11903501
95	0xbe08b34e	-0.1334965
96	0xbe133dbf	-0.14379023
97	0x3db55cc9	0.08855588
98	0x3da0026f	0.07812964
99	0x3c414996	0.011797329
100	0xbdf48be7	-0.11940747
101	0xbe0ed6b6	-0.13949093
102	0x3da6a84a	0.08137567
103	0xbd92cf19	-0.07168407
104	0xbd8a21a7	-0.067447
105	0x3db87043	0.09005787
106	0x3def5a31	0.116871245
107	0x3cfc77ff	0.030818937
108	0xbe496fab	-0.19671504
109	0xbe001f37	-0.12511908
110	0xbda6ff18	-0.08154124
111	0xbd7473e9	-0.059680853
112	0x3ba63690	0.0050724223
113	0x3de6eb86	0.11275391
114	0xbcf43859	-0.029812025
115	0x3d84ec5b	0.06490394
116	0xbd2d907c	-0.04237412
117	0xbe056e9b	-0.13030474
118	0x3c4fbaab	0.012678782
119	0x3e02edae	0.1278598
120	0xbc9934c2	-0.018701915
121	0x3cdc3c8b	0.026884338
122	0xbd8c6729	-0.06855614
123	0x3d4d63bb	0.05014394
124	0x3e34206f	0.17590497
125	0xbd9583b6	-0.073005125
126	0x3e490021	0.19628955
127	0x3c5d2bae	0.013499184
128	0xbd4d4425	-0.050113816
129	0x3c4b450e	0.012406601
130	0x3d462d1a	0.048382856
131	0xbddfd437	-0.10929149
132	0x3d00d670	0.031454504
133	0x3bed1ac2	0.007235856
134	0x3c53ea43	0.01293427
135	0x3d6f7dbd	0.058469523
136	0xbd9f2ea3	-0.07772567
137	0x3d015672	0.03157658
138	0xbd1b7fa7	-0.037963536
139	0xbe17979d	-0.1480393
140	0x3d96be32	0.073604956
141	0xbdff4bc0	-0.1246562
142	0xbd6e4cd6	-0.058178745
143	0xbda095d2	-0.07841076
144	0xbdcaa684	-0.098950416
145	0x3da26a75	0.07930461
146	0xbdc295d6	-0.09501235
147	0x3de6b4e6	0.112649724
148	0xbd089421	-0.03334439
149	0xbd1ea209	-0.038728748
150	0xbce4b00a	-0.027915973
151	0xbc046463	-0.008080575
152	0x3e035a6c	0.12827462
153	0xbe139fa2	-0.14416364
154	0x3d04fc31	0.03246707
155	0xbcc544f3	-0.02408073
156	0x3e814b2a	0.25252658
157	0xbbaae20b	-0.0052149347
158	0x3d5dcee5	0.054152388
159	0xbdeb4414	-0.11487594
160	0xbdb33c3d	-0.08751724
161	0x3df7dd39	0.12102742
162	0xbd86a02d	-0.0657352
163	0x3db36c70	0.08760917
164	0x3bec091e	0.0072032353
165	0x3d63987f	0.055565353
166	0xbda4060e	-0.08008967
167	0x3d5727c6	0.052528165
168	0x3dcbbe54	0.099484116
169	0xbd824d84	-0.06362441
170	0x3e38607c	0.18005556
171	0xbcf2b9d0	-0.029629618
172	0xbd68d7b8	-0.05684635
173	0x3dc695c6	0.09696536
174	0x3d71cb52	0.059031792
175	0x3dfa3460	0.12217021
176	0x3b9a7c6a	0.0047145383
177	0x3d63cf55	0.05561765
178	0xbd084d16	-0.03327664
179	0x3dd557b6	0.1041712
180	0xbe24fc0c	-0.16111773
181	0xbd8774c4	-0.06614068
182	0xbe0559d0	-0.13022542
183	0x3db784cb	0.08960875
184	0x3e193df1	0.14965035
185	0x3dcdadce	0.10042916
186	0xbe06b8eb	-0.13156478
187	0xbe02e283	-0.1278172
188	0xbd5070f0	-0.050888956
189	0xbdc74568	-0.09730035
190	0x3d9a559e	0.075358614
191	0x3da19c56	0.07891147
192	0x3e08acc6	0.13347158
193	0x3ccdb57a	0.025110949
194	0xbd11089f	-0.035408612
195	0xbd8f064a	-0.069836214
196	0x3e18c1cf	0.14917682
197	0xbd9ee6b6	-0.07758848
198	0x399a6af4	0.00029452855
199	0x3e7a58f6	0.24447998
200	0xbe573eae	-0.21020004
201	0xbd6e1e8d	-0.058134604
202	0xbd754cf5	-0.059887845
203	0x3c291710	0.01032044
204	0xbd6d24c0	-0.057896376
205	0xbd93f3e6	-0.07224254
206	0xbdd91dc3	-0.1060138
207	0xbe4b948e	-0.19880888
208	0xbbda377a	-0.0066594454
209	0x3d85f9c7	0.06541782
210	0xbd54e173	-0.051972818
211	0xbd0447fe	-0.03229522
212	0xbd812fdc	-0.063079566
213	0xbd928ccc	-0.07155761
214	0xbd809203	-0.062778495
215	0xbd6a15b6	-0.05714961
216	0xbda773c0	-0.081763744
217	0xbdc49844	-0.09599355
218	0xbda722bc	-0.08160922
219	0xbe324c32	-0.17411879
220	0x3db85047	0.08999687
221	0xbd848ed4	-0.06472555
222	0xbdf7f6b3	-0.12107601
223	0xbe00eeda	-0.12591115
224	0x3d3ea717	0.046546068
225	0x3e3439a9	0.1760012
226	0xbd99ef56	-0.07516353
227	0xbd5cf63f	-0.053945776
228	0xbd80b0de	-0.06283735
229	0xbcee5aa6	-0.029095959
230	0xbe5333df	-0.20625256
231	0x3dbf6313	0.09345069
232	0xbe054e66	-0.13018188
233	0x3e3a5910	0.18198037
234	0x3e404c4a	0.18779102
235	0xbe6651fc	-0.22492212
236	0xbe248485	-0.16066177
237	0x3cd30d32	0.025763128
238	0x3962c488	0.00021626253
239	0x3d62e046	0.055389665
240	0x3d3f9e55	0.046781857
241	0xbd776fb8	-0.060409278
242	0xbd8bc02b	-0.068237625
243	0xbd7a1adc	-0.06106077
244	0xbe0827cd	-0.13296433
245	0xbe29fe33	-0.16600876
246	0x3dcdb48a	0.10044201
247	0x3dab036e	0.083502635
248	0x3d218291	0.03943116
249	0xbdbe4586	-0.09290604
250	0x3d65c657	0.056097355
251	0x3d1c759c	0.0381981
252	0xbdcd3452	-0.10019745
253	0x3b5d6fda	0.0033788593
254	0x3cc3dd4d	0.023909235
255	0x3db52705	0.08845333

fc2.bias f4 [128]
0	0x3ec2812b	0.37989172
1	0x3c3fddd5	0.011710604
2	0x3e5c7794	0.2152999
3	0xbd5e87d5	-0.05432876
4	0x3d4a47cc	0.049384877
5	0x3d8c953a	0.068644
6	0xbc260657	-0.0101333475
7	0xbd55c49f	-0.052189466
8	0x3e9f3bd8	0.31100345
9	0xbe1027a5	-0.14077623
10	0xbe421af2	-0.18955591
11	0x3e84b062	0.2591582
12	0xbe1ad723	-0.1512113
13	0x3dd8e6bd	0.10590885
14	0xbd348f79	-0.04408214
15	0x3e4fc190	0.20288682
16	0xbbc89cee	-0.006122223
17	0x3e19e101	0.15027238
18	0x3e1c864c	0.15285605
19	0xbe2bdd58	-0.16783655
20	0xbe1fce55	-0.15606053
21	0x3c95db03	0.01829291
22	0x3e0741b3	0.13208656
23	0xbdd372ce	-0.10324632
24	0xbd84fa43	-0.06493046
25	0xbb97d5a2	-0.0046336213
26	0x3e42d28f	0.19025634
27	0x3d0fe785	0.035132904
28	0x3d85ce2c	0.06533465
29	0xbe42c865	-0.19021757
30	0xbe59f2a0	-0.2128396
31	0x3acabf51	0.0015468394
32	0xbe136269	-0.14393009
33	0xbddf9389	-0.10916812
34	0x3d88ebb7	0.06685584
35	0x3e57ae84	0.21062666
36	0x3db54252	0.0885054
37	0x3e8cc0e6	0.2749092
38	0xbe0c5479	-0.13704099
39	0xbe4fb77f	-0.20284842
40	0x3e5394bf	0.20662211
41	0x3e4fd449	0.20295824
42	0x3d290009	0.0412598
43	0x3ea6e4f2	0.32596546
44	0xbdb612d2	-0.088903084
45	0xbc4ee2ce	-0.012627317
46	0xbe2eebf6	-0.170822
47	0xbd8a3f50	-0.06750357
48	0x3e6af9dc	0.22946876
49	0x3df59792	0.119918
50	0xbe80d101	-0.25159457
51	0xbda4d173	-0.08047762
52	0x3bcc26ec	0.006230226
53	0xbd56528d	-0.05232482
54	0x3e1a215f	0.15051793
55	0x3de242ac	0.11047873
56	0xbd47d0ac	-0.04878299
57	0x3dedf758	0.11619443
58	0xbe091725	-0.13387735
59	0x3e8eae9b	0.27867588
60	0x3d9b1a03	0.07573321
61	0xbd8e7395	-0.06955639
62	0xbe88044b	-0.26565775
63	0xbe40909b	-0.18805163
64	0xba4ecd8e	-0.00078889064
65	0xbe548e60	-0.20757437
66	0x3d1a42c3	0.037661325
67	0x3e89298f	0.2678952
68	0xbd81052c	-0.062998146
69	0x3d8f6eec	0.070035785
70	0xbc8dbcb5	-0.017301897
71	0xbca843c1	-0.02054012
72	0x3e2a6802	0.16641238
73	0x3e83675f	0.25664803
74	0x3e07f136	0.13275608
75	0xbe98e424	-0.29861557
76	0x3e77c318	0.24195516
77	0xbd97f3c9	-0.07419545
78	0x3cbcded4	0.023055471
79	0xbdb0b55b	-0.08628341
80	0xbe8ea210	-0.2785802
81	0x3dfc4e1f	0.12319588
82	0x3e127077	0.14300714
83	0x3dcaff07	0.09911924
84	0x3ca774d6	0.020441454
85	0xbb820e79	-0.0039690104
86	0xbe498dae	-0.19682953
87	0xbe46aba1	-0.19401409
88	0xbe008d2c	-0.12553853
89	0xbded9ba0	-0.11601949
90	0x3e1df62f	0.15425943
91	0x3e0170bd	0.12640662
92	0x3e16dd49	0.14732851
93	0x3cb261a1	0.021775069
94	0x3e813cdd	0.25241747
95	0x3c3923bd	0.011300025
96	0xbd6847ca	-0.05670909
97	0x3e10c85e	0.14138934
98	0x3e48b8f9	0.19601811
99	0xbeadf565	-0.33976284
100	0x3e456dde	0.19280192
101	0xbe12ac73	-0.14323597
102	0x3e82c829	0.25543335
103	0xbe8b4fa7	-0.27209207
104	0x3ceacfb8	0.028663501
105	0x3e7593f0	0.23982215
106	0x3d201205	0.039079685
107	0x3d83d37d	0.064368226
108	0x3e2cdc02	0.16880801
109	0xbe164dad	-0.14678068
110	0xbd8c515f	-0.06851458
111	0x3d06e05f	0.03292882
112	0xbcc38065	-0.023864934
113	0xbc832590	-0.016009122
114	0x3ca6e3a3	0.020372218
115	0x3e091c05	0.13389595
116	0x3ea412b6	0.32045525
117	0x3c40aa04	0.011759285
118	0xbd8d58a5	-0.06901673
119	0x3dab68fa	0.08369632
120	0x3cc96b72	0.024587367
121	0x3da6c0f3	0.08142271
122	0x3e7f9321	0.24958469
123	0x3e8130da	0.25232583
124	0xbdbc2a8d	-0.091878034
125	0xbe08ad2f	-0.13347314
126	0x3eaabf67	0.33349153
127	0xbd4a0290	-0.04931885

fc3.weight f4 [64, 128]
0	0x3e277682	0.16353801
1	0x3d02b2c7	0.031908777
2	0x3de5bed9	0.11218042
3	0xbd07f32f	-0.033190902
4	0xbc3fa4e8	-0.011697032
5	0xbea13f18	-0.3149345
6	0xbe28245f	-0.16420124
7	0xbddb37fa	-0.10704036
8	0xbd3f381d	-0.046684373
9	0x3d6382a5	0.055544514
10	0xbe2f2daa	-0.17107263
11	0x3e0f2b60	0.1398139
12	0xbd71fb44	-0.059077516
13	0x3d6bdd81	0.05758429
14	0xbdd7c984	-0.10536483
15	0xb97e20f8	-0.0002423561
16	0x3c2e70d3	0.010647017
17	0xbd3deeb0	-0.04637021
18	0x3da9b505	0.0828648
19	0x3d400947	0.046883848
20	0xbe096c1c	-0.13420147
21	0x3cbe592b	0.023235878
22	0xbdd4e371	-0.103949435
23	0x3de5c81f	0.11219811
24	0xbcd34e4d	-0.025794173
25	0xbe7fb0c1	-0.2496977
26	0xbdd25e24	-0.10271862
27	0x3d220b48	0.03956154
28	0x3d17e3bf	0.03708243
29	0xbdd95aa7	-0.10612994
30	0x3cc4a810	0.02400592
31	0x3e3d4906	0.18484887
32	0x3bdd5222	0.0067541758
33	0xbd1b6b0e	-0.037943892
34	0xbe282b16	-0.16422686
35	0x3da6c46a	0.08142932
36	0xbdda83ab	-0.10669645
37	0xbca35da8	-0.01994212
38	0xbc9ebd5c	-0.019377403
39	0xbc48bdfa	-0.012252325
40	0x3d148678	0.036261052
41	0x3cd12e94	0.025534905
42	0xbc8ea7c3	-0.01741398
43	0x3d9f9335	0.077917494
44	0xbe20aa1d	-0.15689893
45	0xbe19f0e9	-0.15033306
46	0xbd067269	-0.032823954
47	0xbdd87b33	-0.105703734
48	0xbd877861	-0.06614757
49	0x3e06dd32	0.13170317
50	0xbe7c60ca	-0.24646297
51	0xbd4080a9	-0.0469977
52	0xba7061aa	-0.00091698265
53	0xbe858818	-0.26080394
54	0x3dc10a64	0.0942581
55	0x3db1967c	0.08671281
56	0xbdb45d2a	-0.08806832
57	0x3d44f1db	0.048082214
58	0xbea107ce	-0.31451267
59	0xbc9f0b9c	-0.019414715
60	0xbb1b70ac	-0.002371828
61	0xbde9573a	-0.1139359
62	0xbe5a5449	-0.21321215
63	0xbe8a997b	-0.2707022
64	0x3cb785ec	0.022402726
65	0x3c5cca5e	0.0134759825
66	0x3bf056fa	0.007334587
67	0x3e04314c	0.1290943
68	0xbde4e2d5	-0.11176077
69	0x3d7e9399	0.06215248
70	0x3da3994e	0.07988225
71	0xbe0390e5	-0.12848242
72	0xbcd96f30	-0.026542276
73	0x3ddf1abd	0.10893772
74	0x3b531709	0.0032209775
75	0xbc668f48	-0.014072247
76	0x3de69d0d	0.11260424
77	0xbca2427a	-0.01980709
78	0xbdd028c0	-0.101640224
79	0xbde7ae35	-0.11312524
80	0xbd6231c7	-0.055223253
81	0xbdef374f	-0.11680471
82	0x3d9c127c	0.07620713
83	0xbd8a4147	-0.06750732
84	0xbe88cf6a	-0.26720744
85	0x3da1fdec	0.0790976
86	0xbdfe69aa	-0.124224976
87	0xbe6b9976	-0.2300776
88	0xbd8c944b	-0.06864222
89	0x3d82ef3e	0.06393288
90	0x3c47ea92	0.012201922
91	0xbe1b4ba6	-0.15165576
92	0x3e16952b	0.1470534
93	0xbd416970	-0.047219694
94	0x3df421f0	0.119205356
95	0xbd503cd5	-0.050839264
96	0xbe16cee7	-0.14727364
97	0xbd6c8e9f	-0.0577532
98	0xbda4ed28	-0.080530465
99	0xbd88bd56	-0.06676738
100	0xbbc6ea81	-0.0060704355
101	0xbdab4be7	-0.083640866
102	0x3d2c4651	0.042059246
103	0xbe84b5b5	-0.2591988
104	0x3e0255e1	0.12728073
105	0x3d474c66	0.048656844
106	0xbe7858dc	-0.24252647
107	0xbe2f04c0	-0.17091656
108	0x3d9955f0	0.074870944
109	0xbcba7951	-0.022762926
110	0xbe544043	-0.20727639
111	0x3d1fa893	0.038979124
112	0xbcb77887	-0.02239634
113	0x3d112de9	0.035444174
114	0xbe258f30	-0.16167903
115	0x3dc2aec7	0.095059924
116	0xbb2e8e0a	-0.0026634955
117	0x3bf4cc10	0.007470615
118	0x3cbd5c8b	0.023115417
119	0x3b293689	0.002581986
120	0x3d6c1025	0.057632584
121	0xbe09f777	-0.13473307
122	0x3e1bd928	0.15219557
123	0xbe0c824e	-0.13721582
124	0xbe14d76c	-0.14535302
125	0xbe6de84f	-0.2323315
126	0x3c1496d8	0.009069167
127	0xbd8c8937	-0.06862109
128	0xbd9865e7	-0.07441311
129	0xbe1e2ef9	-0.15447606
130	0xbdac8a5c	-0.084248275
131	0xbd3360b9	-0.043793414
132	0xbd01204d	-0.031524945
133	0x3dff50c2	0.12466575
134	0x3dd29ba1	0.1028359
135	0x3d8dd25a	0.06924887
136	0xbd876bd1	-0.06612361
137	0x3d9f0fd7	0.07766693
138	0xbccb6009	-0.024826067
139	0xbd60b8c4	-0.054863706
140	0x3db07919	0.086168475
141	0xbe1fd88e	-0.15609953
142	0xbcebb62a	-0.028773386
143	0xbdc2139f	-0.09476399
144	0xbe93fe8a	-0.28905135
145	0x3c8daaff	0.017293451
146	0xbe57055b	-0.20998137
147	0xbd401583	-0.046895515
148	0xbc57cce9	-0.013171413
149	0xbdcb5909	-0.099290915
150	0xbc561903	-0.013067487
151	0xbe540beb	-0.20707671
152	0xbd9ddf11	-0.07708562
153	0x3de1c33d	0.11023567
154	0xbe1d8057	-0.15380989
155	0x3d38278d	0.044959594
156	0xbe2f955f	-0.17146824
157	0xbd04ee79	-0.032453988
158	0xbd8c44b0	-0.068490386
159	0x378abf00	1.6539823e-05
160	0xbdbcfc60	-0.09227824
161	0xbd90e910	-0.07075703
162	0x3e32c221	0.17456867
163	0xbdb2bbb6	-0.08727209
164	0xbcab266c	-0.020892344
165	0x3cdd8cb9	0.02704464
166	0x3d32bbe0	0.043636203
167	0xbe0c0e4d	-0.1367733
168	0xbdb7c32e	-0.089727744
169	0x3d057bc8	0.03258875
170	0x3b5fd2ea	0.0034152814
171	0xbdb03f06	-0.08605771
172	0xbe4fd640	-0.20296574
173	0xbbd312fc	-0.006441472
174	0x3cf54090	0.029938012
175	0x3ce392b6	0.027779918
176	0x3d007dee	0.031370096
177	0xbd37cc3b	-0.044872504
178	0x3cf88a1b	0.030339291
179	0x3db43b7b	0.088004075
180	0xbe0cfe47	-0.13768874
181	0xbda7d6b8	-0.08195251
182	0xbe4e3c57	-0.20140205
183	0xbe343b63	-0.17600779
184	0xbd4a6bcb	-0.049419206
185	0xba6bf416	-0.000900091
186	0x3e042f86	0.12908754
187	0xbdc7b37a	-0.09751029
188	0xbb4f2928	-0.0031610224
189	0x3e1020de	0.14075038
190	0x3bf5d22a	0.00750186
191	0x3dc8297c	0.097735375
192	0xbc04f59b	-0.0081151975
193	0xbdbbb5ea	-0.09165557
194	0xbe88a4cd	-0.26688233
195	0x3db562b4	0.08856717
196	0xbdddd242	-0.10831119
197	0xbd9155f4	-0.070964724
198	0xbdf71c6f	-0.1206597
199	0x3dfa871e	0.12232803
200	0xbd0551dc	-0.03254877
201	0xbd8eab49	-0.06966264
202	0xbd26d2d3	-0.0407284
203	0x3ce60dd4	0.028082766
204	0xbb7ea93a	-0.003885819
205	0x3b2dff9d	0.0026550062
206	0xbba8a666	-0.0051467894
207	0xbdbb6224	-0.09149578
208	0x3d2f9a48	0.042871743
209	0xbd2a1ff5	-0.041534383
210	0xbdc534d3	-0.09629216
211	0xbd573cf6	-0.05254837
212	0x3bad4068	0.005287219
213	0x3cbb399a	0.022854615
214	0x3e3f63e2	0.18690446
215	0x3e01e2b6	0.1268414
216	0x3e15a431	0.14613415
217	0xbdee2290	-0.11627686
218	0xbe0f0e91	-0.139704
219	0xbe1233a9	-0.1427752
220	0x3cf280e4	0.029602475
221	0xbe513aad	-0.2043254
222	0x3cc7b5e7	0.02437873
223	0xbde61183	-0.11233809
224	0x3e1b1c28	0.1514746
225	0xbe1cdbc4	-0.15318209
226	0xbc50d555	-0.012746175
227	0x3de5766d	0.112042286
228	0xbd270811	-0.040779177
229	0x3d912d57	0.07088726
230	0xbdf44d0c	-0.11928758
231	0xb92c8ef0	-0.00016456447
232	0xbe6259ae	-0.22104523
233	0xbda81ae5	-0.08208255
234	0x3e132433	0.14369278
235	0xbde672c3	-0.11252358
236	0xbc5c9b0d	-0.013464701
237	0x3e037f8e	0.12841627
238	0xbc88de81	-0.01670766
239	0xbc9b9703	-0.018992906
240	0xbd47e347	-0.048800733
241	0xbd6c4660	-0.057684302
242	0x3e5af7f2	0.21383646
243	0xbe78e724	-0.24306923
244	0xbdc2fcb3	-0.09520855
245	0x3de4f448	0.111794055
246	0xbd23327d	-0.03984307
247	0xbdfcdab3	-0.12346401
248	0xbd83d51a	-0.0643713
249	0x3e0925f0	0.13393378
250	0xbd2817a0	-0.041038156
251	0xbdd81e40	-0.10552645
252	0x3db44174	0.08801547
253	0x3d036850	0.032081902
254	0x3cc9ccf1	0.024633856
255	0xbd147ddf	-0.036252853

fc3.bias f4 [64]
0	0x3e43dc0b	0.19126908
1	0x3d4ea25a	0.0504478
2	0x3d5e5675	0.05428167
3	0xbe1b9b1c	-0.15195888
4	0xbe7b7d79	-0.24559583
5	0x3d8f7fbb	0.070067845
6	0x3dd113c1	0.10208846
7	0xbd4a8129	-0.049439583
8	0xbceb1ce9	-0.028700309
9	0xbda7308f	-0.08163559
10	0xbdc86246	-0.09784369
11	0x3e3fb64b	0.18721883
12	0x3e84f1a4	0.25965607
13	0x3e3d879f	0.18508767
14	0xbda8cc72	-0.0824212
15	0xbe61eeda	-0.22063771
16	0xbdea8aff	-0.11452293
17	0xbe1d4cd4	-0.15361339
18	0x3e130e1f	0.14360856
19	0xbd5768ab	-0.052590054
20	0x3e32d14a	0.1746265
21	0xbe38896f	-0.18021177
22	0x3da493dd	0.08036015
23	0x3de1ab79	0.11019034
24	0xbe070627	-0.1318594
25	0x3eaecd17	0.34140846
26	0x3e82c48e	0.25540584
27	0xbd85bc4a	-0.06530054
28	0xbdb6d5a0	-0.089274645
29	0x3d86edda	0.06588335
30	0xbe2af531	-0.16695096
31	0x3e510332	0.20411375
32	0x3da845b1	0.082164176
33	0xbc5eb092	-0.013591902
34	0xbbb08ca1	-0.005387858
35	0xbd0db26a	-0.034593977
36	0xbbc8808b	-0.006118839
37	0xbe69303a	-0.22772303
38	0x3da2ee46	0.07955603
39	0x3e08a4a6	0.13344058
40	0xbddd5136	-0.108065054
41	0x3e4a4bce	0.1975548
42	0x3e893846	0.26800746
43	0xbc38c7c5	-0.0112780975
44	0x3dcf8d68	0.10134393
45	0x3e13fb75	0.14451392
46	0x3e166436	0.14686665
47	0xbd099238	-0.03358671
48	0xbe0dd881	-0.13852121
49	0x3e38e2a2	0.18055204
50	0x3ba6c53e	0.005089431
51	0x3e83572d	0.25652447
52	0x3cb091af	0.021553842
53	0x3e8a370b	0.2699512
54	0xbe02f67a	-0.12789336
55	0x3c8b54df	0.017008243
56	0x3d72c166	0.05926647
57	0xbd455d54	-0.048184708
58	0x3d960cdb	0.07326671
59	0xbc949888	-0.018139139
60	0x3e7c3f5c	0.24633545
61	0x3e7407be	0.23831078
62	0xbe793a5a	-0.24338666
63	0xbe4a502f	-0.1975715

fc4.weight f4 [14, 64]
0	0x3e6358d3	0.22201853
1	0xbe2c949b	-0.16853563
2	0xbd102712	-0.03519351
3	0x3e0684b2	0.13136557
4	0xbd24dcb4	-0.04024954
5	0x3e86333c	0.26210964
6	0xbc963cbe	-0.018339511
7	0x3d8818e7	0.06645375
8	0x3e3cb5d2	0.18428734
9	0x3b93ed24	0.0045143533
10	0xbd589d34	-0.052884296
11	0x3df55700	0.119794846
12	0x3e233b95	0.15940697
13	0xbbfd6859	-0.0077333865
14	0xbe84094c	-0.25788343
15	0xbc846cea	-0.016165216
16	0xbda47829	-0.08030731
17	0x3db388f0	0.08766353
18	0x3e78e768	0.24307024
19	0xbcb4b1d3	-0.02205745
20	0x3d4f9316	0.05067738
21	0xbdaa6042	-0.08319141
22	0x3c5ff160	0.013668388
23	0xbc1303ea	-0.008973101
24	0x3d58d4e6	0.05293741
25	0x3d1b2fce	0.037887387
26	0x3db4b512	0.08823599
27	0xbe189efc	-0.14904398
28	0xbde4dd27	-0.11174994
29	0x3d4261f0	0.04745668
30	0xbd847ea0	-0.06469464
31	0xbd596780	-0.05307722
32	0xbe4b955d	-0.19881196
33	0xbe7c757c	-0.24654192
34	0xbc8978d0	-0.01678124
35	0x3e48b7d7	0.1960138
36	0x3dc6edc2	0.097133175
37	0xbd9fdd5b	-0.07805892
38	0x3e2fc167	0.17163621
39	0x3df049d0	0.117328286
40	0xbd760b47	-0.06006935
41	0x3e39460c	0.18093127
42	0x3d44204b	0.04788236
43	0xbe5945a5	-0.21217974
44	0x3dd311c8	0.10306126
45	0x3e1e1e18	0.15441167
46	0xbd470c46	-0.04859569
47	0x3e4cef7f	0.20013236
48	0x3e87e03b	0.26538262
49	0x3e9ca64f	0.30595633
50	0x3db426c5	0.08796457
51	0x3e95b164	0.292369
52	0x3d71a2b6	0.058993064
53	0x3e21384e	0.15744135
54	0xbe5fc10c	-0.21850985
55	0x3d4c425e	0.04986798
56	0xbe125869	-0.14291538
57	0xbdea4d16	-0.11440484
58	0xbe8063f2	-0.25076252
59	0xbe34a970	-0.1764276
60	0x3e198099	0.14990462
61	0x3d963757	0.07334774
62	0xbd68b18f	-0.056809958
63	0xbe7bd2bf	-0.24592112
64	0x3df7e946	0.1210504
65	0xbe8ced83	-0.27524957
66	0x3de72139	0.112856336
67	0xbe01f3e8	-0.12690699
68	0xbe84ce55	-0.2593867
69	0x3cc6ab05	0.02425147
70	0xbc090707	-0.008363492
71	0x3d3f74eb	0.04674236
72	0x3e3cfe37	0.1845635
73	0xbe4eabc6	-0.20182714
74	0xbe107ecf	-0.14110874
75	0x3e374a44	0.17899424
76	0x3e8948e1	0.26813415
77	0x3e86bfc4	0.2631818
78	0xbe54a9ea	-0.20767942
79	0xbe1b7c5b	-0.15184157
80	0xbdd7fc54	-0.10546175
81	0xbd036b6a	-0.03208486
82	0x3e076569	0.13222279
83	0xbdff67c7	-0.12470966
84	0x3e7dd4db	0.24788229
85	0xbe8cd815	-0.27508608
86	0xbe846b18	-0.25862956
87	0x3e9ad434	0.30240023
88	0xbe2cb9cf	-0.16867755
89	0x3d10605e	0.035248153
90	0xbd3d0be8	-0.046153933
91	0xbdcf24fe	-0.101144776
92	0xbda35150	-0.079744935
93	0x3e0cff03	0.13769154
94	0xbe2a3e0a	-0.16625229
95	0xbe4a72ca	-0.19770351
96	0xbd6a1b5b	-0.057154994
97	0xbe027be4	-0.12742573
98	0x3d05426e	0.032534055
99	0x3e55a922	0.208653
100	0x3e9de53c	0.30838954
101	0xbe5b163e	-0.21395203
102	0x3e824d97	0.2544982
103	0x3ea111bd	0.31458846
104	0xbe1997be	-0.14999291
105	0x3df30ef6	0.11868088
106	0x3e6b15b1	0.22957493
107	0xbd98782b	-0.07444795
108	0x3ba14390	0.004921384
109	0x3cf32e6c	0.029685222
110	0x3c72b319	0.014813208
111	0x3e168761	0.1470008
112	0x3e03f46a	0.12886205
113	0x3dc37088	0.09542948
114	0x3e3fcc44	0.18730265
115	0x3e7cdd50	0.24693799
116	0x3c84ad94	0.01619605
117	0x3ea30d13	0.31845912
118	0xbe164f94	-0.14678794
119	0x3dfb3287	0.12265497
120	0xbea62b56	-0.32454938
121	0xbe58a462	-0.21156457
122	0xbe6026d8	-0.21889818
123	0xbdb95325	-0.09049062
124	0x3e70778b	0.23483102
125	0x3e11155c	0.14168304
126	0xbe908fef	-0.28234813
127	0xbe3d6c30	-0.18498302
128	0x3e0d5afb	0.13804238
129	0xbcc6d897	-0.0242732
130	0x3e7715db	0.24129431
131	0x3e759e6e	0.23986217
132	0xbca5d1fa	-0.020241726
133	0x3eb5fe72	0.3554569
134	0x3db65643	0.08903172
135	0x3d911374	0.070837885
136	0x3e73f5b1	0.23824193
137	0x3e0279d7	0.1274179
138	0x3c289d46	0.010291403
139	0xbde66b30	-0.11250913
140	0x3ee1a6c5	0.44072548
141	0x3e87ce62	0.26524645
142	0x3d7b0ac4	0.061289564
143	0x3e7e20a4	0.24817139
144	0x3d617858	0.05504641
145	0x3e4f74b7	0.20259367
146	0x3ea218f6	0.3165967
147	0xbd56c6b1	-0.05243558
148	0x3e4025f5	0.1876448
149	0x3da2963d	0.07938812
150	0xbd68588a	-0.056725062
151	0x3e603516	0.2189525
152	0x3e1e5abd	0.15464301
153	0x3e049620	0.12947893
154	0x3e23d443	0.1599894
155	0xbccdb45e	-0.02511042
156	0xbdc59b3f	-0.096487515
157	0x3dc1fe3e	0.09472321
158	0x3e02df46	0.12780485
159	0x3d957498	0.07297629
160	0xbd95f40c	-0.07321939
161	0x3dc56380	0.09638119
162	0x3dcd7244	0.1003156
163	0x3e6bde29	0.23033966
164	0x3e709d25	0.23497446
165	0xbcd6f473	-0.02623961
166	0x3e6b500d	0.22979756
167	0x3ec53ba0	0.38522053
168	0x3d86e682	0.065869346
169	0x3edf38e4	0.43598092
170	0x3ee52591	0.44755223
171	0xbd0db156	-0.03459295
172	0x3d348d65	0.044080157
173	0x3e01a059	0.12658824
174	0xbe108f9f	-0.14117287
175	0x3e3b2294	0.1827491
176	0x3eb7cb18	0.35897136
177	0x3ed9ed89	0.42564037
178	0xbd3284bb	-0.043583613
179	0x3eb440d3	0.35205707
180	0x3df5579c	0.11979601
181	0x3ee025ca	0.4377883
182	0x3cce58f6	0.025188904
183	0x3e811bcb	0.25216517
184	0xbe26c4ce	-0.16286013
185	0xbc815b78	-0.015790686
186	0xbd7f3529	-0.062306557
187	0x3d0661a6	0.03280797
188	0x3e5fe52a	0.21864763
189	0x3de9c554	0.114145905
190	0x3cfffb05	0.031247625
191	0x3d37b269	0.04484788
192	0xbc6ef36e	-0.014584405
193	0xbc2986bd	-0.0103470655
194	0x3cc55e2a	0.024092752
195	0x3e2d9dd2	0.16954735
196	0xbe4ca867	-0.19986115
197	0x3e07b115	0.13251145
198	0x3c9dbaa0	0.019254029
199	0x3de5c980	0.11220074
200	0x3d171563	0.03688563
201	0xbe44f1ad	-0.19232817
202	0xbd86834d	-0.065680124
203	0xbdd6f4b2	-0.10495891
204	0x3e4e6cd8	0.20158708
205	0x3d10f564	0.035390273
206	0xbd900b3f	-0.07033395
207	0x3cbdd85b	0.023174455
208	0xbe22c822	-0.15896657
209	0xbe08ecf7	-0.13371645
210	0x3e26e56f	0.1629846
211	0x3d1166d4	0.035498455
212	0x3de6e022	0.11273219
213	0x3d0c53f1	0.03425974
214	0xbe0546ab	-0.13015239
215	0x3c778e62	0.01510963
216	0x3c18e020	0.009330779
217	0x3e1b200a	0.1514894
218	0x3d40ebcf	0.047099885
219	0xbe33e371	-0.17567231
220	0xbc3d1fd7	-0.011543236
221	0xbd91d53c	-0.07120749
222	0xbd646f67	-0.055770304
223	0xbd04f44f	-0.032459553
224	0xbe1ac8b0	-0.15115619
225	0xbccda335	-0.025102237
226	0xbd902a2e	-0.07039295
227	0x3dc7a618	0.09748477
228	0x3e21583b	0.15756314
229	0xbd854288	-0.065068305
230	0x3c66aea5	0.014079724
231	0x3e139d74	0.14415532
232	0xbd8907ab	-0.06690916
233	0xbc8dc2bd	-0.017304773
234	0x3deaf5d0	0.11472666
235	0xbdf800ba	-0.121095136
236	0x3c1ced60	0.009578079
237	0x3d2131be	0.03935408
238	0xbd922c74	-0.07137385
239	0x3cd97899	0.026546763
240	0x3aae1dc3	0.0013284016
241	0x3e15626c	0.14588326
242	0xbd1e81da	-0.038698055
243	0xbc7d02c0	-0.01544255
244	0xbd559f2d	-0.052153755
245	0x3de0a3ac	0.10968718
246	0xbe1fd9e0	-0.15610456
247	0x3e479e3a	0.19493952
248	0xbb989e0a	-0.0046575116
249	0x3ce717d6	0.028209608
250	0xbe01184d	-0.12606926
251	0x3dcd4a0a	0.100238875
252	0xbd8331da	-0.06405993
253	0x3d232329	0.039828453
254	0xbde639d1	-0.11241496
255	0xbdf41bf0	-0.11919391

fc4.bias f4 [14]
0	0x3e66f6af	0.2255504
1	0x3cb5b660	0.02218169
2	0x3e3e2cdf	0.18571804
3	0x3e41ae82	0.18914226
4	0x3e9c9721	0.30584052
5	0x3e98bd16	0.2983176
6	0x3e79481b	0.24343912
7	0x3e4068a8	0.18789923
8	0x3eb934f8	0.36173224
9	0x3e3ae52c	0.18251485
10	0x3ef0e1bd	0.47047225
11	0x3e92eee5	0.28697887
12	0x3e3ec9c8	0.18631661
13	0x3ebf733d	0.37392607
