saved_models/montecarlo_qlearning_hybrid.pth (torch, 79792 bytes, 8 tensors)

fc1.weight f4 [64, 24]
0	0x3e1dc735	0.15408023
1	0x3e2c1c0d	0.16807576
2	0xbe11ee61	-0.1425109
3	0xbdab4dee	-0.08364473
4	0x3d8d94a4	0.069131166
5	0xbd213896	-0.039360605
6	0x3e4dfc30	0.20115733
7	0xbdca6e1b	-0.09884282
8	0x3e1fcd88	0.15605748
9	0xbda25320	-0.07926011
10	0xbe0e0243	-0.1386805
11	0x3c1aaae3	0.009440157
12	0xbdecc626	-0.11561231
13	0x3d0564b5	0.032566745
14	0xbe3744c1	-0.17897321
15	0x3e5d79dd	0.21628518
16	0x3e3d3ccf	0.18480228
17	0xbdee559a	-0.11637421
18	0x3e1ca50b	0.15297334
19	0x3ddec6e0	0.10877776
20	0xbdcae5ab	-0.09907087
21	0x3d0e0aea	0.034678377
22	0xbd02e421	-0.031955842
23	0xbba92c24	-0.0051627327
24	0x3dd28496	0.10279195
25	0xbd2ed4d9	-0.042683456
26	0xbde7b4c2	-0.11313774
27	0xbe1c6808	-0.1527406
28	0x3e8ab6db	0.27092633
29	0x3e875c52	0.26437622
30	0x3e32fe1f	0.17479752
31	0xbe0e1323	-0.13874488
32	0x3e4443f4	0.19166547
33	0x3d4cfee5	0.050047774
34	0xbe556d11	-0.20842387
35	0x3d221d31	0.03957862
36	0xbd03c077	-0.03216597
37	0x3cc67c82	0.024229292
38	0x3ccc01ee	0.024903264
39	0xbddd5f89	-0.108092375
40	0x3dca5dd6	0.09881179
41	0x3dba170f	0.09086429
42	0xbbca4bb9	-0.0061735776
43	0xbda53346	-0.0806642
44	0xbce4d720	-0.02793461
45	0xbe57641d	-0.21034284
46	0x3dfeabd0	0.124351144
47	0xbe250b50	-0.16117597
48	0xbe2f0e54	-0.1709531
49	0xbcd3ca21	-0.025853219
50	0xbe3aeb8b	-0.18253915
51	0xbcb13578	-0.021631941
52	0x3da215f1	0.07914341
53	0x3cf0dfa3	0.029403513
54	0xbe222aff	-0.15836714
55	0xbc9f778a	-0.01946618
56	0xbdbe5b08	-0.092947066
57	0x3e285f6a	0.16442648
58	0x3c81f153	0.015862143
59	0xbd51a768	-0.05118504
60	0xbde9d969	-0.11418421
61	0x3b1b7db9	0.002372606
62	0x3e6a959a	0.22908631
63	0x3e0027de	0.12515208
64	0xbe368b88	-0.17826664
65	0x3daef26c	0.08542332
66	0xbdc30a90	-0.09523499
67	0x3dd8847b	0.10572144
68	0xbdbe4048	-0.092896044
69	0x3e2cae45	0.16863354
70	0xbe0a9d8d	-0.13536663
71	0x3de806cf	0.11329424
72	0xbea3e3cb	-0.3200973
73	0xbcaa5041	-0.020790221
74	0xbe9a2582	-0.3010674
75	0xbe0ea921	-0.13931705
76	0xbd8e3d71	-0.06945313
77	0xbe6ee91a	-0.23331109
78	0x3b831114	0.0039998386
79	0xbe1a10a4	-0.1504541
80	0x3e29cabc	0.16581243
81	0x3d6a02f2	0.057131715
82	0x3df24c36	0.11830942
83	0xbc0f1bf7	-0.008734695
84	0x3d34d6f7	0.04415032
85	0xbda20658	-0.07911366
86	0x3dfec30c	0.12439546
87	0xbd0498aa	-0.032372154
88	0x3e51f800	0.2050476
89	0x370b9c80	8.321484e-06
90	0xbd445648	-0.047933847
91	0xbe1a4b27	-0.15067731
92	0x3e20e6c3	0.15713029
93	0xbd39ab5f	-0.045329448
94	0xbc70201e	-0.014656095
95	0x3c7cfd78	0.015441291
96	0xbe2948f5	-0.16531737
97	0x3d4a145c	0.049335822
98	0xbe291367	-0.16511308
99	0x3df8f8de	0.12156843
100	0x3d4f7991	0.050653044
101	0x3cad7557	0.021174116
102	0xbe534bcc	-0.20634383
103	0x3e0898db	0.1333956
104	0xbe0e5f43	-0.13903527
105	0x3d32e2bf	0.043673273
106	0xbe31052c	-0.17287129
107	0xbe65c1ac	-0.22437161
108	0x3e032150	0.12805676
109	0x3dc41086	0.09573464
110	0xbdbfe80a	-0.0937043
111	0x3e21c222	0.15796712
112	0x3e1aaffb	0.15106194
113	0xbe76b4ea	-0.2409245
114	0x3e5362b7	0.20643125
115	0x3dae9df3	0.0852622
116	0x3dcde478	0.100533426
117	0xbc14b7d8	-0.009077035
118	0x3d9c5be8	0.07634717
119	0xbe8f5abd	-0.27998915
120	0x3d89699f	0.06709599
121	0xbe2d9660	-0.16951895
122	0x3e0edade	0.13950679
123	0xbd8dc9e7	-0.069232754
124	0x3b6a3ebf	0.0035742966
125	0xbed8ba1a	-0.42329484
126	0xbe1d4287	-0.1535741
127	0x3d77acc0	0.06046748
128	0x3db9f5a8	0.09080058
129	0xbe418e41	-0.18901922
130	0x3e1128a8	0.14175665
131	0xbd9c23a3	-0.07623985
132	0x3d3b6bee	0.045757227
133	0xbdce2c4c	-0.10067043
134	0x3ea2526e	0.31703514
135	0xbd700343	-0.05859686
136	0x3e05231f	0.13001679
137	0x3e1f4c7a	0.15556517
138	0xbdab2f88	-0.08358675
139	0xbe68a132	-0.22717741
140	0x3cf18270	0.029481143
141	0xbc5c92be	-0.01346272
142	0xbdb31191	-0.08743585
143	0xbddca9e8	-0.107745945
144	0xbdc20b9e	-0.09474872
145	0x3e2be7cf	0.16787647
146	0x3e11e1ac	0.14246243
147	0x3d363579	0.04448459
148	0x3c922327	0.017839028
149	0x3e8494f9	0.25894907
150	0xbd3b2e69	-0.045698557
151	0x3d4bb63e	0.049734347
152	0xbd42b36b	-0.047534388
153	0xbde793b0	-0.11307466
154	0xbe276a9b	-0.1634926
155	0xbbb17807	-0.0054159197
156	0xbcca4dff	-0.024695395
157	0xbd73924a	-0.059465684
158	0xbd57ed14	-0.05271633
159	0x3d814bad	0.06313262
160	0x3dfb110b	0.1225911
161	0xbcf497d6	-0.029857557
162	0x3c91dc1f	0.017805157
163	0x3e01dd36	0.12682042
164	0x3e2fd61f	0.17171524
165	0x3e3312f7	0.17487703
166	0x3e1da905	0.15396507
167	0xbdd62274	-0.1045579
168	0x3d22b000	0.039718628
169	0xbde634bf	-0.11240529
170	0xbdafa2cf	-0.08575975
171	0xbe629613	-0.22127561
172	0x3da4a73a	0.080397084
173	0xbd2eb87a	-0.0426564
174	0xbe0db94b	-0.13840215
175	0xbd191a7b	-0.03737877
176	0x3d8fd2ff	0.07022666
177	0xbd218b24	-0.039439335
178	0x3e08fb86	0.13377199
179	0xbe31d757	-0.17367302
180	0xbd4c6549	-0.04990128
181	0x3e0d3101	0.13788225
182	0x3d4a9757	0.049460735
183	0x3e3eeb21	0.18644382
184	0xbd84ef7c	-0.064909905
185	0xbe4a761c	-0.19771618
186	0x3db77aeb	0.089589916
187	0x3d47dc2f	0.048793968
188	0xbbf178d2	-0.007369139
189	0xbd6da677	-0.05802008
190	0x3ccd8106	0.025085937
191	0x3ddbfd58	0.10741681
192	0x3d591ccb	0.053005975
193	0xbd9b299e	-0.07576297
194	0x3e21a510	0.15785623
195	0xbdf003b9	-0.1171946
196	0x3d61c423	0.05511869
197	0x3e45b925	0.19308908
198	0xbe200209	-0.15625776
199	0xbe18d407	-0.14924632
200	0x3de442a2	0.11145522
201	0x3e070268	0.13184512
202	0x3e400432	0.187516
203	0x3e40d2fe	0.18830487
204	0x3e0486d8	0.12942064
205	0xbd12926c	-0.03578417
206	0xbe450851	-0.19241454
207	0xbe2e3f9e	-0.17016456
208	0x3e37bd41	0.17943288
209	0x3c5e7595	0.013577838
210	0xbe0711c6	-0.13190374
211	0x3e0f7558	0.14009607
212	0xbe0eb582	-0.13936427
213	0xbe302127	-0.17200147
214	0x3d12e389	0.035861526
215	0x3d59b254	0.053148583
216	0xbc20f361	-0.009823651
217	0x3afd5c0b	0.0019329799
218	0xbdfd16e4	-0.12357882
219	0xbddf368b	-0.10899075
220	0x3e475ed8	0.19469774
221	0x3dc270d9	0.0949418
222	0xbdde1ae8	-0.10844976
223	0xbe3825bf	-0.17983149
224	0x3dab5c0a	0.083671644
225	0x3ce73eda	0.028228212
226	0x3ddec97e	0.10878275
227	0xbe28ac18	-0.16471899
228	0x3e06063c	0.13088316
229	0x3d603a67	0.054743197
230	0xbe0fc902	-0.14041522
231	0xbe2971be	-0.16547295
232	0xbe922fd5	-0.28552118
233	0xbda9e09c	-0.08294794
234	0xbcb30966	-0.021855067
235	0xbe51b59d	-0.20479436
236	0xbe42ffaf	-0.19042848
237	0x3c3e1f44	0.011604134
238	0x3d8824b8	0.066476285
239	0x3c8dd0df	0.017311512
240	0xbdaf41ed	-0.08557496
241	0x3c8dbbc8	0.017301455
242	0xbe61a486	-0.22035417
243	0x3e320965	0.17386396
244	0xbdf53c47	-0.119743876
245	0xbd5e131c	-0.054217443
246	0xbe41af83	-0.18914609
247	0xbe08fd80	-0.13377953
248	0xbdfbf69f	-0.123028986
249	0x3c5d770e	0.013517154
250	0xbe1a05a9	-0.15041222
251	0xbd7afd7a	-0.06127689
252	0xbe1b49db	-0.15164892
253	0xbd840cec	-0.06447777
254	0x3dc47851	0.09593261
255	0x3ba68b8b	0.005082553

fc1.bias f4 [64]
0	0x3c3b9604	0.011449341
1	0x3da2895b	0.07936355
2	0x3d2bff5d	0.04199158
3	0xbe8f7d9f	-0.2802553
4	0xbe70efe3	-0.2352901
5	0xbd59fc99	-0.05321941
6	0x3e04edba	0.1298131
7	0x3dc45465	0.095864095
8	0xbdb4c165	-0.088259496
9	0x3e68f38e	0.22749159
10	0xbe9907aa	-0.2988866
11	0x3e4ed280	0.20197487
12	0xbde86c03	-0.113487266
13	0xbda15d59	-0.07879133
14	0x3da4ca62	0.08046414
15	0x3d89f4f6	0.06736176
16	0x3e3e9206	0.18610391
17	0xbdf04562	-0.11731984
18	0x3e8a8d27	0.27060816
19	0xbd975284	-0.073887855
20	0x3d10291b	0.03519545
21	0xbcf4b3f1	-0.029870959
22	0xbda09160	-0.07840228
23	0x3e38be62	0.18041375
24	0x3e85a2bb	0.26100716
25	0x3e1ab0bd	0.15106483
26	0x3e5bb936	0.21457371
27	0xbd9152f5	-0.07095901
28	0xbc26e4a4	-0.010186348
29	0xbe8bd24d	-0.27308884
30	0xbd370af2	-0.044688173
31	0xbd1b725f	-0.03795087
32	0x3e7d7f79	0.24755658
33	0x3db5298b	0.08845814
34	0x3df1e2f4	0.11810866
35	0x3b8b6139	0.004253533
36	0xbe0ac8aa	-0.1355311
37	0xbe6b4549	-0.22975649
38	0x3e4c6bc7	0.19962989
39	0x3e000d01	0.1250496
40	0x3e865d62	0.2624312
41	0x3e38cd5d	0.1804709
42	0xbe8f1126	-0.2794277
43	0xbd9f7a32	-0.07786979
44	0x3e19cf43	0.1502047
45	0xbd3b8eb3	-0.045790385
46	0x3de8361c	0.113384455
47	0x3d8f701e	0.070038065
48	0xbd44042d	-0.047855545
49	0x3e890644	0.26762593
50	0xbe780ab0	-0.24222827
51	0x3d02540b	0.03181843
52	0xbdcb24d2	-0.09919132
53	0x3ea7602b	0.32690558
54	0x3de9dbce	0.114188775
55	0xbdcbeda6	-0.09957437
56	0xbc92c7a4	-0.017917462
57	0x3e1d2245	0.15345104
58	0xbdf6332e	-0.120214805
59	0xbe05fe51	-0.13085295
60	0x3e09aaa8	0.13444006
61	0xbcc04d36	-0.023474317
62	0x3e920c49	0.28524998
63	0x3d9f5e25	0.077816285

fc2.weight f4 [128, 64]
0	0xbe44c688	-0.19216359
1	0xbb3fe53f	-0.0029280928
2	0xbdf657ac	-0.12028441
3	0xbcac7d32	-0.021055792
4	0x3e255633	0.16146164
5	0xbd83863b	-0.06422087
6	0x3d6f0fef	0.058364805
7	0xbda9c791	-0.082900174
8	0x3e0e143b	0.13874905
9	0xbd5f8b58	-0.054576248
10	0x3d531b42	0.051539667
11	0x3d26ca12	0.040720053
12	0x3dbbb586	0.09165482
13	0xbd26830b	-0.040652316
14	0x3ccbc703	0.02487517
15	0xbdcdd8f2	-0.10051145
16	0xbdd3c149	-0.103396006
17	0x3e309758	0.17245233
18	0x3db76318	0.089544475
19	0x3dae965b	0.08524772
20	0x3d624054	0.05523713
21	0x3dc8c2e2	0.09802796
22	0x38a55900	7.884391e-05
23	0xbd552a2a	-0.052042164
24	0x3d84aecf	0.064786546
25	0xbd2a0c41	-0.041515592
26	0xbd82b328	-0.063818276
27	0x3d55dec6	0.052214406
28	0x3d327753	0.043570828
29	0xbd5146ea	-0.05109302
30	0xbcf2585d	-0.02958315
31	0xbe5a88c1	-0.2134123
32	0x3d58e7a9	0.052955303
33	0xbdb54d1e	-0.088525996
34	0x3e18cbb2	0.14921454
35	0x3de98b71	0.114035495
36	0xbced55b6	-0.028971534
37	0x3cbfb237	0.02340041
38	0xbd4eec01	-0.05051804
39	0x38b309e0	8.5372245e-05
40	0xbd4056b7	-0.046957698
41	0xbe057042	-0.13031104
42	0xbd3b9318	-0.045794576
43	0xbc978e12	-0.018500362
44	0x3e00083f	0.12503146
45	0xbc8495df	-0.016184745
46	0x3dfdab4a	0.123861864
47	0xbd67505b	-0.056473117
48	0x3e13c528	0.14430678
49	0xbe2cb230	-0.16864848
50	0xbd4eb29f	-0.050463315
51	0x3da7dc61	0.08196331
52	0x3d5e28b5	0.05423804
53	0x3d89b1ea	0.067233875
54	0xbd7fc5b5	-0.062444407
55	0x3d858b72	0.06520738
56	0x3dbda344	0.09259656
57	0x3c2edb5e	0.010672418
58	0x3caae0fe	0.020859238
59	0xbb1ebdc2	-0.0024221991
60	0x3d6edc5b	0.058315616
61	0xbe1ae08f	-0.15124725
62	0xbaebb6b3	-0.0017983526
63	0xbc2c3166	-0.010509824
64	0xbe460271	-0.19336869
65	0xbba6a9db	-0.0050861663
66	0x3c6bbbe2	0.0143880565
67	0xbde41667	-0.111370854
68	0xbda858f5	-0.08220092
69	0xbcbc5010	-0.022987396
70	0xbd800355	-0.062506355
71	0xbde5203a	-0.11187787
72	0xbd13461e	-0.03595554
73	0x3df96d5b	0.12179061
74	0x3deece69	0.11660463
75	0xbe1993d8	-0.14997804
76	0x3c02f755	0.007993539
77	0x3dc9e010	0.0985719
78	0x3d3750a8	0.044754654
79	0xbdaa6c5a	-0.08321448
80	0xbd8ecef0	-0.06973064
81	0xbcedabca	-0.02901258
82	0x3c59e01d	0.013298062
83	0x3b27882d	0.0025563345
84	0x3d00b47d	0.031422127
85	0xbd12056f	-0.035649713
86	0x3e095539	0.13411416
87	0xbd239825	-0.03994002
88	0x3d049081	0.032364372
89	0x3c6a9452	0.014317589
90	0x3dc58a93	0.096455716
91	0x3e4d0355	0.20020802
92	0xbc87bb61	-0.016568841
93	0xbd01d958	-0.031701416
94	0x3d23d7d8	0.040000767
95	0xbde360bc	-0.11102435
96	0x3ca98477	0.020693047
97	0x3c28289e	0.01026359
98	0x3d7702cc	0.0603054
99	0x3be6a0b4	0.0070382003
100	0x3db305b8	0.08741325
101	0xbdf12874	-0.11775294
102	0x3d4993dc	0.049213275
103	0xbdb2775a	-0.08714171
104	0x3d9f0c89	0.07766063
105	0xbe35b904	-0.17746359
106	0x3d36e763	0.04465426
107	0xbd902a85	-0.0703936
108	0x3dbbc0c5	0.09167627
109	0x3d0ff514	0.035145834
110	0xbc20ab88	-0.009806521
111	0xbc1de4f0	-0.0096371025
112	0xbe0fb8d7	-0.14035355
113	0xbd6ccab8	-0.057810515
114	0xbdea62e6	-0.11444645
115	0x3d66d5fe	0.056356423
116	0x3dc04a4c	0.09389171
117	0x3bca49c8	0.006173346
118	0xbe279faf	-0.16369508
119	0xbdccae31	-0.09994162
120	0xbe0ca075	-0.13733084
121	0x3d15be8a	0.036558665
122	0xbd6679c5	-0.056268472
123	0x3dfe1793	0.1240684
124	0x3de1c9b2	0.110247985
125	0x3c46b6ea	0.012128571
126	0x3d2b5d74	0.04183717
127	0xbd83be01	-0.06432725
128	0xbd9dd325	-0.07706288
129	0x3e034381	0.1281872
130	0xbe4d20a2	-0.2003198
131	0x3e2bdd87	0.16783725
132	0x3d2c3e90	0.04205185
133	0x3d5387ef	0.05164331
134	0x3dc7d510	0.09757435
135	0x3dd55762	0.104170576
136	0x39da1be0	0.0004160097
137	0xbc3a766b	-0.011380772
138	0x3d3243b5	0.0435216
139	0x3cc2bd04	0.02377177
140	0x3d1b9bd2	0.0379904
141	0x3cfd4866	0.030918311
142	0x3da6d473	0.0814599
143	0x3d9ccd65	0.076563634
144	0xbe4f5205	-0.20246132
145	0xbe871966	-0.26386565
146	0xb6dd1e00	-6.5898057e-06
147	0xbe01993c	-0.1265611
148	0x3dd9bfe3	0.106323026
149	0xbd34fce4	-0.044186488
150	0xbc8467a4	-0.016162701
151	0xbda10887	-0.078629546
152	0xbd9168cc	-0.071000665
153	0x3e021f73	0.1270731
154	0x3c2375d9	0.009976828
155	0x3e44ffae	0.19238159
156	0xbc0a5bfb	-0.008444781
157	0xbc3216d9	-0.010869705
158	0xbc5faecb	-0.013652514
159	0xbe46bc07	-0.19407664
160	0x3c2caac7	0.010538763
161	0xbde7897c	-0.1130552
162	0x3ca17c7f	0.019712685
163	0xbdbf68ae	-0.09346138
164	0xbc12b3ea	-0.008954028
165	0x3e158bb9	0.14604081
166	0xbe267ca3	-0.16258483
167	0xbd7075b6	-0.058706008
168	0xbcdb9d80	-0.0268085
169	0xbd8d2cbd	-0.06893299
170	0x3e2d4f96	0.16924891
171	0xbe46fbce	-0.19431993
172	0x3d1c0a2a	0.03809563
173	0xbe6d3351	-0.23164107
174	0x3d1c3d85	0.038144607
175	0xbdb6d297	-0.089268856
176	0x3e0970c8	0.13421929
177	0xbd3aa409	-0.045566592
178	0xbc33a252	-0.010963993
179	0x3c72858a	0.014802346
180	0x3e25cd9a	0.16191712
181	0xbd8764a5	-0.06610993
182	0x3da0947e	0.07840823
183	0xbd0db8dd	-0.034600127
184	0xbe200789	-0.15627874
185	0x3dd64afe	0.104635224
186	0x3c7e986e	0.015539272
187	0xbe61f40d	-0.22065754
188	0xbcbb7139	-0.022881137
189	0xbd36c93a	-0.0446255
190	0x3ce40d94	0.027838506
191	0xbde6e1f8	-0.11273569
192	0x3e20c059	0.15698375
193	0xbdde7752	-0.10862602
194	0xbcefe0a8	-0.02928193
195	0xbd18d1be	-0.0373094
196	0xbc97cac2	-0.0185293
197	0xbc9cb145	-0.019127497
198	0x3dbcf508	0.092264235
199	0x3e2273dd	0.15864511
200	0xbe15b140	-0.14618397
201	0x3d061b2d	0.03274076
202	0x3c9bb903	0.019009119
203	0x3c424c6a	0.011859039
204	0x3de717e8	0.11283857
205	0xbe0b1fda	-0.13586369
206	0xbdabe178	-0.08392614
207	0xbd8f3b2f	-0.0699371
208	0xbdb6a6be	-0.08918522
209	0x3dd92de8	0.10604459
210	0xbc7a6ace	-0.015284253
211	0x3d268ed6	0.040663563
212	0xbe370709	-0.17873777
213	0x3c122f12	0.008922355
214	0x3cc38b42	0.023870114
215	0xbe030bc0	-0.12797451
216	0x3d2d384b	0.042290013
217	0xbb836cb0	-0.0040107593
218	0x3da16f12	0.07882513
219	0xbd1c8229	-0.038210068
220	0x3e50e49c	0.20399708
221	0x3d19eee9	0.037581358
222	0xbdf520cc	-0.11969146
223	0xbcbfce15	-0.023413697
224	0x3d262ec2	0.040571935
225	0x3dce444d	0.10071621
226	0xbd891f5b	-0.06695434
227	0xbd445ad3	-0.04793818
228	0x3c261202	0.010136129
229	0xbdab4184	-0.083621055
230	0xbdbeadcc	-0.09310493
231	0x3d91ddde	0.07122396
232	0x3d91c5f6	0.07117836
233	0x3d579af6	0.052638017
234	0xbdf38d20	-0.11892152
235	0xbc35e705	-0.011102443
236	0x3d78135e	0.060565345
237	0xbdc0abba	-0.09407754
238	0x3c25bb70	0.010115489
239	0x3d81278c	0.06306371
240	0x3d367276	0.044542752
241	0x3da653cc	0.08121452
242	0xbd4d5d43	-0.05013777
243	0xbe6ba970	-0.23013854
244	0x3d62ef06	0.05540373
245	0x3d87a265	0.06622771
246	0x3dc51fdb	0.096252166
247	0xbbe49ce0	-0.006976709
248	0x3db2aac2	0.08723976
249	0x3e054374	0.13014013
250	0xbc6d3cf2	-0.0144798625
251	0xbde2ebe8	-0.11080152
252	0x3dce55b9	0.10074944
253	0x3d68c63e	0.056829683
254	0x3d061cbb	0.032742243
255	0x3d91dea0	0.071225405

fc2.bias f4 [128]
0	0xbd2fc1a6	-0.042909287
1	0x3cb8bac0	0.022549987
2	0x39ec07ec	0.0004501933
3	0xbd44d2be	-0.048052542
4	0x3d397b04	0.045283332
5	0x3c51a1de	0.01279494
6	0xbd2848f3	-0.041085195
7	0x3e08da25	0.13364466
8	0x3d9b12ef	0.07571971
9	0xbc8cfcb7	-0.017210348
10	0x3df23154	0.11825815
11	0xba8385aa	-0.0010034342
12	0x3d07540e	0.033039145
13	0xbcfd9135	-0.03095303
14	0x3e26995c	0.1626944
15	0xbd85d64a	-0.06535013
16	0xbd80de92	-0.06292452
17	0xbde78812	-0.1130525
18	0x3c1777d5	0.009244879
19	0x3d9e5481	0.077309616
20	0xbc5f457b	-0.013627405
21	0xbe357a23	-0.17722373
22	0xbdd103db	-0.102058135
23	0xbc51c642	-0.012803616
24	0x3da61149	0.08108766
25	0x3db93a5f	0.090443365
26	0xbe2aea55	-0.16690953
27	0xbe1e534e	-0.15461466
28	0x3d2047bb	0.039130908
29	0xbd45c0cf	-0.04827958
30	0xbd086c56	-0.033306442
31	0x3db0e3b7	0.08637183
32	0xbd863693	-0.06553378
33	0x3d49f3bd	0.049304713
34	0xbde829d0	-0.113361
35	0xbd6d76d3	-0.057974648
36	0x3dc0a26d	0.0940598
37	0x3dc7dafe	0.09758566
38	0xbd4f5892	-0.050621577
39	0xbb84a068	-0.004047442
40	0x3df3e28e	0.11908446
41	0x3caeb376	0.021325808
42	0x3e31410d	0.17309971
43	0xbdd6f33c	-0.10495612
44	0xbc816b14	-0.01579813
45	0xbe14e5cc	-0.14540786
46	0xbc182667	-0.0092865
47	0xbd4c0fcf	-0.049819764
48	0x3e066ca8	0.13127387
49	0x3de1b6eb	0.11021217
50	0x3c6179a8	0.013761915
51	0x3d29d7fc	0.041465744
52	0xbe0b2c65	-0.13591154
53	0xbcad3d2a	-0.02114733
54	0xbdae1c57	-0.08501499
55	0xbe833f93	-0.2563444
56	0x3e57f1ec	0.2108838
57	0xbdaaea75	-0.083455004
58	0x3d17c6c2	0.037054785
59	0xbd8875cc	-0.06663093
60	0x3de1f6ed	0.110334255
61	0xbd82a9fc	-0.06380078
62	0x3e1412b4	0.1446026
63	0xbb3df58c	-0.0028985469
64	0x3e2f1d2e	0.17100975
65	0x3deb9a36	0.11504023
66	0x3d4ef329	0.050524864
67	0x3d553445	0.0520518
68	0x3d4a03e5	0.04932012
69	0xbd19d8fc	-0.037560448
70	0x3cbf3b5b	0.023343733
71	0xbcd21778	-0.025645956
72	0xbbccb8be	-0.006247609
73	0xbd581cdc	-0.052761897
74	0x3c91e227	0.017808033
75	0x3caefa16	0.021359485
76	0x3de2ded0	0.11077654
77	0xbd648498	-0.055790514
78	0x3e13fa6f	0.14451002
79	0xbca6a27c	-0.02034115
80	0xbd2a5f22	-0.041594632
81	0x3cfd81e0	0.030945718
82	0xbe3c32a3	-0.18378691
83	0xbd91d378	-0.071204126
84	0x3cbe6069	0.023239331
85	0xbe2c9bc7	-0.168563
86	0xbdc25aa3	-0.09489944
87	0xbd5b7f95	-0.05358847
88	0x3db9c476	0.09070675
89	0xbde55d31	-0.111994155
90	0xbdb4341b	-0.08799001
91	0x3c50afc6	0.01273722
92	0x3c2fa4eb	0.010720472
93	0x3dd0efbc	0.10201976
94	0x3c9c8df2	0.019110654
95	0xbd9230c2	-0.07138206
96	0x3dab4e88	0.08364588
97	0xbd8971c8	-0.06711155
98	0xbb4988ac	-0.0030751629
99	0xbc54af02	-0.012981178
100	0xbda831d7	-0.08212631
101	0xbe180afd	-0.14847942
102	0x3d679864	0.056541815
103	0x3d8914fe	0.06693457
104	0xbcc9a12a	-0.024612982
105	0xbd9d104a	-0.076691225
106	0x3dcfdb0b	0.10149201
107	0xbe05289c	-0.13003772
108	0x3d8fb85a	0.07017584
109	0xbca12314	-0.019670047
110	0x3cbbd25a	0.022927452
111	0xbdea30c4	-0.114350826
112	0xbd211312	-0.039324827
113	0x3dbe72ba	0.09299226
114	0x3d4bfc3e	0.049801104
115	0x3dbba987	0.09163194
116	0xbad25bf5	-0.0016049134
117	0xbd8df557	-0.069315605
118	0x3caf7f55	0.021423021
119	0x3d931a36	0.07182734
120	0x3dc60441	0.0966878
121	0xbc407deb	-0.011748771
122	0xbd7ad6ac	-0.061239883
123	0x3d921e9b	0.07134744
124	0x3d3f4222	0.04669393
125	0x3d9d0eaf	0.07668816
126	0x3d9bd7a6	0.07609491
127	0x3da46c02	0.08028413

fc3.weight f4 [64, 128]
0	0x3d376f49	0.044783864
1	0xbbb07614	-0.0053851698
2	0x3dc253a3	0.09488609
3	0x39775978	0.00023589085
4	0xbd2b09e6	-0.041757487
5	0x3e02f4d2	0.12788704
6	0xbc6b096f	-0.014345511
7	0x3d8a3c9f	0.06749844
8	0xbd0d68f4	-0.03452392
9	0x3c4353e2	0.011921855
10	0xbc98f6b1	-0.01867232
11	0xbdb8b507	-0.09018903
12	0x3c32b29e	0.0109068435
13	0xbd90663a	-0.07050748
14	0xbd2a1967	-0.04152813
15	0xbcfd696d	-0.03093406
16	0xbcf7b0e0	-0.030235708
17	0x3c30e8c6	0.010797685
18	0xbd9f86ff	-0.0778942
19	0x3c9cc237	0.019135578
20	0xb9450d18	-0.00018792262
21	0x3cc6d9af	0.024273722
22	0x3b9e70a2	0.004835204
23	0x3ce077e9	0.027400928
24	0xbc277e96	-0.0102230515
25	0xbd06ca79	-0.032907937
26	0xbd52e94e	-0.051492028
27	0xbcafb70b	-0.021449586
28	0x3d27ff16	0.041014753
29	0xbdc56f31	-0.09640349
30	0x3d3ec714	0.046576574
31	0x3da3ae1b	0.07992192
32	0x3dd3f1e1	0.10348869
33	0x3ddb61a4	0.10711983
34	0x3d49db22	0.049281247
35	0xbcbf878b	-0.023380062
36	0xbd167078	-0.036728352
37	0xbd29639e	-0.041354768
38	0xbb9ffba2	-0.004882292
39	0x3c8207f8	0.01587294
40	0xbccc02d2	-0.024903689
41	0x3ccec2a1	0.02523929
42	0x3d1a7d59	0.037717197
43	0x3a1f0ff8	0.0006067748
44	0xbde37ef1	-0.111081965
45	0x3d4d155a	0.05006919
46	0x3bebad36	0.007192279
47	0xbd3fa060	-0.046783805
48	0xbc07dd0d	-0.008292449
49	0xbcdca004	-0.02693177
50	0x3de3f84f	0.111313455
51	0x3da94ca6	0.08266573
52	0x3b085fc0	0.0020809025
53	0xbcca944d	-0.024728918
54	0xbc01bc93	-0.007918495
55	0xbd0a5afa	-0.03377817
56	0xb8c73bd0	-9.5002004e-05
57	0x3e1ae089	0.15124716
58	0xbd804212	-0.06262602
59	0x3c811482	0.01575685
60	0xbad9025e	-0.0016556492
61	0x3d0c3a6b	0.0342354
62	0xbd8d8698	-0.06910437
63	0xbdbe17e6	-0.09281902
64	0x3db6c30e	0.089239225
65	0xbdcab223	-0.09897258
66	0xbdeb7eb7	-0.11498778
67	0x3cdc987b	0.026928177
68	0xbda0f608	-0.07859427
69	0x3d7c9594	0.061666086
70	0x3c93c7e3	0.01803965
71	0x3cd98aa9	0.026555376
72	0x3ce9e86f	0.028553216
73	0xbcb6f05e	-0.022331413
74	0x3d1a66ea	0.037695803
75	0xbcc42f51	-0.023948343
76	0x3bade181	0.005306423
77	0xbdb1fe53	-0.086910866
78	0x3ccec2d9	0.025239395
79	0x3cd57e66	0.026061248
80	0x3cf2624b	0.029587885
81	0x3c9827c7	0.018573655
82	0xbd7b3b12	-0.06133563
83	0x3c22bf98	0.009933375
84	0x3d30b94f	0.043145474
85	0x3b1b5082	0.002369911
86	0x3c950b6f	0.018193929
87	0xbc2c32fb	-0.010510202
88	0x3ce2b0ca	0.02767219
89	0x3c27f51a	0.010251308
90	0x3de27f47	0.110594325
91	0x3d6d9d1d	0.058011163
92	0x3d3cb745	0.046073217
93	0x3c9caaab	0.01912435
94	0x3d511d0e	0.0510531
95	0x3db74a25	0.08949689
96	0xbdcf0b42	-0.10109569
97	0xbd6db497	-0.058033552
98	0x3d07c2fd	0.03314494
99	0xbcebd7e6	-0.028789472
100	0x3c277dfa	0.010222906
101	0x3de937d6	0.11387603
102	0x3dfdcd66	0.12392692
103	0xbd83c29d	-0.06433604
104	0xbe13452a	-0.14381853
105	0x3d2c82e1	0.042117003
106	0x3cdc340a	0.026880283
107	0x3dd8972a	0.10575707
108	0x3d372263	0.044710528
109	0x3dcb4beb	0.099265896
110	0x3dd365b2	0.10322131
111	0xbc30587c	-0.010763284
112	0x3c4d1d1a	0.012519145
113	0xbc6f25c3	-0.014596405
114	0xbe178753	-0.14797716
115	0xbccc27a9	-0.024921255
116	0x3dd59737	0.104292326
117	0x3d47adcd	0.048749734
118	0x3d3f7690	0.04674393
119	0xbcfb4af5	-0.03067539
120	0xbd0471cc	-0.032335088
121	0x3e74581d	0.23861738
122	0x3e282460	0.16420126
123	0xbba2b5bf	-0.0049655135
124	0xbdcf40f1	-0.101198085
125	0xbd79d2bc	-0.060991988
126	0x3d38cf35	0.045119483
127	0x3ce68ebc	0.028144233
128	0xbe00022b	-0.12500827
129	0x3d3d4da9	0.04621664
130	0xbda483f6	-0.08032982
131	0xbcd3b9f4	-0.025845505
132	0x3d99a72d	0.075025894
133	0x3dbd8857	0.092545204
134	0x3dc94605	0.09827808
135	0x3d881dc7	0.066463046
136	0xbd9cfee6	-0.076658055
137	0x3dfe730a	0.12424286
138	0xbcfe536b	-0.031045636
139	0x3dd111d2	0.10208477
140	0x3bf553c7	0.0074867937
141	0x3d99d0e2	0.07510544
142	0x3d6f4aa4	0.058420792
143	0x3cdf2105	0.027237425
144	0x3d601254	0.05470498
145	0xbe25e44d	-0.16200371
146	0xbdcaa708	-0.0989514
147	0xbddd37f8	-0.10801691
148	0x3dba93bc	0.09110209
149	0xbd950098	-0.07275504
150	0xbd726196	-0.059175096
151	0xbd84a472	-0.06476678
152	0x3d1b3d88	0.037900478
153	0x3ddcfc77	0.10790341
154	0x3e109687	0.14119922
155	0xbc9ec699	-0.019381808
156	0x3e2437da	0.1603693
157	0xbd35a402	-0.044345863
158	0xbd071938	-0.032983035
159	0xbb659bcb	-0.0035035487
160	0xbccf648c	-0.0253165
161	0xbe00cbc2	-0.12577727
162	0xbdad53a2	-0.08463217
163	0xbd730d3a	-0.059338786
164	0x3de70b26	0.11281423
165	0x3d26bc0e	0.040706687
166	0xbdd07e25	-0.1018031
167	0xbcb67879	-0.022274243
168	0x3dbb0d79	0.09133429
169	0x3d79b60c	0.06096463
170	0x3d06d1f1	0.03291506
171	0x3ce9135b	0.028451612
172	0x3d899ebd	0.0671973
173	0xbd2857bc	-0.041099295
174	0xbd9d8e1a	-0.07693119
175	0xbb818a16	-0.0039532287
176	0x3e060ba2	0.13090375
177	0x3df743c0	0.12073469
178	0x3da7b20c	0.081882566
179	0x3deee515	0.11664788
180	0x3c64ad6a	0.013957361
181	0x3d8f7eeb	0.070066296
182	0x3deb033e	0.11475228
183	0xbda24a07	-0.07924276
184	0x3d2a8c5e	0.04163777
185	0x3d965012	0.07339491
186	0x3bfd4522	0.0077291885
187	0x3cab1c94	0.02088765
188	0x3dc12b2b	0.09432062
189	0x3cb37270	0.021905154
190	0x39569710	0.00020464906
191	0x3ccdba69	0.025113301
192	0x3d244689	0.04010633
193	0xbcf47ad8	-0.029843733
194	0xbe0db0b5	-0.1383694
195	0x3da55051	0.0807196
196	0x3d7a4050	0.06109649
197	0xbdf13d79	-0.11779303
198	0x3d8dc88a	0.069230154
199	0xbd56ad92	-0.052411623
200	0x3d12a92d	0.03580587
201	0x3d6622c5	0.056185503
202	0x3c564182	0.013077142
203	0x3c151f9e	0.009101776
204	0x3c04ca7c	0.008104917
205	0xbdab3715	-0.083601154
206	0xbd0e7d30	-0.034787357
207	0x3d2f36c2	0.04277683
208	0xbdf7f6aa	-0.12107594
209	0x3dc4e650	0.09614241
210	0xbc892368	-0.016740516
211	0xbd082e23	-0.033247124
212	0xbd372356	-0.044711433
213	0xbd440c41	-0.04786325
214	0xbcbf0f34	-0.02332268
215	0x3db630b4	0.08896008
216	0x3dc3a39e	0.09552692
217	0x37b03fc0	2.101052e-05
218	0x3df477a8	0.11936885
219	0x3e489fd7	0.19592224
220	0x3e0ae0e6	0.13562354
221	0x3dd21996	0.102587864
222	0x3d393550	0.04521686
223	0x3dd518b9	0.10405106
224	0xbc69a263	-0.014259907
225	0xbd68317e	-0.056687824
226	0x3d0c9afa	0.034327485
227	0x3d86df47	0.065855555
228	0x3e0e3004	0.13885504
229	0x3e2ab2f9	0.16669835
230	0xbc2d0bef	-0.010561927
231	0x3d17a336	0.037020884
232	0xbdb96085	-0.09051613
233	0x3da1773b	0.078840695
234	0xbda49dc2	-0.080379024
235	0xbc9bd06b	-0.01902028
236	0x3d942b1a	0.072347835
237	0x3c578580	0.0131543875
238	0xbbf55066	-0.007486391
239	0xbe05aeb0	-0.13054919
240	0xbbeb5a49	-0.0071823937
241	0x3ca9bee7	0.020720912
242	0xbe0bb6e3	-0.13643984
243	0x3c36f8eb	0.011167745
244	0x3df93b7b	0.12169548
245	0x3c2c118c	0.01050223
246	0xbd115798	-0.035483927
247	0x3db97718	0.090559185
248	0xbcfd82af	-0.030946104
249	0x3d6f52df	0.05842864
250	0xbd87ba43	-0.066273235
251	0x3d83899a	0.0642273
252	0x3d915078	0.07095426
253	0x3cf0348e	0.029321935
254	0x3d673c0f	0.05645376
255	0x3bb73250	0.0055907145

fc3.bias f4 [64]
0	0xbc19b61f	-0.0093818
1	0x3c8275e2	0.015925352
2	0x3bec58dc	0.0072127413
3	0xbc9e5c8e	-0.019331243
4	0x3b9bb8c2	0.0047522495
5	0x3dc192f7	0.094518594
6	0xbc49eadb	-0.01232406
7	0x3da94960	0.08265948
8	0x3cea71d3	0.028618729
9	0xbc832226	-0.016007494
10	0x3c84de90	0.016219407
11	0xbc255424	-0.0100908615
12	0xbbb35bba	-0.005473581
13	0xbc846a44	-0.016163953
14	0x3c9fad87	0.019491924
15	0x3d36ba72	0.0446114
16	0x3d477137	0.048691954
17	0x3da804e0	0.08204055
18	0xbc685dfa	-0.014182562
19	0x3d758b61	0.059947375
20	0x3d443e3b	0.04791091
21	0xbb871aaa	-0.0041230517
22	0xbd72a4c6	-0.05923917
23	0xba3772bc	-0.0006997993
24	0xbd113406	-0.035450004
25	0x3d8a3fc6	0.06750445
26	0x3d318b40	0.04334569
27	0x3d0ce39b	0.03439675
28	0x3dd20ac3	0.10255959
29	0x3b787b4c	0.0037915288
30	0xbd690a52	-0.056894608
31	0xbcc40901	-0.023930075
32	0x3d43371f	0.04765999
33	0x3d507f24	0.0509025
34	0xbc493bd3	-0.01228233
35	0xbd1b70ee	-0.037949495
36	0xbe2a4f0a	-0.16631714
37	0xbd7c928f	-0.061663207
38	0x3dac2a3f	0.08406495
39	0xbba74bf6	-0.005105491
40	0x3d1d1316	0.03834828
41	0x3c4d8141	0.012543024
42	0xbd81327d	-0.06308458
43	0x3e10b46b	0.14131324
44	0xbcbae0ef	-0.022812335
45	0xbdf52516	-0.11969964
46	0x3db71821	0.08940149
47	0x3df7073c	0.12061927
48	0xbd05042a	-0.032474674
49	0x3d1fc2ed	0.039004255
50	0xbdf9e790	-0.1220237
51	0xbcb51c0b	-0.022108098
52	0xbbc7b6ba	-0.0060947808
53	0xbd6e52e3	-0.058184516
54	0x3c17759a	0.009244347
55	0x3adf342a	0.0017029096
56	0x3daecc49	0.08535058
57	0xbd8fe3f1	-0.07025898
58	0x3d2fd879	0.042931054
59	0x3d195b58	0.037440628
60	0xbcb444a3	-0.022005385
61	0xbdb9f7cb	-0.09080466
62	0x3dc1150d	0.09427843
63	0x3d045df8	0.032316178

fc4.weight f4 [14, 64]
0	0xbc586f8a	-0.013210187
1	0x3e01f9dc	0.1269297
2	0x3e13f391	0.14448382
3	0x3d92705c	0.07150337
4	0x3d5ed1bf	0.05439925
5	0xbcb0fa01	-0.021603586
6	0x3dc68a36	0.096943304
7	0x3b2b40c5	0.0026131135
8	0x3de2ba1b	0.11070653
9	0xbc486774	-0.012231696
10	0x3dc3ceb7	0.09560912
11	0x3ba56e9c	0.005048586
12	0xbe071a88	-0.13193715
13	0xbd7d75ed	-0.06188004
14	0x3ddf4493	0.10901751
15	0x3db0dbf9	0.086357065
16	0x3ddb49bb	0.10707422
17	0xbd5ed186	-0.054399036
18	0x3d256111	0.040375773
19	0x3dd6e71e	0.10493301
20	0xbceb173d	-0.028697604
21	0x3cbd6564	0.023119636
22	0x3d0f73dc	0.0350226
23	0x3c4e3fd8	0.012588464
24	0xbdae0077	-0.084961824
25	0x3d816920	0.06318879
26	0xbdc1b49d	-0.094582774
27	0x3dfd1e10	0.123592496
28	0x3de9fa1b	0.11424657
29	0x3ce3dc62	0.027815048
30	0xbe2cd550	-0.16878247
31	0xbdc5aab9	-0.096517034
32	0xbd0ee8c4	-0.03488995
33	0x3e18c9d1	0.14920737
34	0x3de509fe	0.111835465
35	0xbd93d515	-0.072183765
36	0xbda7db40	-0.081961155
37	0xbdaa9fa5	-0.08331231
38	0xbda28e36	-0.07937281
39	0x3b798f99	0.0038079976
40	0x3df7dfcc	0.12103233
41	0xbda53656	-0.080670044
42	0xbcdf6c2c	-0.02727326
43	0x3c28e604	0.010308746
44	0xbc8b6a2b	-0.017018398
45	0x3e2ff954	0.17184955
46	0x3d38446a	0.04498712
47	0x3e39364e	0.18087122
48	0xbdeb9d06	-0.11504559
49	0xbd0af967	-0.033929255
50	0xbddbbf3e	-0.10729836
51	0x3dd49da4	0.1038163
52	0x3d9b6c1d	0.0758898
53	0xbd6cfbf7	-0.05785748
54	0x3e07b282	0.13251689
55	0x3d9f3948	0.077745974
56	0xbde56013	-0.11199965
57	0xbd7c5c6b	-0.061611574
58	0xbe221f65	-0.15832289
59	0x3d4b0ef1	0.049574796
60	0x3da29e5f	0.07940363
61	0x3d9dcf08	0.07705504
62	0x3d31920c	0.04335217
63	0x3dd622e5	0.10455874
64	0x3c86b97f	0.016445873
65	0x3bac10ff	0.0052510495
66	0xbdcca18f	-0.09991752
67	0x3d6e0993	0.0581146
68	0xbde2b120	-0.1106894
69	0xbd1459ce	-0.036218457
70	0x3de4ae44	0.11166051
71	0x3db07ea1	0.086179025
72	0xbda26120	-0.079286814
73	0xbd948d08	-0.07253462
74	0x3c133e55	0.008987029
75	0xbd2eb13f	-0.042649504
76	0xbcb2a0e8	-0.021805242
77	0x3d8286c6	0.06373362
78	0xbdee6b3f	-0.11641549
79	0xbdc0d580	-0.09415722
80	0xbbca3ce0	-0.0061718076
81	0xbdcd8d32	-0.100366965
82	0xbd605888	-0.05477193
83	0xbd231c5c	-0.039821967
84	0xbdb4d048	-0.08828789
85	0x3d302c0f	0.043010768
86	0x3d087453	0.03331406
87	0xbdc25a7e	-0.09489916
88	0xbd3bdfcd	-0.04586773
89	0xbd6e6e49	-0.058210645
90	0xbd9dbc1a	-0.07701893
91	0x3dc2f522	0.095194116
92	0xbd416d4d	-0.047223378
93	0xbc458e8c	-0.012057912
94	0x3cb62cfc	0.022238247
95	0x3d00218d	0.031281997
96	0xbd0ee167	-0.03488293
97	0xbdbbb5b8	-0.091655195
98	0xbdcb6921	-0.09932161
99	0xbd6be3f9	-0.05759046
100	0x3e0c3564	0.13692242
101	0x3de050e2	0.10952927
102	0xbd1159d4	-0.035486057
103	0x3ca20ea2	0.019782368
104	0xbdac5339	-0.08414311
105	0xbbfe22a0	-0.0077555925
106	0xbdae0c7c	-0.08498475
107	0xbdc971f0	-0.09836185
108	0xbdb168da	-0.08662577
109	0xbd4da25f	-0.050203677
110	0x3df65e90	0.12029755
111	0x3cc762a1	0.024339022
112	0xbb84829e	-0.004043891
113	0xbd833ebb	-0.06408449
114	0xbdd54164	-0.10412863
115	0x3daf6c74	0.08565608
116	0xbc37c36e	-0.011216028
117	0x3df557b4	0.11979619
118	0xbd7a05f8	-0.06104085
119	0xbdc7baf6	-0.09752457
120	0x3d035595	0.03206404
121	0x3d39e163	0.04538096
122	0xbcac6db8	-0.021048412
123	0xbdc1bd20	-0.09459901
124	0xbd3f3709	-0.046683345
125	0xbdb2b5d0	-0.08726084
126	0x3c9dbefc	0.019256108
127	0x3dacef64	0.08444098
128	0x3e008cfc	0.12553781
129	0x3df60f55	0.12014643
130	0x3dbcf704	0.09226802
131	0x3cc2ca10	0.023777992
132	0x3d8a7088	0.06759745
133	0xbe533f55	-0.20629628
134	0x3dc37ac9	0.09544904
135	0x3df97d3f	0.12182092
136	0x3d5c7529	0.05382267
137	0x3e3d76d3	0.18502359
138	0x3c2d479a	0.010576153
139	0xbd25ab5f	-0.040446635
140	0x3cf6ee4c	0.030142926
141	0xbe4dab39	-0.20084848
142	0x3d66639c	0.05624734
143	0x3d468c6d	0.048473764
144	0x3db1d61e	0.08683418
145	0xbe43814f	-0.19092296
146	0xbe3353f9	-0.17512502
147	0xbceb3601	-0.028712275
148	0x3dd8ac69	0.1057976
149	0xbdad30f7	-0.08456605
150	0x3e06c599	0.13161315
151	0xbb0ce185	-0.0021496725
152	0xbd5bcb8d	-0.053660918
153	0x3d2a5088	0.041580707
154	0xbe3c6210	-0.18396783
155	0xbd5fcd58	-0.05463919
156	0x3d9f572b	0.07780298
157	0x3e4863a2	0.19569257
158	0xbd9fedd7	-0.07809036
159	0xbd8554c0	-0.065103054
160	0xbdacceaa	-0.084378555
161	0x3e18666b	0.1488282
162	0x3e4b38fa	0.19845954
163	0xbe0329e9	-0.12808956
164	0xbd8e5f63	-0.06951787
165	0xbddb06fa	-0.1069469
166	0xbe0dabd5	-0.1383508
167	0x3e3c4447	0.1838542
168	0x3d19fd4a	0.03759507
169	0xbd6e662a	-0.0582029
170	0x3e055e8b	0.13024347
171	0x3e1ce9bb	0.15323536
172	0xbcb7416d	-0.022370065
173	0x3e3008ae	0.17190811
174	0xbb39734a	-0.0028297477
175	0x3e0aacbf	0.1354246
176	0xbd1b038a	-0.037845172
177	0xbdbe2d0a	-0.09285934
178	0xbe0d136d	-0.13776942
179	0xbdbc2a1b	-0.091877185
180	0x3d44745f	0.047962543
181	0x3dcb08c9	0.09913785
182	0xbc31e284	-0.010857228
183	0x3d52173e	0.051291697
184	0xbdfc0848	-0.12306267
185	0xbd898b18	-0.06715983
186	0xbe1f0cf5	-0.15532286
187	0x3ddeac39	0.108726926
188	0xbc81198b	-0.01575925
189	0x3daffe55	0.08593432
190	0x3e031784	0.12801939
191	0x3e423224	0.1896444
192	0xbdbb75ff	-0.09153365
193	0xbc9fa01c	-0.019485526
194	0x3d9ecc0b	0.07753762
195	0x3c42442a	0.011857072
196	0xbdc2bf17	-0.09509104
197	0xbda93485	-0.082619704
198	0x3da88b79	0.08229727
199	0x3e137ece	0.14403841
200	0xbb86a168	-0.0041085966
201	0x3d850da5	0.06496743
202	0x3e538d4a	0.20659366
203	0xbd90cd25	-0.07070378
204	0x3d8dc0b7	0.06921523
205	0x3cd306cc	0.025760077
206	0xbddc96bf	-0.1077094
207	0x3dbe841a	0.0930254
208	0x3dbd2e1d	0.09237311
209	0xbc2e7f88	-0.010650523
210	0xbd3e9738	-0.046530932
211	0xbdc57551	-0.09641517
212	0xbc1037e2	-0.008802386
213	0xbb9be576	-0.0047575785
214	0x3db5422a	0.088505104
215	0xbde5decf	-0.11224138
216	0x3dc1c298	0.09460944
217	0xbd7717d1	-0.060325447
218	0x3cd9a96d	0.026570046
219	0xbde642ed	-0.11243234
220	0xbdb48b12	-0.08815588
221	0x3c031e05	0.008002763
222	0x3d197b0c	0.037470862
223	0x3de0cf90	0.109770894
224	0xbd6d7a15	-0.057977755
225	0xbc5ef023	-0.013607058
226	0x3cb5cc6b	0.0221922
227	0x3db15394	0.086585194
228	0xbcf51cac	-0.029920898
229	0x3bfdc2c9	0.0077441675
230	0xb906fd38	-0.00012873567
231	0xbe024cf7	-0.12724672
232	0xbd7f23ed	-0.06229012
233	0xbdb8f581	-0.09031201
234	0xbd61df2e	-0.05514448
235	0x3d2754a4	0.040852204
236	0x3d932e30	0.07186544
237	0x3da39cca	0.079888895
238	0xbd56503f	-0.052322622
239	0xbd3618cf	-0.044457253
240	0xbbb53f5e	-0.0055312356
241	0x3d24071d	0.040045846
242	0x3d77b8c3	0.060478937
243	0xbd91ae6f	-0.07113349
244	0xbc2eb4f2	-0.010663258
245	0xbda4a67a	-0.080395654
246	0xbde7c23a	-0.11316343
247	0xbd2acd12	-0.041699477
248	0x3dda165e	0.106487975
249	0xbdcfa889	-0.101395674
250	0xbcbf437f	-0.023347614
251	0xbdfb4040	-0.12268114
252	0x3c1515db	0.009099449
253	0xbdf9d36e	-0.1219853
254	0x3e0f4d7f	0.13994406
255	0x3e32c90f	0.1745951

fc4.bias f4 [14]
0	0xbb96460f	-0.0045859884
1	0x3dcbfb8c	0.09960088
2	0x3dfd3527	0.12363654
3	0x3dbe03da	0.092780784
4	0xbcbe2c41	-0.023214461
5	0xbb33b3fd	-0.0027420514
6	0xbc97d19d	-0.018532569
7	0xbc87632d	-0.016526783
8	0x3d7c8645	0.061651487
9	0x3cfb4a19	0.030674981
10	0xbda5417a	-0.08069129
11	0x3e4a177e	0.19735524
12	0x3e179521	0.14802982
13	0x3dd24e22	0.10268809
