saved_models/poker_theory_model.pth (torch, 80388 bytes, 8 tensors)

fc1.weight f4 [64, 27]
00000000: f301 853d 10a9 34be e5b3 d53e 0cc9 663e
00000010: 21d0 093e 6356 403e 051d b53d 5641 663c
00000020: e62f 9b3d 7351 b4bd acff fb3d b073 843d
00000030: bf69 8fbd c448 a3bd f97c 28be 33ca 18be
00000040: b71c 22be 41c0 0abd 14ca 383c 1842 3fbe
00000050: ba5b d2bd 95c3 03be ad6e 75be e5d0 663e
00000060: 7b09 333d b495 923e 583d 37be 014f 57be
00000070: 834a f1bd 695d ecbc 2ece 55bc b911 9bbe
00000080: a599 883c 92b8 593d 57b2 243e a3fb 853d
00000090: 1a3c febd 687c 3ebd 16bc 193d 2a0a c33d
000000a0: f0b2 2cbe ea5c 2ebe 81f4 083d 683d a7bc
000000b0: 7a10 86bd 5758 dabd 98ec 40bd 3376 a63e
000000c0: 9a11 bbbd acc7 0fbd 404d 123e 828c 82bd
000000d0: 2a45 843e 104d bb3d 13a6 953d 40fb 21bc
000000e0: a6da ef3c 9196 2cbc e1e3 143d d4a3 ec3d
000000f0: 7e88 153e 02a8 53be 6eef 823d 4ded 8abe
00000100: 0246 07be fb0e 0fbe 47fe 76be 2a19 05be
00000110: 549b e1bd e9bf 9cbc 5665 e4be 5b0c 48be
00000120: fe47 b9be 5e00 57be 7984 2b3e fb93 943d
00000130: 3b0f 83be 82ad 68be b2f1 d6bd a494 5bbc
00000140: a4bd c53d 23cc 83bb 1eb1 c03d d606 76be
00000150: 0cc5 47ba 81ab 80be b025 2fbd 3b00 3cbe
00000160: 3ae6 d43c 13ec e33d 2d8a 6e3d 57d4 24be
00000170: be94 803e 6a89 c73d 0055 35bc 485c 8fbd
00000180: c8d7 4a3e c8a3 1a3b 1671 783e a6af 4a3e
00000190: debb 553d 1cd1 5c3e 52f7 183d ae03 55bd
000001a0: ee2c d43d 7955 8fbe 1efc c3bd c2bb d9bd
000001b0: 882c 72bd d5a5 2a3e c5c2 913a 8cb2 15be
000001c0: 1338 4cbe 928a 433c c16d 8a3c b171 663e
000001d0: d40a e23d dc08 843d 22cf 81bd e2bc d3bd
000001e0: 4cfd 60bd a2de 13bd 826c febd 1ec0 37bc
000001f0: b6d8 773e 5b82 463e a2f0 1d3e b95f a73d
00000200: 1240 c0be f87e 85bd dc34 913c c025 fb3d
00000210: 6c08 d03d 9347 da3c 28b6 9dbd 1331 bdbd
00000220: 9eee 9abd fcbd 0dbe a886 55be 2ea4 7cbe
00000230: 1ab3 08be d7ce 2ebe b0f9 153e 0380 8ebd
00000240: 1e12 d5bd 3d1e 903e b0b9 3f3d 0281 713e
00000250: ea07 68bd 46f3 1cbd 9a92 c0bd 9e67 723d
00000260: a15c 373c 0404 ec3c 82d5 813e b7f5 37be
00000270: cde7 6f3e 3d99 573e 9c55 fb3d 9888 c73d
00000280: 314f 22be ae74 08bd 4aa2 c5bd 08a0 f4bc
00000290: 1487 343a 0a9d a9bd 7a29 033e df86 9e3c
000002a0: 3430 7c3e fdf6 263e e9c7 713e 734a dd3c
000002b0: c8ae 853d e211 7abd a98f 3cbd fe6f 60bc
000002c0: f049 4e39 ea8f b13d c821 453e a5bc d93e
000002d0: 0c92 813e 8141 5d3d 7e92 cebe 890e 7fbe
000002e0: 9804 d53d 90f9 bc3d 6f7f dfbc 9a16 ec3b
000002f0: a2db 393e 93ab 9a3e 2838 ae3c 467b 5a3e
00000300: c361 7f3e 0f6f ac3e 3309 573e cd5c 393d
00000310: 49e2 35be 6a2d f2bd e87f b43c 1269 aabb
00000320: a916 0dbd f269 033e 4b33 a0be 4e66 163e
00000330: f80e 2fbe 9e8b 5d3c 8ddb 333d d9fa 623e
00000340: 0922 c93d 72b2 fbba a9ce abbb 7aa5 0e3e
00000350: e16f 523e b94e 253d 7a5a 0e3e 5def 173d
00000360: 3309 67be 2ccc 7d3d 60df b1be 99f5 033e
00000370: 5a55 9abe f83c 67be 9d6f 2f3d 4f27 0c3d
00000380: 8b4f 8bbe c217 aebd 4455 0bbe b4ed 7dba
00000390: d2be cfbd 6046 303d 843e 803b 509a 3d3c
000003a0: 977e a7bd d21f 2abe dffb 41be 6f34 a03e
000003b0: e261 a4bd b51b 7cbd 8ebe ab3d 929b 093d
000003c0: cc0f 4fbd d435 343e 79f5 63bd 2fb8 ed3d
000003d0: 30c9 99bc 4da2 263e 98d7 613e 1c5a 343e
000003e0: 397f 773e 2a31 8f3e 923c a93e 6e27 743e
000003f0: 44e6 d43d af9b 773e 73bd aa3d 3a79 af3d
0.064945124 -0.17642617 0.4173881 0.22537631 0.13458301 0.18782954 0.08843426 0.014053663
0.07577495 -0.08804598 0.12304625 0.06467378 -0.07002591 -0.07972863 -0.16453923 -0.14920883
-0.15831266 -0.033874754 0.011278648 -0.18677557 -0.10271402 -0.12867577 -0.23968 0.22540624
0.043710213 0.2862984 -0.17894495 -0.21026231 -0.1178179 -0.028853135 -0.013049645 -0.3028696
0.016674826 0.053154536 0.16083656 0.065421365 -0.12413807 -0.04650536 0.03753289 0.09523423
-0.16865134 -0.17027631 0.033436302 -0.020415023 -0.065461114 -0.10661381 -0.047100633 0.32512054
-0.091342166 -0.03510253 0.14287281 -0.06374456 0.25834018 0.09145558 0.07307067 -0.009886563
0.029279064 -0.010533945 0.036350135 0.11554685 0.14602849 -0.20669559 0.06393324 -0.2713417
-0.132103 -0.13970558 -0.24120437 -0.1299788 -0.110159546 -0.019134479 -0.44608563 -0.19535963
-0.36187738 -0.20996234 0.16749753 0.072547875 -0.25597557 -0.22722438 -0.104953185 -0.013402138
0.09655312 -0.0040221377 0.094087824 -0.24026045 -0.000762061 -0.25130847 -0.04276055 -0.18359463
0.025988687 0.11129012 0.058237243 -0.16096626 0.2511348 0.097430065 -0.011067629 -0.07000023
0.19808877 0.0023596156 0.24261889 0.19793567 0.052181117 0.21564144 0.037345238 -0.052005462
0.10360132 -0.27994898 -0.09569572 -0.10631515 -0.0591245 0.16664822 0.0011120668 -0.14618891
-0.19943266 0.011934893 0.016898038 0.22504307 0.110372216 0.06447002 -0.063383356 -0.10338761
-0.054929063 -0.03610099 -0.1242304 -0.011215238 0.24203762 0.19385664 0.15423825 0.081725545
-0.37548882 -0.06518358 0.0177254 0.122630596 0.10157856 0.026645457 -0.07700759 -0.09237876
-0.07565044 -0.13842005 -0.20852149 -0.24672005 -0.13349572 -0.1707109 0.1464603 -0.0695801
-0.10403846 0.2814807 0.046807945 0.23584369 -0.056648172 -0.03831794 -0.09402962 0.05918085
0.011191518 0.028810509 0.25358206 -0.17964827 0.23428269 0.2105455 0.12272188 0.0974285
-0.15850522 -0.0333144 -0.09650095 -0.029861465 0.0006886583 -0.08281906 0.12808791 0.01935142
0.24627763 0.16305156 0.23611416 0.02701304 0.065274775 -0.06105221 -0.046035443 -0.013698576
0.00019673235 0.086700276 0.19251168 0.42526737 0.25306737 0.054017548 -0.4034614 -0.24907888
0.10401267 0.09227288 -0.027282445 0.0072048428 0.1815019 0.30209026 0.021267012 0.21336088
0.24939637 0.3367848 0.20999603 0.045254517 -0.17762102 -0.11825068 0.022033647 -0.0052005136
-0.03444544 0.12833384 -0.31289133 0.14687464 -0.17095554 0.013522057 0.04391055 0.22166003
0.09820945 -0.0019202961 -0.0052431417 0.13930312 0.20550491 0.04035828 0.13901702 0.03709351
-0.22562103 0.06196229 -0.34740734 0.12886657 -0.30143243 -0.22581851 0.042831052 0.034217175
-0.27209124 -0.08500625 -0.13606745 -0.00096866046 -0.10143818 0.043035865 0.0039137024 0.0115724355
-0.08178442 -0.16613701 -0.18943737 0.31290004 -0.08026482 -0.06154986 0.08385955 0.03359563
-0.050552174 0.17598659 -0.055654023 0.11607396 -0.018772691 0.1627285 0.22054899 0.17612499
0.24169625 0.27967197 0.33054024 0.23843166 0.10395482 0.24180482 0.08336916 0.08568044

fc1.bias f4 [64]
00000000: 9a9c 563e 5f07 0fbe 6f0d 82bd 0973 1bbe
00000010: b7ad ab3d 125d 793d 6912 1e3e b63f b13e
00000020: 2e08 f93b 5a6d 053e dcfe 863d 7468 e3bd
00000030: b786 b0bd f204 afbe 12db 8b3c 9484 723e
00000040: 0306 563d 94d3 86be cc11 98be ef0b b13d
00000050: b291 f1bd 790d 86bc a25a 79bc 78a3 833e
00000060: bc24 b6bd 1dbb c33d 7e12 88bc 2cd1 60bd
00000070: 868a 6ebc e0fd 82be e0a3 2dbe 52dc 3abe
00000080: 507b 143e 78e9 12be aaa4 593c 3dc0 7fbe
00000090: 8ebb 79bd 3c1e 76be c89d 7d3e 1837 eabd
000000a0: 5f41 e53d 7a2d 16be b0e9 903d 56b5 f03b
000000b0: 6cfd 8d3e 80bf fd3d 6f6c 283d bc09 02be
000000c0: 49a5 a73e 5efb bbbe c378 f93c f03a a7be
000000d0: 1b26 663d 9a99 6d3e 97c6 04be 42cb 07be
000000e0: 857e ba3d 491e 913d 4a84 a03d fe9b e1bd
000000f0: 2f49 813e 9e8e 22be e2de 103d eabc b43b
0.20958176 -0.13967656 -0.063502185 -0.15180601 0.08382743 0.060879774 0.1543671 0.3461892
0.007599852 0.13029996 0.06591579 -0.11103907 -0.08619445 -0.3418346 0.017072234 0.23683387
0.052251827 -0.26333296 -0.29701078 0.08644854 -0.11795367 -0.016363846 -0.015219362 0.25710654
-0.08893725 0.095571734 -0.01661038 -0.05488698 -0.014559394 -0.25584316 -0.16957045 -0.18248108
0.14500165 -0.14346874 0.013283888 -0.24975677 -0.06096988 -0.24034971 0.2476722 -0.114362895
0.11194109 -0.14665785 0.07075822 0.0073458357 0.27732408 0.12390041 0.041119035 -0.12699026
0.3274329 -0.36715215 0.030453091 -0.32662153 0.056188684 0.23203126 -0.12966381 -0.1326113
0.09106163 0.070858546 0.07837732 -0.11016081 0.25251147 -0.15874717 0.035368808 0.0055156844

fc2.weight f4 [128, 64]
00000000: cadf 1c3e 3dbc 5bbe ea69 e4bd 171d c8bd
00000010: 06f8 ba3b d4cd 9c3d 1e1d abbd 2471 29bd
00000020: d436 f63d b55a ea3c 781b f33c f02b e33b
00000030: ab00 98bc 7125 9ebd b95e 28bd ba6d bd3d
00000040: 638d d9bd f66b 0dbe ea79 fdbd b4c7 0b3e
00000050: 90d7 8d3d b56c 0b3b 8698 09be daf2 cd3d
00000060: 3255 403d adfd d03c 00ae 1abd 57fc 653d
00000070: eae4 06bd 6aaf c7bd 035b 8a3d b6e7 b1bd
00000080: 5fed 09bd d099 15be d4ad 723d b334 0b3e
00000090: 5251 733d 6a07 95be 286f 7a3d 7534 063e
000000a0: 282a 92bd 55b8 b23d f99d 9c3e 5680 a7bd
000000b0: c060 e43d 7875 633c a03f e8bd 62fe 1d3d
000000c0: 2c36 8ebd e6a6 ddba b53b 3c3e d201 173e
000000d0: 3ef6 8ebc 4068 87bd cd93 c73d dc9b 16bd
000000e0: 5bda 353e 8a0b f53d 0483 68bd f86f fb3d
000000f0: 52ac 233e 7284 b33d 0668 9fbd af3a 853d
00000100: 35b1 3dbe 71c2 413d b1ac c53d 67a4 6cbe
00000110: 26c7 e43d e738 643d 322f 4a3e 06a3 7a3a
00000120: b2c2 543c a757 01be b981 efbc 9ec3 68bd
00000130: 0879 14be 1050 87bd c06c 1a3e 9adb e23c
00000140: 6a73 db3d 61f4 be3c af33 ba3d 1c47 14bd
00000150: 1180 803d 97bd 03bd 6d1b 173e d3e8 53be
00000160: 479d 0c3e da32 74be 7e52 2a3e bc36 0cbe
00000170: 38c5 f4bd 18cb 253e cab1 4f3c f0fb f43c
00000180: 86da 8d3c de4e 3abd 22ca 4ebc 45ed 5bbd
00000190: 1a13 2bbc 27b6 9c3d 7950 0abe 9b1e 34bd
000001a0: 4be4 f6bd a00c 3b3d 97d4 213d 12e5 763d
000001b0: 8a03 0ebc 1f76 4cbd 5441 413d ac15 07be
000001c0: bf0f 82bd b899 413d 90e8 f63d a738 3b3e
000001d0: 4f69 613d c405 8abd 7410 80be ff26 33bd
000001e0: 8b58 58be f4ce 223e f7bf b6bd 220e edbd
000001f0: 2dd6 d63b 0176 9bbd 73db 4b3e 4ac6 11bc
00000200: 5474 fd3d 6638 c5ba 6f2c 953d c589 103e
00000210: 69f4 113d e24c 00be e1e4 0f3e 0ef1 a33b
00000220: dec4 df3d 75c1 2bbd 029f 8dbb 0c85 813d
00000230: a2bf 00bc 4eca efbd bc61 033e 9767 babd
00000240: f69e 0a3c 8a06 663c 475b 35bc 6cc5 09bc
00000250: 0498 053e 8e22 e33d 7896 053c 3fb1 ac3e
00000260: a443 a33d 72da 573e 6454 a8bd 7c70 a43e
00000270: 739b f13d 0948 41be af45 833e 00a9 aabd
00000280: 3abc 143c e280 743c a67d 27bc b896 62be
00000290: ee4d 2e3d 8360 12be 4a50 883e 18e1 6fbd
000002a0: 9bc3 bc3e 0aec 77bd 50ff 86bd c219 e83d
000002b0: ebc8 313d 0362 15bd d900 0d3d 5de4 543e
000002c0: 1467 8dbb 387c 8cbd aa48 eb3d fa0d 68bd
000002d0: fc72 1b3a 9088 473c 5ca3 e63d 983e c0bd
000002e0: 5d76 6c3e fab6 8bbd 12b3 473d 74d7 0d3e
000002f0: e9d8 793e 18af d13a 5942 023e b4f5 f4bc
00000300: 8a33 4e3d 868e 953d dcfb ca3d 65d2 75bd
00000310: 5e55 fcbd c0fa cebc cbfc 1dbe 059f 8fbd
00000320: 26aa 0ebd dede a7be 7fb2 11bd 5e7e 733d
00000330: 4f02 453d 7442 b2bd 6bdd 54be c004 9c3d
00000340: 8c2a 45bd c61a acbd 9897 91bd 2018 283e
00000350: 79a2 003e c17e 50be 0ce3 ad3d fd57 b63d
00000360: 54b0 38be a87b 993c 2b26 fd3c fa10 c83d
00000370: cee0 b0bd e10c 013e d9f1 163d 663c c63d
00000380: e4c9 79be 7f04 293e 9e27 11be 3589 243e
00000390: 63dc b6bd 2692 e83d b703 07be 66a4 b2bd
000003a0: ae1a 8bbd cb83 7bbe e33e 17bd de59 413d
000003b0: 9633 653b 0a0d fcbd 96c9 1a3e 0c78 aabd
000003c0: 3f5d cfbd e9d1 293e 44fd 0eba 8e7e 85bc
000003d0: 23c2 3abd 0699 8c3c d015 adbd f83a 25be
000003e0: 3bff de3a 36fc a83d b423 bf3d 7c51 f0bd
000003f0: 91f1 483d 4a26 e3bd bcf4 b3bd 3cee bebd
0.15319744 -0.21458526 -0.11153014 -0.097711734 0.005705836 0.07656446 -0.08355163 -0.041367665
0.120221764 0.028607706 0.029676184 0.006932728 -0.018555006 -0.07721985 -0.04110596 0.09249444
-0.106226705 -0.13810715 -0.12376769 0.136504 0.06925881 0.0021274511 -0.1343709 0.10056086
0.04695625 0.025511587 -0.037763596 0.056148853 -0.032933153 -0.097502545 0.0675564 -0.086867735
-0.03367364 -0.14609456 0.059247807 0.13594322 0.059403725 -0.2910722 0.061141163 0.13105948
-0.07136947 0.08726565 0.30589274 -0.08178775 0.11151266 0.013882987 -0.113402605 0.038572676
-0.06943926 -0.0016910702 0.18382151 0.14746788 -0.017451402 -0.06611681 0.09744988 -0.036769733
0.17759077 0.119650915 -0.05676557 0.12277216 0.15983704 0.08765496 -0.07783513 0.06505334
-0.1852463 0.047304574 0.09652079 -0.2310959 0.11170797 0.05571833 0.19744566 0.00095610355
0.012985872 -0.12631093 -0.029236661 -0.05682718 -0.14499295 -0.066070676 0.15080547 0.027692605
0.10715373 0.023309888 0.09091889 -0.036200628 0.06274427 -0.03216323 0.14756556 -0.20694284
0.13731872 -0.23847523 0.16633031 -0.13692755 -0.11951679 0.16190755 0.012676666 0.02990529
0.017316114 -0.04548537 -0.012621434 -0.053693075 -0.010441566 0.0765193 -0.1350726 -0.0439745
-0.12055262 0.045666337 0.039509382 0.060277052 -0.008667836 -0.049917337 0.047181442 -0.13191861
-0.063506596 0.04726574 0.120560765 0.1828333 0.05503207 -0.06739381 -0.25012553 -0.04373836
-0.21127526 0.15899259 -0.08923333 -0.11574961 0.0065562935 -0.07590867 0.19907932 -0.008897373
0.123757035 -0.0015046715 0.07283866 0.14115055 0.03563348 -0.12529328 0.14052154 0.005003101
0.10926221 -0.041932542 -0.0043219337 0.06324205 -0.007858189 -0.117085084 0.12830251 -0.091017894
0.008460751 0.014039645 -0.0110691255 -0.008408885 0.1304627 0.11090575 0.00815355 0.33728978
0.07971886 0.21079424 -0.08219221 0.3211707 0.11797228 -0.18875135 0.25639102 -0.083330154
0.00907808 0.014923306 -0.010222828 -0.22127807 0.04255479 -0.14294629 0.26623756 -0.058564276
0.36867985 -0.06052784 -0.06591666 0.11333038 0.0434045 -0.036470424 0.034424637 0.20790239
-0.0043152664 -0.0685963 0.11488469 -0.056653954 0.0005929915 0.012178555 0.11261627 -0.09386939
0.23092027 -0.068220094 0.04875476 0.1385172 0.24399151 0.0015997617 0.12720622 -0.029902317
0.05034212 0.07302575 0.099113196 -0.0600151 -0.1232097 -0.025266051 -0.15428464 -0.070127524
-0.034830235 -0.32787222 -0.035570618 0.059446685 0.048097905 -0.08704081 -0.20787589 0.076180935
-0.04813628 -0.08403544 -0.07108992 0.16415453 0.12561978 -0.20360853 0.084905714 0.08903501
-0.18036014 0.018735722 0.030901989 0.09768863 -0.08636628 0.12602569 0.036851738 0.09679489
-0.24393421 0.16505621 -0.14175269 0.16067965 -0.08928754 0.113560006 -0.13185011 -0.08722763
-0.06792198 -0.24561994 -0.036925208 0.047204845 0.0034973375 -0.123071745 0.15115961 -0.083236784
-0.10125207 0.1658398 -0.00054546096 -0.016295698 -0.0455953 0.017162811 -0.08451426 -0.16135776
0.001701332 0.082512304 0.09332982 -0.11734292 0.0490585 -0.110912874 -0.08786914 -0.09322783

fc2.bias f4 [128]
00000000: 363f f93d 431e 8cbd 1d4a c9bd c907 54be
00000010: 9e29 36ba 0ff8 6abc 8f9e 8a3e 8245 67be
00000020: 3db4 41bd e840 87bd 8df1 af3c 07ad 35bd
00000030: 8516 133d c43a 3e3e 4b74 693d bc1e b43d
00000040: 2a33 433d 74bf 54bd 8c58 333e 5318 2f3e
00000050: 544a 553e 2bef 6dbb ca9c 85be 5ada b03d
00000060: ba5a bd3d ec9c 303e b2c1 b63d 2e24 82bd
00000070: 4a84 abbd 156d ab3c 1acd 6e3c a067 65bd
00000080: 9a93 f9bd cd82 a1bd ed71 9fbc eb81 15bc
00000090: 24d6 823e 904a 74bb abdc 4fbd a265 aeba
000000a0: 3a14 193e 33dd c73d f53c 503d cb63 7abe
000000b0: d7a4 dd3d b423 46be f9c0 b3be 7b2a 773d
000000c0: f526 1e3d 957a 923d 3581 e83e 5517 aa3d
000000d0: 02ca df3d 4bdc 57be 2681 9a3d c2c7 d23d
000000e0: 5848 313e 6662 b23c ac9b 543e 1af2 0b3e
000000f0: 2ed5 c83d 69ff 3bbe dff8 e6bd 2dba 04be
00000100: 8001 adbd b45d 5f3e bb06 8abd f0ec 43bd
00000110: 13f4 bcbd 7272 2ebe 7baf 0abe a614 24be
00000120: 9592 093e 9d31 533e 242f 8fbe cd27 dabd
00000130: 8a3b 94be 2b60 9cbe 998d 223e 9a88 3d3e
00000140: d2ad f13d a098 c43d 1444 52be 8bf0 013d
00000150: c330 bbbd a7a0 033e 01b6 603e 8cc5 963e
00000160: 9b5b 93be 7429 85be 2f3b acbe 2e96 c53e
00000170: 7761 a5be cdc3 873e 8a08 893c e805 f43d
00000180: 62e5 d0bd 60d7 763e 6824 96bb d7bb 143e
00000190: caf8 1e3e c916 713e 2c3d c03e ff10 0a3d
000001a0: b8b7 55be c6d6 303e eeed 33be c081 f23d
000001b0: 3368 59be e1d3 0cbd aaf0 90bc 8ff9 403b
000001c0: 62d8 053d a5b4 953d 85b1 9e3d 0b3f 473e
000001d0: ffbb 883d 058f 6f3d 0232 e1bc ff06 9f3c
000001e0: d7fc 7e3d 214b 1abe a83d 603e 58ef b93d
000001f0: ab55 073e c94f 9abd 0419 5dbd b1f3 8b3e
0.1217026 -0.068417095 -0.09828589 -0.20706095 -0.00069489505 -0.014341368 0.27074096 -0.22585109
-0.04729103 -0.06604177 0.021477485 -0.044354465 0.03591015 0.18577105 0.05699567 0.087949246
0.047656216 -0.051940396 0.17514247 0.17099123 0.20829135 -0.0036305885 -0.26096183 0.08635397
0.0924582 0.17247361 0.08923663 -0.06354557 -0.083748415 0.020926038 0.014575267 -0.056007028
-0.12186356 -0.078862764 -0.019463504 -0.009125213 0.25554 -0.0037275888 -0.050747555 -0.0013305435
0.14949122 0.09758987 0.050839383 -0.2445213 0.10822456 -0.19349557 -0.35108164 0.060343247
0.03861137 0.07152287 0.45411077 0.083052315 0.10927202 -0.21080129 0.07544164 0.10292007
0.17312753 0.021775436 0.20762509 0.13666573 0.09806286 -0.1835915 -0.11277937 -0.12961645
-0.08447552 0.21813089 -0.06739565 -0.047833383 -0.09226241 -0.17035845 -0.13543503 -0.16023502
0.13434823 0.20624395 -0.27965653 -0.10652123 -0.28951675 -0.3054212 0.15874328 0.1850914
0.11800732 0.095994234 -0.20533782 0.03172354 -0.0914016 0.12854253 0.21944429 0.2944759
-0.28780827 -0.2600819 -0.33638903 0.3859114 -0.32300922 0.26516572 0.016727705 0.11915189
-0.10200001 0.24105597 -0.0045819767 0.1452478 0.15524593 0.23543848 0.3754667 0.033707615
-0.20870864 0.1726943 -0.17571232 0.11841154 -0.21231155 -0.03438175 -0.017692883 0.0029445624
0.03267706 0.07309846 0.07748703 0.19457643 0.066764824 0.058486003 -0.027489666 0.019412516
0.062252846 -0.15067722 0.2189852 0.09078854 0.13216273 -0.07534749 -0.053978935 0.2733436

fc3.weight f4 [64, 128]
00000000: 9681 d13c ec40 c53c 206a c63c e536 473e
00000010: 9c02 ec3b a855 48bc 0bca 233d 3e01 5cbc
00000020: 9f3e f5bd 6968 e13c be30 a8bd cc3a 0c3e
00000030: d221 3fbd b1f5 14bd 1bdd ea3d ba4d f23c
00000040: a833 b23d 1947 d03d d05c e3bb 6199 42be
00000050: fa04 5ebc 385c 4f3d 8ca5 0f3e f885 bebd
00000060: 721a 1e3d 48d9 74bc 3c21 d03d e456 9c3d
00000070: 9842 313c fc49 1fbd 2fb3 e7bc bda3 ec3c
00000080: 7278 3d3e 08a8 203d 4582 56bb 2eef 033e
00000090: 0167 073d cec5 9f3d 95b8 8a3c 1af5 5a3d
000000a0: 41b4 a4bb 8c6d 373d 3cf8 da3d 575f dd3c
000000b0: 5816 d4bd aa2a 5abd 2a82 f4bd bed6 f63c
000000c0: 0b9d 043e eef2 f03c 05dd 82bd 4e52 853d
000000d0: 4876 1ebc 364b ec3d 2a30 60bd 1bc9 b9bc
000000e0: 7d87 e93d 8c14 0a3e 8a4b fe3d 09a1 f7bd
000000f0: 41f2 22bd 6b21 373d 18af 6bbc 66b1 02bb
00000100: bdd7 423d 335e 813d c011 b43d 7700 d93d
00000110: d4c5 d83b e2f3 623d 3cfc 003e bfa8 083d
00000120: dd2a 973d 6005 8abd dbd5 16bc 233e 143d
00000130: 0f75 56bd 3e81 91bd e0e0 4abc 144d 083e
00000140: b9da 863d 22bb 823c 5272 8f3d 0442 04bd
00000150: 9a62 75bc 577a 36bd 0d4d 6c3d 9a54 60bd
00000160: 7bdd d93c dece ae3c 7aac 163d d02b 0cbd
00000170: 1c36 193e 3747 f5bb 690e 7fbd 4ec7 62bd
00000180: 5bfa bd3a a42d c1bd 3ee3 003e e87e 0dbd
00000190: eb4a 9d3c 6856 d83d 244d da3d f35c 813d
000001a0: c498 a1bd 2ced adbc 1225 93bc f886 023e
000001b0: 485c 5d3c 545e 803d bbf0 1c3e 0acf 313e
000001c0: 5d1b 10be aed1 de3d 5c10 50be 19cd 5e3c
000001d0: c5dc 81bd 2830 68bd 0587 eb3c 86f2 023e
000001e0: 8ebe 023d b2ab debb 0c8d 983d f63f 703d
000001f0: 7a57 01bd 04f6 59bd a07c 07bc 9ed1 4c3d
00000200: 4f50 713d dd9e 9bbd f204 303d bb16 833d
00000210: b8cb 163e dc6e cfbc dd09 8d3b 2d31 aabd
00000220: ead9 b9bd 825b 14bc 446c e03d bdb5 ce3c
00000230: 6561 913c 0d62 0f3e 98ae 6d3d 0820 b03b
00000240: 0ce8 493e 888d 0f3d 5a70 1ebd a26e 843b
00000250: de59 c73d d048 a43c 847e 4fbb 1b85 fbbc
00000260: 29cb 2b3c 4c63 73bd a681 3e3c 31b5 d13d
00000270: 991b a5bc 4374 133d 5ce6 5cbc caa1 e03c
00000280: acec 303e 8a05 a9bd 289a 0b3c e054 e03c
00000290: 9d54 e53d e3a5 be3d 0c43 75bc a22c 4e3d
000002a0: e902 673d d19b ac3d 63d6 b13d 025d 283c
000002b0: 6962 82bd e6ef bcbd 7ca9 67bd 4c07 283e
000002c0: a3af 193d 3200 afbd f8a9 7abc f03d 7c3c
000002d0: 6331 e9bc 3d84 be3d 84e9 043d 5e2a 333c
000002e0: f556 1b3d c0d7 193c fd2b df3d 3cae 7c3c
000002f0: 5fac b43c b95c 99bc fef2 3f3a f312 a5bd
00000300: fe16 483d c5c0 013d 9f3b fcbc 23ae b53d
00000310: 5eb6 ce3d 1955 fc3c 31bc f53b c24b 483c
00000320: a5c2 dc3d 6a84 af3d 7dcb 823c 2321 27bd
00000330: 6db8 87bc 92a6 1a3c 9010 8b3d 29f6 0e3d
00000340: 827b d23d 3aa3 5d3c 295b 65bd 1f60 bb3d
00000350: 3b77 1c3d 7b50 9b3c 756b 4f3e 1ee4 dc3a
00000360: aa4f 90bd c758 8c3c f478 8d3c 1230 2f3c
00000370: 6a20 0bbd f350 bf3d 2bc4 353d b105 0fbd
00000380: 0272 7a3d 9af9 ffbd 82b3 c83d 9d8b 683d
00000390: 5b20 903b 8799 dd3d 97da 033e dbd3 f8bc
000003a0: 5448 15be fb81 d93c 7024 bdbd c6ad 633d
000003b0: 2f07 84bd 667e f03d cddd 90bc a873 2b3d
000003c0: 34f0 9ebd 4a3a 90ba 8245 cc3d ff77 3e3d
000003d0: dde9 23bd b02b 97bd bf6a 53bd 1e97 553e
000003e0: 364d 503d 47e0 7dbd f694 f03d 14d7 7c3c
000003f0: 6d89 883d 5288 003d 5804 fd3b c806 503d
0.025574487 0.024078809 0.024220526 0.19454534 0.0072024595 -0.012227453 0.039987605 -0.013428031
-0.11974835 0.027515607 -0.08212422 0.13694304 -0.046663113 -0.036367122 0.11467954 0.029578079
0.08701259 0.10169811 -0.0069385543 -0.19003822 -0.013550991 0.050625056 0.14027995 -0.09302896
0.03859944 -0.014944382 0.10162589 0.076337606 0.0108191 -0.038888916 -0.028283684 0.02888667
0.18502977 0.039222747 -0.0032731455 0.12884209 0.033057217 0.078014 0.016933719 0.053456403
-0.0050263708 0.044782206 0.10691878 0.027023 -0.10355824 -0.053263344 -0.11938889 0.030131694
0.12950532 0.029412713 -0.063898124 0.06509839 -0.009671755 0.11537783 -0.054733433 -0.022678902
0.114027955 0.134844 0.12416752 -0.12091262 -0.039781813 0.044709604 -0.014385007 -0.0019942163
0.047569025 0.06316795 0.08792448 0.10595792 0.00661538 0.055408366 0.1259622 0.033364054
0.073812224 -0.067393064 -0.009206261 0.03619207 -0.05235773 -0.07104729 -0.012382716 0.13310653
0.06584687 0.015958373 0.07004227 -0.03228952 -0.014977122 -0.044550266 0.05769067 -0.054768182
0.026594868 0.021338876 0.03678558 -0.03422147 0.14962047 -0.007485296 -0.062269602 -0.055365853
0.0014494167 -0.094325334 0.12586686 -0.034544855 0.019200763 0.10563356 0.10659245 0.06316557
-0.07890466 -0.021231256 -0.017962012 0.12746799 0.013510771 0.06267992 0.15326206 0.17364135
-0.14072938 0.10879837 -0.2031874 0.013598704 -0.063409366 -0.05668655 0.028750906 0.12787828
0.03192001 -0.00679537 0.074487776 0.058654748 -0.031577565 -0.053213134 -0.008269459 0.050004594
0.05891448 -0.0759866 0.042973466 0.0640082 0.1472615 -0.025321417 0.0043041543 -0.08310161
-0.09074767 -0.00905502 0.1095815 0.025233144 0.017746637 0.14002247 0.058027834 0.005374912
0.19717425 0.035047084 -0.038681366 0.004041509 0.09733938 0.020054251 -0.0031661103 -0.030703118
0.010485449 -0.05942087 0.01162759 0.10239638 -0.020154761 0.035999548 -0.013482656 0.027420897
0.17277783 -0.082530096 0.00852064 0.027384222 0.11197779 0.09308984 -0.0149695985 0.050335534
0.05639926 0.08428157 0.08683469 0.010276081 -0.063664265 -0.092254445 -0.056558117 0.16409034
0.037521016 -0.08544959 -0.015299313 0.015395626 -0.028465932 0.09302566 0.03244926 0.010935394
0.037924726 0.009389818 0.10897062 0.0154224 0.02205485 -0.018720971 0.00073222804 -0.08060255
0.048850052 0.03167798 -0.030790148 0.088711046 0.100933775 0.030802296 0.007499241 0.012225093
0.10779313 0.08570178 0.015966171 -0.040803086 -0.016567433 0.0094391275 0.067902684 0.034902725
0.102774635 0.013527686 -0.05599514 0.09149193 0.038199645 0.018959275 0.20255835 0.0016852652
-0.07046445 0.017132176 0.017269589 0.010692613 -0.03396646 0.09341612 0.044376533 -0.034917537
0.061143883 -0.124987796 0.097998634 0.05677377 0.0043983883 0.10820299 0.12876354 -0.030374458
-0.14578372 0.026551237 -0.092354655 0.055585645 -0.06446683 0.117428586 -0.017683888 0.041858345
-0.07760659 -0.00110037 0.09974195 0.046501156 -0.04001795 -0.073813796 -0.051615473 0.20858428
0.050854884 -0.061981466 0.11747162 0.015432138 0.06666837 0.031380005 0.007721465 0.050787717

fc3.bias f4 [64]
00000000: da4b dd3d e43c b23d 8eff 673e 51c7 1d3e
00000010: 3e5f b03c 92fb 223d c64d ad3e 0d66 dfbd
00000020: ff6d 473e dbaf 0b3e d5c8 3c3e 6fed 823e
00000030: cd4f 57bd 42dd 143e 460b 69bc ed78 6b3d
00000040: 29b3 093d 1251 7b3c b298 b2ba 8779 2e3e
00000050: ed81 3ebc e364 183d 18f8 3a3e 3319 3e3d
00000060: c430 8fbd 8e83 183d 8930 303e a666 4e3e
00000070: 8775 443e 93e4 a0bd c485 0c3e bf2a e13d
00000080: 86e8 663e 1f07 503e 0126 1d3e b511 0b3e
00000090: 9c3f 62be e519 ed3c 20f5 703d 136e af3a
000000a0: 2763 4a3e 828f 603d c450 543e 379b c5bd
000000b0: b17a 563c 000b 69bd c559 d63d 81e5 1a3e
000000c0: f373 533e b4e8 163e c4eb 35be c328 533e
000000d0: 233e 373e 9164 cb3d f311 88bd 0c7a 703e
000000e0: be3a 79bd 6c83 513e d4c4 453b bee4 bd3d
000000f0: 45f5 083e 8a50 edbb 5574 73bd 87c6 d73d
0.10805483 0.0870302 0.2265608 0.15408064 0.02152979 0.039790697 0.338484 -0.109081365
0.19475554 0.13641302 0.18435986 0.25571772 -0.05256634 0.14537528 -0.014223879 0.05748837
0.033618126 0.015339153 -0.0013625829 0.17038547 -0.011627656 0.037205588 0.18258703 0.04641075
-0.06991723 0.037234835 0.17206015 0.20156345 0.19185458 -0.07856097 0.13722903 0.10994481
0.22549638 0.20315216 0.15346529 0.13580973 -0.22094578 0.028943012 0.05882752 0.0013384245
0.19764386 0.05482436 0.20733935 -0.096487455 0.013090775 -0.056895256 0.10466341 0.15126611
0.206497 0.14737207 -0.17765719 0.20621018 0.17894797 0.09931291 -0.066440485 0.23484057
-0.060847037 0.2046029 0.0030177133 0.09272145 0.13374813 -0.007242267 -0.059437115 0.10535913

fc4.weight f4 [14, 64]
00000000: 1c04 023d d20b bd3d e200 2a3e b7fd 633e
00000010: 1596 893e f4e7 13be fabc f03d 359c 11bd
00000020: f07b 1a3e 2dc4 cebc f642 a23d 5de2 353e
00000030: 1a9c dcbd 9210 593e 3eaf ae3c 7732 23be
00000040: 866f db3d 0c8e 37bd 747a fdbd 7582 893d
00000050: 71d9 c4bd 8654 983d 90e2 443e 8416 01bc
00000060: cdd7 87bc 6932 61bd 342c 893e 4701 ed3d
00000070: 60e2 1e39 f741 c6bc ffed 953c bca7 44be
00000080: 8f28 9a3d 432e c63c f22a 523e 7149 6e3d
00000090: d63e 97bd dcb4 a93d ad8d 29be 349c d53d
000000a0: 7e41 b93d 1987 68bd da9c 313e 6b9b 39bc
000000b0: 6e5a f3bd a2c3 6dbd 6982 ff3d 3c33 713d
000000c0: 1fbe 4f3e 1fc7 053e df38 f1bd f38e 363e
000000d0: 012c c0bd 95d0 7e3b 00e6 303d b05b bebd
000000e0: 6f94 85bd 08ce 0b3e 2aa5 7e3d 8498 d5bc
000000f0: 9fde 4b3d c9b1 953d 5f25 1fbe 8f4f 823e
00000100: 0770 2cbd c62a f63d 082f e23d 1bde 24bd
00000110: 74ce dabd 140a afbd 86ee c93d 4ccd c1bd
00000120: ce43 9cbd 7074 713b 860b b63d 57d9 563d
00000130: 6473 e03d 8728 c53c d143 a53c 76d6 cfbd
00000140: f6c6 99bd 5aa3 d4ba 34a9 97bd 3814 c3bd
00000150: 6f6d 623d 70bd b23d cf0a 55bd a1d8 853c
00000160: fe9a f1bd 468d ce3d 524b 21bb 4a0d d5bd
00000170: d633 93bd 3996 b4bb 5cbe 97bd ff2d ee3c
00000180: 43a4 013d 3af0 5fba 602c d2b9 066a ad3d
00000190: f16e 943c 8e53 b43d 900e d13d 1208 ecbd
000001a0: d81e d73d 7672 ec3d 0221 12bc 7479 ac3d
000001b0: 1357 69bd de43 cdbd 4859 a5bc 5693 c5bd
000001c0: 1600 79bd 8890 8fbd 53cf 71bd 1ef9 a3bb
000001d0: 9613 bbbd cc6b d1bd 4f3f 323d be88 c83d
000001e0: 4a9f e53d 5ece 69bd 4239 a93d 452b 8f3c
000001f0: 275c ecbc 82a2 d83d 445e c5bb 87ce 63bd
00000200: 568c 6b3e 05b2 673e 4f18 3b3e 9fb0 cd3e
00000210: 5673 4b3e 464e 123e 8e69 d73e 7492 683d
00000220: 517a 6b3e 0b00 833e 5d51 8c3e e4f8 263c
00000230: ce1d 0c3e 1e59 b73c 667b b7bd babf 2a3e
00000240: 1ce0 b0bb bdc3 023e 2e5b e13c 2d7f 3a3e
00000250: 7381 643e 5140 3b3e 6fe7 a73d 7657 48bd
00000260: 5f34 dcbc 3594 12bd d953 4e3e d39a 843e
00000270: 03ad 2d3e b060 d5bc 606d 9dbb ca55 243e
00000280: 159c 893e b3b3 503e bfb6 113d 47bc 883e
00000290: 8c96 2e3d b162 323e 95ae 7f3d 221d 9cbd
000002a0: af16 8d3e ba79 ff3d 1942 953e 863b a1bc
000002b0: 0689 0e3e f808 643e 4948 6b3e fbc4 aa3e
000002c0: dc63 a53c ca9c 683e f938 643d 5f18 c43c
000002d0: 3d86 973e daa0 183e 4456 e5bc 7e20 8e3e
000002e0: 2bcd 453d 1b80 ad3e 652a ae3a d58d 4a3d
000002f0: dd5c 7f3e 6ccd 0e3d 608a 2e3d 3cbf 9a3e
00000300: f245 f63c 2e14 253d 89d4 5c3e 44b7 a63c
00000310: 0742 d83d d27c 2c3e e0bf bb3e 77f8 2bbd
00000320: 6509 813d 8564 923e 5827 783d 3aa9 173e
00000330: d36d ad3d 6458 1d3e 918a 7cbd aa6a 99bd
00000340: 38a6 1a3e 12c7 b43c 4c67 43be 2544 c33d
00000350: 1184 d7bc 5624 c63c 18d8 443e dfce d93c
00000360: bac9 f53d dfed 183d ca43 ad3e b01f 1f3e
00000370: 3e28 c33d 91f8 7ebd 7eba 023e e078 623d
00000380: 2dd0 4c3e 798f 203e 153e 503e 93e2 443e
00000390: c218 9dbd c9b1 743e 4e2e 29be 3989 92bc
000003a0: 5505 453e 7f5b c9bc f7ae 673e cc08 c2bc
000003b0: 5e8a 353e d88a e8bd 41e8 5e3e 1296 9a3d
000003c0: fe6c 4b3e 35e7 353e 720d 43bd 05ad 133e
000003d0: 8ef6 983e e47f 253e 9d26 4c3d 44ea 663e
000003e0: 144f 89bd af62 3d3e c2e8 36bc d13d 8c3d
000003f0: 0327 293d 9f45 d13d b5de 963c 1f4e 583e
0.0317422 0.0923077 0.166019 0.22264753 0.26872316 -0.14443952 0.117547944 -0.03554936
0.15086341 -0.025240028 0.07922928 0.17762132 -0.107719615 0.21197727 0.021323796 -0.1593722
0.10714631 -0.0448132 -0.12376872 0.06714336 -0.09611786 0.074379966 0.19227052 -0.007878903
-0.016582394 -0.054979715 0.26791537 0.11572509 0.00015152385 -0.024201376 0.018301962 -0.1920461
0.07527267 0.024191981 0.20524195 0.058175508 -0.07385032 0.08286449 -0.16557951 0.10430184
0.09045695 -0.056769464 0.1734499 -0.011328558 -0.118824825 -0.058047898 0.12476046 0.05888675
0.20287369 0.1306424 -0.117784254 0.17827968 -0.09383393 0.0038881649 0.043188095 -0.09294832
-0.06522452 0.13652813 0.06216923 -0.026073702 0.049772855 0.073093005 -0.155416 0.25451323
-0.042099025 0.12019877 0.11044127 -0.04025088 -0.10683909 -0.08546844 0.09859948 -0.094629854
-0.0763012 0.0036843084 0.08888917 0.052453365 0.10959509 0.024067177 0.020173939 -0.10148327
-0.07508652 -0.0016222999 -0.0740532 -0.09525341 0.055280145 0.087275386 -0.05201226 0.016338648
-0.117971405 0.100855395 -0.0024611545 -0.10402925 -0.07187621 -0.005511072 -0.07409355 0.029074667
0.031650793 -0.00085425714 -0.00040087383 0.08467488 0.018119307 0.08804999 0.10207856 -0.11524977
0.1050393 0.11545269 -0.0089190025 0.08421603 -0.056967806 -0.1002271 -0.020184174 -0.09647243
-0.060791098 -0.07009989 -0.05903561 -0.0050040623 -0.09134595 -0.10225639 0.043517407 0.097917065
0.112120226 -0.057081573 0.08262874 0.017476687 -0.028852535 0.10577871 -0.0060232 -0.05561688
0.23002753 0.22626503 0.18270992 0.40173814 0.19868216 0.14287671 0.4207272 0.056780294
0.22995879 0.2558597 0.27405825 0.010191176 0.13683245 0.022381362 -0.08959083 0.166747
-0.0053978097 0.1276998 0.027509298 0.18212576 0.22315006 0.18286254 0.08198439 -0.048911534
-0.026880441 -0.035785872 0.20149173 0.25899372 0.1696053 -0.02604708 -0.0048042983 0.16048351
0.26876894 0.2038105 0.03557467 0.26706144 0.04262404 0.1742046 0.062422354 -0.07622744
0.2755637 0.124743894 0.2915199 -0.019681703 0.13919458 0.22269046 0.22976793 0.3335341
0.020189218 0.2271606 0.055718396 0.023937402 0.29594603 0.1490511 -0.027995236 0.27759165
0.048291367 0.338868 0.0013287781 0.049451668 0.24937768 0.034863874 0.042612433 0.30224025
0.03006265 0.040302448 0.2156545 0.02035106 0.10559469 0.1684449 0.36669827 -0.041985
0.0630062 0.28592315 0.060584396 0.14810649 0.08468213 0.1536575 -0.061655585 -0.07491048
0.1510247 0.02206758 -0.19082373 0.09534482 -0.026308091 0.024187248 0.19223058 0.026587902
0.12001367 0.037336227 0.3384078 0.15539432 0.0952916 -0.06224877 0.12766454 0.055291057
0.20001288 0.1567973 0.20336182 0.19227056 -0.07670738 0.23895945 -0.1652157 -0.017887698
0.19240315 -0.024579762 0.22625338 -0.023685835 0.17728564 -0.11354607 0.21768285 0.07548155
0.19865796 0.1776398 -0.047620244 0.1442147 0.29875606 0.16162068 0.049841512 0.22550303
-0.06704536 0.18494676 -0.011163892 0.06847728 0.04129697 0.10218357 0.018416742 0.21123551

fc4.bias f4 [14]
00000000: db18 333e ccec 0cba 3be0 953e 2cfd ca3d
00000010: 02a9 843d 19ac 583c 6c83 583e c4bc ab3e
00000020: 4ef0 b93b 77d9 d03c 8511 9f3d 4ed4 2c3e
00000030: 1676 883e 8d2c cebc
0.1748995 -0.00053758617 0.29272637 0.0991157 0.06477548 0.013224625 0.21143883 0.33542454
0.0056743985 0.02549432 0.077670135 0.16877863 0.26652592 -0.025167728
