saved_models/q_learning_agent.pth (torch, 78889 bytes, 8 tensors)

fc1.weight f4 [64, 23]
00000000: c839 a43d 3ea2 28be c4f9 94bd 8574 04be
00000010: 4eb4 03be f962 86be 0ba1 043e 15ed ebbd
00000020: 8519 733e bb15 603e 00a3 b8bd 5c7a 98bd
00000030: 0120 873e a326 533d 344f f5bc 98f8 04be
00000040: 37f9 543e e9eb bd3c aaa6 1ebb a389 203e
00000050: ef08 b0bb dac5 e5bc 93ad 5c3d eaff 4a3e
00000060: 7da4 b9bd ec07 ae3d ab0f 86be 4543 0d3e
00000070: 4a50 4d3d 3e14 c63c dd16 cd3d 4a50 1a3e
00000080: 569c 163d a58a 313e 40ac cfbb 4b8e e7bd
00000090: 38c4 ed3d 8a47 f1bd 0557 983d 0fce 0e3e
000000a0: e63a 213e 6ada c6bc 72bb 7c3e eabc 8abd
000000b0: 1e2c da3d c556 5b3d b6e4 2dbd 91ad fdbd
000000c0: 757c dfbd c58c afbc bd89 1bbd 0171 34bd
000000d0: 8dbc 45be ce70 22be 2044 4bbd b330 83be
000000e0: 3ec8 39be 2f3c 83be 073d 93be 753a e0bc
000000f0: 8ee4 a2be 5965 77be 3251 6cbd 6ded 85bd
00000100: d28c 3a3e e65a dd3c d05b 4dbe 2f59 babd
00000110: 1036 45be a531 73be 9c92 82bd dbfa d23e
00000120: ce63 473e 59c4 473e 06d5 133b 54f4 78bc
00000130: 2c27 5c3e e3c3 a23d a965 2f3e 9398 babd
00000140: ad00 14be 7eb4 02be 220a 4bbe a10c 98bd
00000150: 6918 aa3d fb96 003d 9321 2c3e 3e2a 88bd
00000160: a136 41bd db7d 863e 4b08 273e cf89 3d3e
00000170: de94 163e 2a5c 11be 1043 f03d 4294 fa3d
00000180: 0a3e 98bd cdbd 01be 807e 553e 5a00 2d3e
00000190: 0a3c 723e d177 453e 5485 1f3e 7037 703d
000001a0: acb8 e5bd d6d5 913e 5b16 9f3d 5050 96bd
000001b0: 202c 183e d33d 23be e458 ebbb d49d cd3d
000001c0: 81c8 843c a79d d93c 5601 a13d 05b0 3b3e
000001d0: ef56 363e 27d1 3cbe e9e2 bbbd 828c 953d
000001e0: d74a 843d 16cb 6b3e 76a0 c7bd 4e69 393e
000001f0: fb1c 01bd 039c d83c 9102 e13d eab5 a73d
00000200: 8c80 e4b9 0a62 263e 7f9b ecbc 4e95 273e
00000210: 7797 f73d c80c 66bc ebe2 943c f635 08bd
00000220: 6b45 56bd 8f95 013e 1fbc 6d3d 826e 8abd
00000230: 15ba 643e f48b 69be 00b8 433b f008 a23d
00000240: 31f6 04be fd6f ad3e d216 02be 2290 12be
00000250: 7fc1 a8bd 586a 5b3e c59f 153d 2af5 7f3e
00000260: 5d56 0a3c 76d8 413d 8033 a13d 7c51 213e
00000270: 00b5 4d3e 972e 9e3e 1da1 603e 905c e33d
00000280: e390 213c 8ae6 c7bd e753 2b3e 8805 b4bd
00000290: 404d 28be 60b4 333e 4d7e 1bbe 196a 84be
000002a0: 07bb 473e d618 29be 6b7b f4bd 304d 6ebd
000002b0: 12e2 893d 18f9 1bbe c15e 2abe 36cb 1a3d
000002c0: 28af 2d3c 8880 063d 0ab8 a93e 2f2f 653e
000002d0: fba8 353e 201d 06be c9b1 c3bd 3b61 4abe
000002e0: c210 7c3e 9bc0 213e f70d 423e 5b06 673d
000002f0: e8f1 c33c 6319 833e dfea 5e3e 00e8 953b
00000300: 6647 6bbd e4c3 38be 5817 683d 277b 87be
00000310: 750b 8bbe ce45 1cbe 999f e63b 14ea e1bd
00000320: 6391 463e 79a0 9b3e 99c5 453d 3da1 21bd
00000330: f352 37bd ad64 023d 1005 12be a34e 213e
00000340: d1a4 143e 094f db3d 3bdb 1b3e 9cf4 83bc
00000350: 8da4 803d aefc 503e 2184 803e 5f1e 883e
00000360: 99bb 393e 2696 fd3d 9161 5b3e 7817 1fbc
00000370: 5d00 573e 9af9 223d 4683 033e 3f99 33be
00000380: 5b35 903b 4c9b 063c a633 3fbd 2e78 cf3c
00000390: 8449 9d3d 9e6d a63d 65cb 903e b027 b53c
000003a0: c6b9 dd3e 3a37 65be cc26 8e3e d568 9abc
000003b0: 8dba cc3d ebc2 13be eaa0 2e3e e890 4f3d
000003c0: 6eaf 243e c44f 1dbe cb2b 42be 6d97 f83c
000003d0: d51e 80be f1b7 debd e7d6 8abd d9e9 e2bd
000003e0: e37d 82be e34f 2f3e c6a1 503d b4fd 9e3c
000003f0: 18d4 59be 627c 743e 284e 24bd 3598 6e3d
0.080188334 -0.1646814 -0.072742015 -0.12935074 -0.1286175 -0.26247385 0.12952058 -0.11519829
0.23740204 0.2188329 -0.09015465 -0.07445213 0.26391605 0.05155052 -0.029944994 -0.12985456
0.20798193 0.02318378 -0.0024208226 0.15677504 -0.0053721587 -0.028048445 0.05387647 0.19824186
-0.09064577 0.08497605 -0.2618383 0.13795193 0.050125398 0.024179574 0.100141264 0.1506969
0.036770187 0.17338045 -0.0063376725 -0.11306437 0.116096914 -0.11781223 0.07438473 0.13945793
0.15745124 -0.02427407 0.2468088 -0.06774314 0.10652946 0.053549547 -0.042454444 -0.12386621
-0.1091241 -0.021429429 -0.037973154 -0.04405308 -0.19310208 -0.15863344 -0.049625516 -0.25623092
-0.18142793 -0.25631854 -0.28757498 -0.027371624 -0.31814998 -0.24159755 -0.05769462 -0.06539426
0.18217781 0.027020883 -0.20054555 -0.09099042 -0.19258904 -0.23749407 -0.0637562 0.41207013
0.19471666 0.19508494 0.0022557392 -0.015194971 0.21499318 0.07947519 0.17128624 -0.091111325
-0.14453383 -0.12764165 -0.19828084 -0.07424284 0.08305437 0.031393986 0.16809683 -0.06648682
-0.04717124 0.26267895 0.16311757 0.18509601 0.14705226 -0.14195314 0.11731541 0.12235309
-0.07433708 -0.1267006 0.20849037 0.16894665 0.23655716 0.19283988 0.15578204 0.05864662
-0.11216864 0.28483456 0.07767936 -0.07339537 0.14860582 -0.15941553 -0.0071822274 0.10039869
0.016208889 0.026564432 0.07861583 0.18328865 0.178066 -0.1843916 -0.09174139 0.0730219
0.06459587 0.2302669 -0.09747402 0.18106577 -0.03152178 0.02644158 0.10986818 0.08188994
-0.00043583324 0.16248336 -0.02888274 0.16365549 0.120894365 -0.014041133 0.01817461 -0.033254586
-0.052312296 0.12654708 0.058040734 -0.06759359 0.2233661 -0.22807294 0.0029864311 0.07911861
-0.1298454 0.33874503 -0.12704018 -0.14312795 -0.082400315 0.21427286 0.03652932 0.24995866
0.008443442 0.047325574 0.07871151 0.1575374 0.20088577 0.3089492 0.2193646 0.11101639
0.009861204 -0.09760769 0.16731225 -0.087901175 -0.16435719 0.17549276 -0.15184899 -0.25862196
0.19504939 -0.1651338 -0.119376026 -0.05817908 0.067325726 -0.1523174 -0.16637708 0.037791453
0.010600843 0.03283742 0.33148223 0.2238128 0.17740242 -0.13097048 -0.09555394 -0.19763653
0.24615768 0.1579613 0.1895064 0.056402545 0.02391906 0.25605306 0.21769284 0.0045747757
-0.057441138 -0.18043476 0.056662887 -0.26461145 -0.2715718 -0.15261003 0.0070380685 -0.11030975
0.19391398 0.30395868 0.048284147 -0.03946041 -0.04475684 0.031834293 -0.14259744 0.15752654
0.14515997 0.10708434 0.15220349 -0.01610785 0.062813856 0.2040889 0.25100806 0.2658567
0.18137969 0.12382154 0.21423937 -0.009710185 0.20996232 0.03978882 0.12843046 -0.17538927
0.0044008917 0.008215737 -0.046680115 0.02532586 0.076800376 0.081263766 0.28280178 0.022113651
0.43305796 -0.22384349 0.27763975 -0.018848816 0.09996519 -0.14429824 0.17053571 0.050675303
0.16082546 -0.1536246 -0.18962018 0.030345643 -0.25023523 -0.10874928 -0.067792706 -0.11079759
-0.2548667 0.17120318 0.05093553 0.019408084 -0.21272314 0.23875573 -0.040113598 0.058250625

fc1.bias f4 [64]
00000000: 2ebc 613e 35b1 793e 6086 60be 5b82 51be
00000010: be83 a73e 8b60 573c 1e40 06be 9ca6 22be
00000020: 5682 0c3e 2a35 943e c837 683e f71e 15bd
00000030: 94dc 143d fb41 2cbe 3feb 87be ee9e 783d
00000040: 542e 483b 8661 e13d ae83 a13d 0007 1d3e
00000050: e3f7 b83d 5668 52be 773f 33be aecb aebd
00000060: c8d3 51bd 9f76 6fbd ef6e db3d b507 4c3d
00000070: 49ff e93d aef1 29bd ff25 0f3d 8142 d9bd
00000080: d49d 42bd ab6b e33b 0145 953b d0a2 ab3e
00000090: 8b32 823e b1cf 743d 2e4e 033e 8b0a 613c
000000a0: c414 01be 073a b5bd 39c3 203e 5993 c73d
000000b0: 075b 8f3e 07f4 c53d 7a6f 10bc c439 483e
000000c0: 1bcd 323d 5713 32be c233 c83c 5e13 30bd
000000d0: a45d 0ebe 4274 5a3d b71b 9fbd 5f6a a23d
000000e0: e45b b5bd 7bbf e5bd 4d03 513d a0d5 0d3e
000000f0: 802c 61bc 6949 633b 7d58 813c 8c5e 36bd
0.22044441 0.24384005 -0.2192626 -0.20459883 0.327177 0.013145576 -0.13110396 -0.15883869
0.13721594 0.2894681 0.22677529 -0.036406484 0.036343172 -0.16822045 -0.26546666 0.060698442
0.0030545192 0.11004929 0.07886444 0.15334702 0.09031656 -0.20547614 -0.17504679 -0.085349426
-0.05122736 -0.058462735 0.10714518 0.049812037 0.11425645 -0.04149025 0.034948345 -0.10608388
-0.047513798 0.0069403253 0.004555345 0.33522654 0.25429186 0.059768382 0.12822792 0.013735424
-0.12605578 -0.088489585 0.15699472 0.09744901 0.27999136 0.09665685 -0.008815641 0.19553286
0.043652635 -0.1739019 0.024438743 -0.04298722 -0.13902909 0.05333353 -0.07768958 0.07930445
-0.08855417 -0.112181626 0.05102854 0.13851023 -0.01374352 0.0034681207 0.015789265 -0.04452376

fc2.weight f4 [128, 64]
00000000: 7608 94bd 0eb6 983d a2be cdbd f8dd febd
00000010: 094d e63d 4af6 cf3d f6b7 c23b f9e3 dd3d
00000020: ec14 1d3e 2065 2fbd e8da d2bd fa69 833e
00000030: c6b2 ad3d 29e4 33bd 7052 a4bd da9b 743b
00000040: f0ea d3bb 994b babd 7f17 7bbe 4079 eb3d
00000050: 4568 1bbe 906c 8dbd 5052 0b3c 0fe3 693d
00000060: 5c6a 0bbe 19bf 0d3e eebe 213e 6463 013e
00000070: aace b5bd 972f a1bd 32b0 e13d e8de 43bc
00000080: a7bd a63d d29d 83bd 6ea3 64be 6406 31bd
00000090: eafc 9abd 12df 943c b4d6 3f3e f4bd f83d
000000a0: dd74 14be 1ef7 5d3c 1be2 c6bd 8d65 7c3d
000000b0: c3f4 5c3e bc4a 8a3d 5d51 fb3c 5c81 9e3d
000000c0: 2227 c33d 011d 02be 28da 90bd 7861 bfbd
000000d0: bc30 503c b288 bebc 8a8a 93bd 62b8 323b
000000e0: 41a6 883d 88fc e6bd b6c0 b43d cdd6 8c3d
000000f0: 7882 dc3d cb96 a4bc fa11 0e3e da76 9d3c
00000100: 41b3 20bc 64d4 5e3c a5a8 01be f234 793b
00000110: 746c a1bb 5ae7 88bc 7cb5 723e cf91 aebd
00000120: ca8b 8abd 336d cc3d 61aa b6bc 0dd5 09be
00000130: bc7a e5bd 6946 97bd ab34 103d 2ac8 6ebc
00000140: 0b92 8cbd d9b2 b33d b2fa d73d db46 6e3d
00000150: ea5b a03d 547e 963d c5af 823d 30c9 023d
00000160: 1a4f 033d 70c6 0bbd 8fc6 a03d e93d 85bd
00000170: f257 363e df4e 233e 0cce ee3c 5f3d a23d
00000180: dda7 97bc f3c1 42bd 00bc 323e 24ad 04be
00000190: 9c46 cf3d b91a 013d 658e c9bb b536 0dbe
000001a0: 3a84 59bc 0775 b93d 6db1 883d 3f28 0abd
000001b0: 7e34 00be a65e a33d 7c7f d43d ad53 37bc
000001c0: a7d0 6f3e 925d 2bbc bbfb 763d f774 d73d
000001d0: 6a9f 673d 3df9 cd3d 9491 bd3d faeb 193d
000001e0: 743b 15bd 42e3 13bc 5523 c5bd baca d23d
000001f0: 97ab 663d 3330 113e 96f8 91bd b9c4 65bd
00000200: 3978 08be 197d 13bd cbfd 03bd 1fdd 023d
00000210: 446e ddbc a615 dcbd d556 293e a1cd d73d
00000220: 4a40 023d 55db 74bd 07d4 a73c f743 ddbe
00000230: 989f 8ebd f7ae 8ebc 37b2 a63d f8b9 933d
00000240: cdbd a13c 1a48 55ba 334f bd3e cf23 dfbd
00000250: ef86 823d f1a3 053e 0085 ae3c a88e ccbd
00000260: 2c73 4f3e 928c 4bbe fd74 aabd 8e5f 983c
00000270: 858f efbc 6b15 213e 503b 363c e49d 63bd
00000280: 85d1 f9bc 6f48 5fbc 63a7 533e cc98 0fbe
00000290: b4aa adbd 7940 ea3c 646f 1ebe 91b1 b03d
000002a0: cfdb 78bc e47e d93d 04e5 8abd b05a 5bbd
000002b0: f510 83bc a90c e0bd 6e61 33bc 9045 9b3c
000002c0: 713b e53d b2c2 e53d 8754 8f3d 7868 2cbb
000002d0: 268f dd3d 5f90 fbbc ae34 2a3e 01e9 0dbd
000002e0: ccf1 ed3d 8333 0fbd f1d3 2fbe 271e bb3d
000002f0: 7cfe 94be db39 3ebd 28d8 883d 0d36 703c
00000300: 15c2 163d a016 73b8 4408 8d3c fe0f 0f3b
00000310: 902c e5bd a7e0 813e d3cc bdbb 79ca 813d
00000320: 8ad4 49bd 4271 d5ba bfcd f4ba 03ce 653e
00000330: a2ca 02bd c943 1abe 1727 893d e5ea 40bd
00000340: d5dd ea3a c81d f4bd 828d 45be dfd4 983c
00000350: fd59 38be 32db e3bd 97b7 93bd 0224 09be
00000360: 7bfe b5bd a589 13bc 9561 c4bc b576 9a3d
00000370: b4e6 0dbe b7f8 6dbe 435d a13d fa4c dfbb
00000380: 213d c8bc 0c7d 97bd 35ff b7bd 7aba 76bd
00000390: c37a 21be 80b6 fd3b 2284 d6bd f20e 0c3e
000003a0: 8fcf 37bd d470 dcbc 98ec fbbb e0f2 5fbc
000003b0: e1ea 36bd 9994 91bd 2d8c 7f3d 8734 d03d
000003c0: db84 863d 7347 31bd 4fa5 ce3d 5de3 b73d
000003d0: 83d5 babd a81c a2bc 8159 c63c fa88 653d
000003e0: 09d1 f13d 8381 eebd ebd0 50bd 1bb6 a8bd
000003f0: 6683 c63d 93e4 83bd 0e3e 1e3d f812 b0bc
-0.07228176 0.07456599 -0.10046126 -0.12444681 0.11245162 0.10154398 0.00594234 0.10834498
0.15340012 -0.04282105 -0.10295659 0.2566679 0.08481364 -0.043918762 -0.08023536 0.003732434
-0.0064672157 -0.0909645 -0.24520682 0.11497736 -0.15176494 -0.06905472 0.008503512 0.057101306
-0.13614792 0.13842429 0.1579549 0.12635571 -0.08877309 -0.07870405 0.11019935 -0.011955
0.08141642 -0.06426586 -0.22327968 -0.043218985 -0.07567771 0.018172774 0.18734246 0.12145606
-0.14497705 0.013547687 -0.09711095 0.061620284 0.21577744 0.06752536 0.030678445 0.07739517
0.09528948 -0.12706377 -0.0707286 -0.093447626 0.012706932 -0.02325854 -0.072041586 0.0027270545
0.066723354 -0.11278635 0.08825819 0.068769075 0.107670724 -0.020091435 0.13874045 0.019221712
-0.009808362 0.013600443 -0.12661989 0.0038025943 -0.0049262587 -0.01671188 0.23702043 -0.085239045
-0.06764944 0.099817656 -0.02229804 -0.13460179 -0.1120505 -0.073864765 0.035206478 -0.01457409
-0.06863793 0.08774347 0.10545863 0.05817304 0.07830031 0.07348314 0.06381182 0.03193015
0.03205786 -0.03412479 0.07850372 -0.06505949 0.17806986 0.15948056 0.029150985 0.07921862
-0.01851266 -0.047548246 0.17454529 -0.12956673 0.101208895 0.031519625 -0.006151008 -0.137904
-0.013276154 0.09055524 0.06674466 -0.033729788 -0.12520024 0.07977037 0.10375878 -0.011189383
0.23419438 -0.010459321 0.060298663 0.10520356 0.056548513 0.10057304 0.092562824 0.03757856
-0.036433652 -0.00902635 -0.0962588 0.10292573 0.056315985 0.14178543 -0.07127492 -0.056095812
-0.13327111 -0.036007974 -0.032224458 0.03194916 -0.027030118 -0.107463166 0.1653703 0.105372675
0.031799592 -0.059779484 0.020486845 -0.43215916 -0.06964034 -0.017417414 0.081394605 0.07213205
0.019743824 -0.0008136049 0.36974487 -0.10895502 0.06373393 0.1305082 0.021303654 -0.09988147
0.20258778 -0.19877842 -0.08323095 0.018600252 -0.02924324 0.15730827 0.01112254 -0.055570498
-0.030495415 -0.013628109 0.20669322 -0.14023131 -0.08479825 0.028595196 -0.1547218 0.08627618
-0.015189125 0.106199056 -0.067819625 -0.053553283 -0.015999297 -0.10939915 -0.010948522 0.018954068
0.11192978 0.11218776 0.06998544 -0.0026307385 0.10818319 -0.03070849 0.16621658 -0.034646038
0.11618385 -0.034961235 -0.17170693 0.091366105 -0.29100406 -0.046441894 0.066818535 0.014661324
0.036806185 -5.7956786e-05 0.017215855 0.00218296 -0.1119014 0.2536671 -0.005792239 0.06337447
-0.04927496 -0.0016284364 -0.001867704 0.22441868 -0.031931527 -0.1506492 0.06696909 -0.047099013
0.0017918894 -0.11919743 -0.19292262 0.018656192 -0.18003078 -0.111257926 -0.07212751 -0.13392642
-0.08886429 -0.009004985 -0.023972312 0.07542173 -0.13857538 -0.23239408 0.078791164 -0.0068145962
-0.024443211 -0.07396898 -0.08984224 -0.06023643 -0.15769486 0.007742703 -0.10474421 0.13677576
-0.044875678 -0.02690927 -0.0076881163 -0.013668746 -0.04465759 -0.07108421 0.06238954 0.10166269
0.06568309 -0.04328103 0.10090124 0.08978913 -0.091227554 -0.019789055 0.0242126 0.056038834
0.118074484 -0.11645796 -0.05098049 -0.08237859 0.09693031 -0.064400814 0.0386334 -0.02149342

fc2.bias f4 [128]
00000000: 79e3 383e 8b37 aabc 8438 a0bd 7f90 a43d
00000010: 7d05 2d3e 12e5 ef3d b650 6c3e bb49 58be
00000020: 741f 0cbb f229 3a3d d57f e2bd 7a06 df3b
00000030: 57e6 47be 7df9 70be 8ed3 933c e1a6 153e
00000040: 90a9 983c 49c3 40bd 2ce9 533e 9802 863d
00000050: 38bb 7e3d 1c2a 873d c809 bc3d 5b5e da3d
00000060: ed22 a8bd 6813 cebd 234b 263e 1acb 05be
00000070: 2c19 02be b0bb 253b 21e9 74bc f139 1e3e
00000080: 9a3b 873e 10ca 2a3e 2fcb d53c 2004 b138
00000090: ef9c b1bd a7e2 36bc b52d 1b3d 2f9b c83d
000000a0: 1b09 7abe 5f14 b93d 4e54 6cbe 31c5 6d3d
000000b0: c4c4 a73d 3b07 15be e682 bb3d e64c 663e
000000c0: a001 cb3c df62 c0bd c9cb 9f3d ce12 393c
000000d0: 46f8 8b3d e074 ae3d a435 7c3b 2336 7f3e
000000e0: 8c2d ee3d 48ee f23d 5193 7d3e 4c5f 64be
000000f0: a866 cabd 5aed 55be 9a85 3dbd c604 9cbe
00000100: 414f 153d b929 c33d 96af b63c 6184 8dbe
00000110: 4f85 f8bd dbbb 57bb 6b20 42be c4b0 5abe
00000120: a731 763d 280f 903e 8251 4abe 618e 05bd
00000130: 8383 bcbc 21c7 123d 206c 35be 7127 6bbd
00000140: f78f b13d d698 4f3e b2ac 78be 5ca0 27bb
00000150: b8a6 7d3d f74c 0b3e 0b0e 6e3d 204f 323e
00000160: 6ab4 41be 286e 083e 8822 1b3e 2e63 323e
00000170: b9ec 5ebd e7ab 333e 8915 773e 9c48 13be
00000180: 8e50 85be f986 63be 20c9 cdbb ce8f 093e
00000190: 3b7e 573c 2e76 7dbe 3f8c 6cbc effc d03c
000001a0: 75f3 37be a178 a9bd 71c5 24be 739a dabd
000001b0: 618d 093d 2d4e acbe 6af1 43bb 3073 843d
000001c0: 2e46 a1be 56c6 c53d 098e a23d 56fb 213e
000001d0: 3ab9 483a 3bd5 81be 69a9 b8bc e55f c53d
000001e0: a4ac ee3d 9eb0 053e b9f3 2bbe 0661 9fbd
000001f0: 6755 dd3c fb9f 1b3d f0a6 d4bd df30 e03c
0.18055524 -0.020778438 -0.078232795 0.08035373 0.16896625 0.117136136 0.23077664 -0.21121876
-0.0021381052 0.04545016 -0.11059538 0.006806192 -0.19521461 -0.23532672 0.018045213 0.1461444
0.018635541 -0.04706124 0.20694417 0.065434635 0.062190264 0.065998286 0.09181553 0.10662528
-0.082097866 -0.10062295 0.162396 -0.13065758 -0.12704915 0.0025288872 -0.01494816 0.1545179
0.2641266 0.16678643 0.026097862 8.440786e-05 -0.08672511 -0.011162437 0.037885386 0.09795224
-0.24417536 0.090370886 -0.23079035 0.058049385 0.08191827 -0.1455354 0.09155826 0.22490272
0.024781048 -0.09393858 0.07802541 0.011295987 0.06834464 0.08518386 0.003848412 0.24922995
0.11629781 0.11861855 0.24763228 -0.22301978 -0.098828614 -0.20891324 -0.04626999 -0.30472392
0.036452536 0.09529442 0.022300523 -0.2764006 -0.121348016 -0.0032918367 -0.18957679 -0.21356493
0.060105946 0.28136563 -0.19757655 -0.032606486 -0.023011928 0.035834435 -0.17717028 -0.05741066
0.08670037 0.20273146 -0.24284628 -0.002557776 0.061926574 0.13603579 0.05811886 0.17412996
-0.18916479 0.13323271 0.15149891 0.17420647 -0.054424975 0.17546044 0.24129309 -0.14383167
-0.2603802 -0.22219457 -0.0062800795 0.13433763 0.013152654 -0.24752113 -0.014437734 0.025511233
-0.17963965 -0.08274961 -0.16090943 -0.1067399 0.033582095 -0.33653393 -0.0029898533 0.06467283
-0.31498855 0.0965697 0.07937247 0.15818533 0.00076569954 -0.25357994 -0.022541719 0.09637431
0.11654022 0.13055655 -0.16792192 -0.077821776 0.027018262 0.037994366 -0.10383403 0.027367054

fc3.weight f4 [64, 128]
00000000: ea0d 1e3e a08d 17bd 50da 01be f8ce 5c3d
00000010: 0d33 293c bff8 af3d 2792 7dbd 11df 5a3e
00000020: 8a6c 863e 1ca7 d13d 575a babd b6e0 5abe
00000030: a8c4 243e 7447 043c eae2 b9bd 9243 6a3e
00000040: 3826 3ebd 8c2f 713e 644e 903d 01b3 d23d
00000050: d0be aa3d e233 973d 4ad3 b3bd 19c1 0dbd
00000060: 42d1 46be cd83 cdbd cb71 1a3e 92fd 513e
00000070: 3aa4 8c3c 9e3a b5bd 8ca3 dbbd 6d88 3c3d
00000080: 81d2 c4bd d60b af3d faeb 773e 5d08 fc3d
00000090: 2256 2f3e f89e 743e 5ca5 643e 8b55 423e
000000a0: b9e4 bfbd 1c32 91bc e389 06be 3a2c af3d
000000b0: 3ed9 31bd 6e25 e6bd 0fcd 3a3e 9367 57bd
000000c0: f7d1 e9bd 837c 6f3c 6259 9b3e 6436 0bbe
000000d0: 8432 a5bd 3101 973d a513 d1bc 1f9f 323d
000000e0: 585b b7bc 967c 87bd 0b82 033d 302f e9bd
000000f0: d700 52bd 7b1f 9abe 2f2d 8b3d a7eb b9bc
00000100: bb0c 2bbe 3ed1 03bc 05a7 9b3d 1f5b 673e
00000110: 4637 20be 0beb c03c c404 503e a07f 713d
00000120: d6fa 903d 6705 043e 0629 2a3e d3f3 053e
00000130: 68e8 743d ea9f 073e 487b 823e b33f fcbc
00000140: 4b1c a03b 7960 d0bc 27e3 673d abb7 083e
00000150: f1ae d13d f618 073e 7b45 fa3c 44ac 473e
00000160: e215 b63d d973 e9bd e5af a2ba 7fd8 a7bd
00000170: 5889 223e ca42 aa3c 2fdf 3abe 5d1c 2bbe
00000180: bb5c 613e c4ed 08be a1d4 dbbd 93c0 1d3e
00000190: 82d4 613e cb45 b23d 8e1f ba3d 5414 98bd
000001a0: 5a0a 5a3d 1fef 39be fc3f a03d a247 61be
000001b0: e9ec 8d3d 8cc8 333e 6b8c c63c db8b 3d3e
000001c0: fd06 803e 283a 4bbe 6eac 893d 19f8 253e
000001d0: 7a49 4b3d f491 d2bc 1a87 bbbd a870 89bd
000001e0: 5a2e fcbc dd9c 083c bdb7 ccbd 0590 0b3e
000001f0: 55d4 823d 061d 19bd af7b c7bd 392e 893d
00000200: c756 9a3d 188a 3f3d 7637 80be 4122 f4bc
00000210: c2a1 c0bc 73f4 043d 6288 213d 9227 5f3e
00000220: 74a2 633e 3ed6 e53d 408a 82be 1f20 26be
00000230: 2e95 f13d 8f11 d1bd 4035 06be 35f0 903b
00000240: 32a8 6bbd 38eb 2a3e 346b fbbd e992 8a3b
00000250: 601a e0bd 1ba5 cd3d d5b6 b13c 24e1 c9bd
00000260: a35f b1bd a907 08be 8ab2 ab3b 0743 833e
00000270: 8f1e 2e3e 85dd 47be 49a7 6fbe 2304 b43c
00000280: e03d 54be c6fc 60bb 07a7 383e 351d 3a3d
00000290: 135b b53d e6aa 353e ad0d 8d3e 687e 973d
000002a0: 85eb d7bd ab80 17be 1c48 f3bd c375 043e
000002b0: d8e2 92bd b806 d23c 11c6 ec3d bfa1 3e3b
000002c0: b331 e93c 87b6 1bbe 6b02 8d3e 71fa d5bd
000002d0: 3c99 223d 1552 1b3e 0ab5 13be 8210 abbc
000002e0: 1abb 23be af64 4fbe e269 e9bd 9b92 263d
000002f0: 2c7a 17bc f6f1 20be 1d00 2c3d 51b5 3abd
00000300: e0c3 f1bd d3aa 0dbd 9913 8d3e abf5 343e
00000310: 5e4e 7ebe 3f02 eb3d 0f23 d33d 7689 4b3d
00000320: 2660 933d ed4d d3bb d701 363e a89e 05bc
00000330: e77a 5b3e f266 033e 511b 2f3e b95a d9bd
00000340: 279a 3dbe c309 28be f98d 0dbd 34ac a23e
00000350: b54f 8dbd db12 573d 12cd aa3c 2567 523e
00000360: 3989 983d 9d0f 21be a638 b5bd ca22 4c3d
00000370: 7a80 613e e4f1 98bd be27 8cbe 0ac5 35be
00000380: 4290 5f3e 5ded 303c d9aa 2bbe 9bf7 aa3d
00000390: 721d 8d3d 7bdb 773e cf2b 8b3d 8b03 62bd
000003a0: 96ad 8d3c 1a11 59be 3286 543e d54c 2dbe
000003b0: 244f 3c3d 15ac 073e 3832 9dbd 3844 6b3e
000003c0: 60d3 663e d31f 88bd 9acd 32bd 284d 2e3e
000003d0: 71b3 043d 7660 30be 1a3d 46bc 2214 29bc
000003e0: a5d6 47bd d0de 62bd f1fd 323d fc5e 1f3e
000003f0: d34b 24bc ad55 8ebb baa4 f6bd e920 acbc
0.15434995 -0.0370003 -0.12680936 0.05390832 0.010327113 0.085923664 -0.06190696 0.21374156
0.26254684 0.10236952 -0.09099262 -0.21374783 0.16090643 0.008073676 -0.090764835 0.22877339
-0.046423167 0.23553294 0.07046202 0.102880485 0.08337176 0.07382943 -0.087805346 -0.03460798
-0.19415763 -0.10034905 0.15082471 0.20506886 0.017168153 -0.08849071 -0.107245535 0.046028543
-0.09610463 0.085471794 0.24211112 0.12306283 0.17122701 0.23888767 0.22328705 0.18977945
-0.09369797 -0.01772409 -0.13138537 0.085533574 -0.04342007 -0.11237608 0.18242286 -0.05258901
-0.11417001 0.014617088 0.3034163 -0.13594967 -0.08066276 0.07373274 -0.025522063 0.04360878
-0.022382423 -0.0661556 0.03210644 -0.113859534 -0.051270332 -0.30102143 0.067957275 -0.022695376
-0.16704075 -0.008045493 0.07600216 0.22593354 -0.15646085 0.023549577 0.20314318 0.058959603
0.07079093 0.12892686 0.16617212 0.13081293 0.059791952 0.13244596 0.2548468 -0.030792093
0.0048861853 -0.025436627 0.056613114 0.13351314 0.102384456 0.13193116 0.030550709 0.19499308
0.088908926 -0.11399049 -0.001241204 -0.0819559 0.15872705 0.0207838 -0.182492 -0.16710038
0.2200803 -0.1337195 -0.10733915 0.15405492 0.22053722 0.08704718 0.0908805 -0.07425752
0.05323253 -0.18157624 0.07824704 -0.21999982 0.06929953 0.17556971 0.024236878 0.18510382
0.25005332 -0.19846404 0.067223415 0.16207923 0.04963062 -0.025704361 -0.09156628 -0.067109406
-0.03078382 0.00833818 -0.09995983 0.13629158 0.06388155 -0.037381195 -0.09740388 0.066982694
0.07536083 0.046762556 -0.25042313 -0.02980149 -0.023514632 0.032459687 0.039436705 0.21792439
0.2222994 0.11222504 -0.254961 -0.1622319 0.11796032 -0.10208427 -0.13106251 0.004423166
-0.05753345 0.16691291 -0.12276307 0.004228939 -0.10942531 0.10041257 0.021693626 -0.09857395
-0.086608194 -0.13284172 0.0052397894 0.25637075 0.17003845 -0.19518097 -0.23403658 0.021974629
-0.20726728 -0.0034330352 0.18032466 0.04543801 0.08855262 0.17740974 0.27549496 0.07397157
-0.10542969 -0.14795177 -0.11878988 0.12935548 -0.07172173 0.02563797 0.11561216 0.0029088107
0.028466081 -0.15206347 0.27540907 -0.104481585 0.039696917 0.1516803 -0.1442453 -0.020881895
-0.15989342 -0.20253251 -0.11397149 0.040667158 -0.009245437 -0.15717301 0.041992296 -0.045583073
-0.11804938 -0.03458674 0.27554014 0.1767184 -0.24834582 0.11475038 0.10309421 0.04969164
0.07196073 -0.0064484985 0.1777414 -0.008155502 0.21433602 0.1283224 0.17100264 -0.10613007
-0.18515836 -0.16409974 -0.034559224 0.31772006 -0.068999685 0.052508216 0.020849738 0.20547159
0.07448048 -0.15728612 -0.088486955 0.049837865 0.22021666 -0.07468012 -0.2737407 -0.17750946
0.21832374 0.010798779 -0.16764392 0.08348008 0.06890382 0.24204819 0.06795465 -0.05517916
0.017294686 -0.2119793 0.20754316 -0.1692384 0.045973912 0.13249238 -0.07675594 0.22975242
0.2254157 -0.06646695 -0.04365311 0.1702162 0.03239769 -0.17224297 -0.012099529 -0.010319741
-0.048788685 -0.05538827 0.04369921 0.15563577 -0.0100278435 -0.0043437094 -0.12043138 -0.021011787

fc3.bias f4 [64]
00000000: 5467 ef3d eb5d 10bd 65ce 28be 86ce 873d
00000010: bb7f 1ebd ef63 d53d 87fa 0a3e de24 0a3e
00000020: e57e 3dbe 01e4 d53d b75f 4f3d ec70 9ebc
00000030: d6d2 c33d 2353 3e3e de18 06be f120 c73d
00000040: 93df 25bd e92b 9f3c dc63 44be 6238 b33d
00000050: 2800 f4bc ba97 0a3e 5615 e1bd 4514 cdbd
00000060: 2554 5bbe 9057 d9bd 7c42 8c3e 82cd 643e
00000070: 4bb5 843d cd3c 7fbe ab8f e63d 5f61 ad3d
00000080: 1c03 1dbe 6108 843e 0883 a13d f42b 0bbd
00000090: df9a 403e 12e4 003d 8044 95bd 0726 a93d
000000a0: a965 5f3e 4750 85bd c51e f2bd f682 febd
000000b0: f62a 213e c0be 86bd 6c6f c13d 944a 173e
000000c0: b096 673c 0bb8 833e ed74 a7bd 40c6 9bbd
000000d0: 568b 3dbe da99 103e a53f 093d 0c68 e03d
000000e0: 2467 133d 5958 3c3d 3333 7fbe 12db 083e
000000f0: ad4c 253d 35c9 0b3e 791f 96bd ea81 d2bc
0.1168963 -0.035245817 -0.16484983 0.06631188 -0.038696032 0.104194514 0.13572131 0.13490626
-0.18505438 0.10443879 0.05062839 -0.019340955 0.09561698 0.18586402 -0.13095424 0.0972308
-0.04049642 0.019430118 -0.19178718 0.087509885 -0.02978523 0.13534442 -0.10990398 -0.10013632
-0.21418817 -0.10612404 0.27394474 0.2234402 0.064798914 -0.24925537 0.11257871 0.08465838
-0.15333217 0.25787643 0.0788632 -0.033977464 0.18809079 0.031467505 -0.07288456 0.08259206
0.21816124 -0.06509452 -0.11822275 -0.124273226 0.15739045 -0.065793514 0.0944508 0.14774543
0.014135048 0.2572635 -0.08176599 -0.076061726 -0.18510184 0.1412119 0.03350796 0.10957345
0.035987034 0.045982692 -0.24921875 0.13364819 0.040356327 0.13650973 -0.07330222 -0.025696713

fc4.weight f4 [14, 64]
00000000: 046b 663b 45b2 2abd 4697 c43d c8fb 11be
00000010: 5e18 253e 88f0 d9bd 9b77 5fbc 61fb 7f3d
00000020: fa00 9dbd deea 603e eb4b e63d c560 7cbd
00000030: 8387 473e cad0 1f3e f48e afbe 3aa0 a3bc
00000040: d455 0fbd 441f a73e 1722 93bd 2243 913e
00000050: e5bd 71bd cfa1 4a3e ed2e 2bbe 29e6 ca3d
00000060: 9b06 45be c44f 1cbe 417e 573e e3ed 77bd
00000070: 7ca3 6c3e a85d bfbd 5f9d a53e 114c 1cbe
00000080: 2a3f 81be a210 3a3e 910e d6bc 65ca 15be
00000090: e54b 0c3e 8b44 18be 31cb 47be 9f87 bcbd
000000a0: 4b24 633e c298 c13d 0465 f9bd ca70 ff3d
000000b0: dede ec3d 107b 46be 51ad 063d f95f 15be
000000c0: 24b7 77be a163 263e fe37 95bd 0468 a73c
000000d0: 1bc0 babd 3b0e 223e 142f 65bd a671 f5bd
000000e0: 4cb3 08be 9f33 913d 6e29 37be 7df1 7f3e
000000f0: 29f2 a9bc 5760 df3d 5ab2 11bd ca8d 92be
00000100: 1232 9d3d f643 8ebd 2cfe 673d 6214 d6bb
00000110: 3340 553e 966d 0a3c 610e 463d 9908 8dbd
00000120: d09f 9b39 aead 07bc 16ea ae3d 5be0 873c
00000130: 10b9 403d a633 823e 4192 1fbe 877f 963c
00000140: 66eb 163e 588c d63d 9570 77bd de4c 5d3e
00000150: 6ba9 20be 2daf 5f3e 0f12 1dbd fe47 e13c
00000160: 5ae4 533c 36de 64be 0091 9f3e f402 14bc
00000170: 6321 b63d 0dcf 76bd 86f1 363e 4a1c 13bd
00000180: c0a6 1fbe f865 213e eb42 5ebd 86fa 3abe
00000190: 6a56 be3d 5d9f 57be 8989 94bd b306 0c3d
000001a0: 22c3 5b3d bde5 103e 1232 c1bc ba9b e73d
000001b0: a88e 5a39 f443 a9bd 327a ebbd 697f 60bd
000001c0: 4192 e7bd 6c5c 553e afa2 5dbe 2e94 57bd
000001d0: d870 623d 41bf 183e fd56 143e 66d1 fa3d
000001e0: c009 36be e0a0 b5bd dbfc b83c 4ae4 6c3e
000001f0: 02b1 163d 4e84 9b3d f57f 98bc d960 39be
00000200: a23b e03d 41c3 b5bc fac1 323e d1b0 963c
00000210: 1413 693e 6b5c 01be 7fac 803d d767 89bd
00000220: ae73 b1bd b90f 763b c0ab 123e 5aae d7bc
00000230: 59c6 a63d 466d 663e 94c3 6fbe 2a5a 123d
00000240: 1e87 07bd 9476 373e 3b0a 0ebe 10d0 1e3e
00000250: 6bf2 dbbc 0d0d 493e af33 9abd 12b0 dc3d
00000260: 08f0 87be 3161 d2bd 3970 6b3e 7d99 143e
00000270: 4e30 c03d ba3e 80bd c57c 243e 8d16 c8bd
00000280: 6336 6fbe d729 1a3e 59ba 23be 24c5 0ebe
00000290: d688 883d 1711 adbe d132 52be 7719 00be
000002a0: 163e 953e 1822 843e 1f11 18bd b319 8a3d
000002b0: 1679 363c 59b6 50bd e877 c33c bac8 f2bc
000002c0: af44 6dbe d444 973e 0c32 35be 11fb ed3c
000002d0: 1599 3ebd d928 8dbc a623 88bd 6b19 a23d
000002e0: 6ea5 44be 5ea1 3f3e b6e7 27be 4b4c 253e
000002f0: 2eda f43d aaca b9bc 829f a5bc 0f2a 06be
00000300: aa5a 49bd a958 d9bd febe da3d 7b43 69bd
00000310: 751a 4d3e 0f2e 50bd cead 403d 887f 09be
00000320: 23e0 4dbd e8b3 0bbc b967 7a3e 7df7 a3bd
00000330: 0c15 9bbd 5b2f 393e 730a 0b3d 9bec 97bd
00000340: 5490 ba3d b238 663e 66dc 58bd 201b ed3d
00000350: 8e4f 4bbe d216 423e c8fe 31be 0d89 d93d
00000360: 6332 6bbd 4f9f 16bd 6a4a 983e 3566 1a3e
00000370: 7539 953d fe5c f13d b21b 7e3e 41ed fbbd
00000380: 6cfc e1bd b120 193e 2af1 3dbe 8dcb edbc
00000390: 182e 1a3c d1bb a0bb ada8 c2ba d94f 4bbd
000003a0: faf2 393e 2a64 ac3d 4edf 47bd 31b5 ed3d
000003b0: a0d1 0dbe c8f0 29be 41c1 37bd 2f37 07bd
000003c0: b6c6 98bd 918c 493e 862b c53c 9411 b5bd
000003d0: 0831 8ebd 9110 0b3e 6d8d 893d 3c47 543c
000003e0: 07c2 61be 9651 073e ab74 43bd 0121 823e
000003f0: 2478 32be 7769 493b 748d 00bd 0da2 563c
0.0035159 -0.041673917 0.095991656 -0.14256203 0.16122577 -0.10641581 -0.013639356 0.062495593
-0.07666202 0.21964595 0.11244949 -0.061615724 0.19485287 0.1560699 -0.34288752 -0.019973863
-0.03499396 0.3264104 -0.071842365 0.2837153 -0.05901899 0.19788288 -0.1671712 0.09907181
-0.19240801 -0.15264803 0.21044256 -0.0605296 0.2310924 -0.093440354 0.32346627 -0.15263392
-0.25243503 0.18170407 -0.026129993 -0.14627989 0.13700826 -0.14869897 -0.19511105 -0.09205555
0.22181813 0.09452964 -0.1217747 0.12472685 0.11565946 -0.19382882 0.03288013 -0.14587392
-0.24190956 0.16248943 -0.0728607 0.02043534 -0.091186725 0.15825741 -0.0559531 -0.11984567
-0.13349646 0.07089924 -0.17886898 0.24994464 -0.020745354 0.10907047 -0.03557048 -0.286238
0.07675566 -0.06946556 0.05663888 -0.0065331915 0.20825271 0.008448979 0.048353557 -0.068864055
0.00029682973 -0.008281155 0.08540742 0.016586473 0.04705149 0.2543003 -0.15583135 0.018371357
0.14738235 0.10475987 -0.0604101 0.21611354 -0.15689628 0.21844168 -0.0383473 0.027500149
0.012932861 -0.22350392 0.31165314 -0.009033907 0.08893087 -0.060256053 0.17865571 -0.03591565
-0.15590954 0.15761554 -0.054263037 -0.1825963 0.09293826 -0.21056886 -0.07252795 0.034186076
0.05365289 0.14150138 -0.023583446 0.11308999 0.00020843244 -0.08264914 -0.11497916 -0.054809008
-0.113071926 0.20836037 -0.2164409 -0.05263155 0.055283397 0.14916708 0.14486308 0.12246971
-0.17777157 -0.08868575 0.022581508 0.2313396 0.0367899 0.075935945 -0.018615702 -0.1810335
0.10948874 -0.02218783 0.17456809 0.01839486 0.22761184 -0.12632911 0.06282901 -0.06709259
-0.08664642 0.0037545993 0.1432333 -0.026328254 0.081433006 0.22502622 -0.23414451 0.03573052
-0.033087842 0.17916328 -0.1387109 0.15509057 -0.026848992 0.19633885 -0.07529389 0.1077577
-0.26550317 -0.10272444 0.22992028 0.14511676 0.093842134 -0.06261964 0.16063221 -0.09769926
-0.2336059 0.15055023 -0.15989055 -0.1394239 0.066667244 -0.338021 -0.20527197 -0.12509714
0.2914893 0.2580726 -0.037125703 0.06743183 0.011137268 -0.05095515 0.023860887 -0.02963673
-0.23170732 0.295447 -0.17694873 0.029050382 -0.04653271 -0.017231392 -0.066474244 0.07915004
-0.19203731 0.187139 -0.16396984 0.16142385 0.11955677 -0.022679646 -0.02021766 -0.13101982
-0.04915873 -0.10612614 0.1068096 -0.05694912 0.20029624 -0.050825175 0.047040753 -0.13427556
-0.05026258 -0.00852678 0.2445363 -0.08006189 -0.07572374 0.18084471 0.033945512 -0.07418176
0.0910956 0.22482565 -0.052944563 0.11577439 -0.19854566 0.18954018 -0.17382348 0.106218435
-0.0574211 -0.036773022 0.29744273 0.15078051 0.0728635 0.11785315 0.24815252 -0.12301112
-0.11034474 0.14953877 -0.18549028 -0.029027725 0.009410404 -0.004905202 -0.0014851295 -0.049636696
0.18159094 0.08417542 -0.048796944 0.11606825 -0.13849497 -0.16595757 -0.044862036 -0.03301161
-0.07459776 0.19682528 0.024068605 -0.088412434 -0.06942946 0.13580538 0.06716428 0.012956437
-0.22046672 0.13214716 -0.047718685 0.25415805 -0.17428643 0.0030733028 -0.0313849 0.013100159

fc4.bias f4 [14]
00000000: b02f c13e cf13 2d3e 3dee f93d 1707 7b3e
00000010: 2114 263e 2c0f 783e fc02 bd3e 696f b03e
00000020: 1e75 b43d c495 853e d7c2 f03d 6deb b33d
00000030: 2742 393e 4464 ea3d
0.37731695 0.16902088 0.122036435 0.24514423 0.16218616 0.24224538 0.3691634 0.3446
0.08811401 0.26090825 0.11755913 0.08785138 0.18091641 0.114449054
