saved_models/q_network_with_montecarlo.pth (torch, 25240 bytes, 8 tensors)

fc1.weight f4 [32, 24]
000000 24 fb 23 bd c1 9c b6 bd cb 08 9a 3d b2 e4 a0 be
       -0.04003443 -0.08916617 0.075212084 -0.3142448
000010 78 8b 1b be 4a 8c 2e 3e 4d 15 21 be 80 f9 ef 3c
       -0.15189922 0.17045704 -0.15730782 0.029293776
000020 15 07 44 be 5f 32 a1 3c 53 67 0c bd 24 ce 1b 3e
       -0.19143327 0.01967734 -0.034278225 0.15215355
000030 c2 aa 0b be 66 56 61 3e b7 90 91 3d 40 ef 41 3d
       -0.13639358 0.22005615 0.0710768 0.047347307
000040 ec 67 22 be 75 19 0f bd 66 4b 12 3e 1f e6 13 be
       -0.15859956 -0.034936387 0.14286575 -0.14443253
000050 22 7e 6c 3e 0d e2 10 be 36 84 66 3d 48 75 5a bd
       0.23094991 -0.14148732 0.05627843 -0.053334504
000060 75 15 e7 bd 97 03 90 3d 64 56 35 bc b5 55 93 be
       -0.112833895 0.07031935 -0.01106796 -0.28776327
000070 28 79 4a be be 65 7c bd 67 aa d6 bd 15 b6 2e be
       -0.1977278 -0.061620466 -0.104817204 -0.17061646
000080 e9 23 13 3e ea 7e cc be a8 65 74 bd b1 15 8c 3e
       0.14369167 -0.39940578 -0.05966726 0.273603
000090 29 d7 47 3e c0 e7 0d 3d af 99 e7 bd 0f 0f e1 bd
       0.19515671 0.034644842 -0.1130861 -0.109892
0000a0 12 1f 77 3e 66 3a 44 3d 92 37 2c be 42 2a 50 3e
       0.24132946 0.047907256 -0.16818073 0.2032862
0000b0 51 34 48 3e 53 fd 2c be e4 e5 1d bd ff ca 79 be
       0.19551207 -0.1689351 -0.03854932 -0.24393843
0000c0 03 2a 99 3e 0f 07 7a bd 8f 6b aa 3d 22 9e f9 bd
       0.29914865 -0.061041888 0.083212964 -0.121883646
0000d0 68 a6 d3 bd 11 d8 0d 3e c4 f9 28 3d 89 de 0a 3c
       -0.10334474 0.13851954 0.04125382 0.008475908
0000e0 3c 71 13 bd 92 b2 c9 3d 88 47 fe 3d 9d 7c c4 3d
       -0.03599666 0.09848513 0.12415987 0.095940806
0000f0 1a a6 22 3e d9 54 08 be c4 42 b3 bd c7 5c 08 3e
       0.15883675 -0.13313617 -0.08752969 0.13316642
000100 f6 c0 f0 3d 51 22 19 3e 42 e5 02 3e 85 6e e1 3d
       0.117555544 0.14954497 0.12782767 0.11007408
000110 7d 68 75 bd 4e f5 49 3d 21 d8 aa 3c 00 58 db 3d
       -0.0599141 0.049306206 0.020855011 0.10710144
000120 d0 0e da 3e be 19 98 bd 8b 69 23 3d f1 0f ac bc
       0.42589426 -0.07426785 0.039895575 -0.021003695
000130 40 75 8b bd cd 02 05 3e dd de d7 3e 3a f3 f0 bc
       -0.06809473 0.1298935 0.4216222 -0.029412854
000140 de 52 14 3d 4f e3 83 bd de 11 2a 3e 85 ea c0 3d
       0.03621184 -0.0643984 0.16608378 0.09419731
000150 aa b7 97 3b 70 3a 3b 3d da a8 b9 bd 9b d9 03 bd
       0.0046300488 0.045710027 -0.09065409 -0.032189947
000160 e7 a8 da 3d 3e 4c 8c bd 24 08 a4 bc 44 d3 a1 bd
       0.10676747 -0.068504795 -0.020023413 -0.07901624
000170 c5 4f 66 be 7f 5b 17 3e 8b 28 7c 3d a7 6e 33 3e
       -0.22491367 0.14780997 0.061562102 0.1752268
000180 fc 3d 96 3e d6 49 26 be dc c1 ee 3d 4b a0 78 bc
       0.29344165 -0.16239104 0.116580695 -0.015174936
000190 ab 8e 19 3e 20 9d ed 3d ba e4 11 bc cd fe a8 3e
       0.1499583 0.11602235 -0.00890463 0.33006898
0001a0 b4 52 fd bc d8 de c9 3d c9 dc af 3d 7d 61 2f 3e
       -0.030923225 0.09856957 0.08587033 0.17127033
0001b0 ce b8 b5 3e 4a b6 99 3e 7d c3 76 3e 98 9b 1f 3e
       0.35492557 0.30021888 0.2409801 0.15586698
0001c0 1b 17 55 3e 76 74 87 3e ad d6 ab 3b c4 a7 ab bd
       0.20809595 0.2645604 0.005244097 -0.08381608
0001d0 86 3d e4 3b 25 2f 8e 3e 6b d0 f8 3c ce 05 9b 3c
       0.006965342 0.27770343 0.030372819 0.018923666
0001e0 eb 56 bf be 76 c9 43 3a 73 84 54 be 1c 3e c4 bd
       -0.37371 0.00074686797 -0.2075365 -0.09582159
0001f0 56 8d ea bd 04 87 9c 3d 94 c7 f4 3c 6d 99 13 be
       -0.11452739 0.0764294 0.029880323 -0.14413996
000200 78 eb b2 3c 30 4a b1 bc 5e 47 e0 3d ed d2 3b be
       0.021840796 -0.02164182 0.10951112 -0.1834218
000210 f3 bd 2f be e6 81 06 be 5c d2 8d 3c 71 97 24 3d
       -0.17162304 -0.1313549 0.017312221 0.04018349
000220 3f f9 af bd be 7f 5f 3e fb 6e f0 bc f1 29 b4 3d
       -0.08592462 0.21826074 -0.029349795 0.08797062
000230 35 76 bb 3e 16 8e 11 be c6 72 25 3e 65 03 e8 bd
       0.36613622 -0.14214358 0.16157064 -0.113287725
000240 bb ff f1 3c e0 af b8 3d bc 03 01 3e 2f f0 20 be
       0.029540887 0.090179205 0.12599081 -0.15716623
000250 88 ff cf bd 2e 7c 4a bd f5 e2 ee bd 47 7e 48 be
       -0.101561606 -0.049434833 -0.11664382 -0.19579421
000260 f0 58 28 3c ba 00 b2 bc 05 59 6e 3d 29 2b 29 be
       0.010275111 -0.021728862 0.058190364 -0.1652037
000270 56 06 b4 bc ef 91 aa bd f9 34 08 3d b0 28 15 3e
       -0.021975677 -0.08328616 0.033253644 0.14566302
000280 69 96 48 3e 00 8f 47 be 2a fc e6 bc cf 73 4b 3c
       0.19588627 -0.19488144 -0.028196413 0.012417748
000290 a0 a7 04 be 01 e1 2b ba 34 a7 37 be fa 8b 80 3d
       -0.12954569 -0.00065566605 -0.17934877 0.062766984
0002a0 02 3a 6c 3e 81 cc 2f be ae 96 b4 3d 96 a3 ae 3e
       0.23069003 -0.17167856 0.08817802 0.3410918
0002b0 e2 97 e5 3d 6a 3a 4a be 14 b8 94 3d d2 2d 15 3d
       0.1121061 -0.19748846 0.072616726 0.03642065
0002c0 96 1f c5 bd 39 ec 09 3e b1 1d 27 3d ef 22 82 3b
       -0.09625165 0.13469018 0.0407998 0.0039714496
0002d0 e2 e1 f2 3d a6 a9 04 be 13 b1 9a bc ae 6d 4e 3e
       0.1185949 -0.1295534 -0.018883264 0.20159027
0002e0 9c 77 55 3d 7d 1f 2a 3e 8f 2d 4a bd 5c c5 0e be
       0.05211602 0.16613574 -0.049359854 -0.13942474
0002f0 68 21 e3 3d 16 1e 00 be c2 17 a3 bd 21 2a fd bd
       0.11090356 -0.12511477 -0.07963516 -0.12361551
000300 f7 e5 4a bd 14 4d cf 3d 8a c4 58 be b4 fa 6b be
       -0.049535718 0.10122123 -0.21168724 -0.23044854
000310 b6 2f 68 be 8b 99 11 be 68 9b 24 be 13 59 73 3c
       -0.2267445 -0.14218728 -0.16074908 0.01485278
000320 3b 9a cd 3c 36 ae 35 be b1 48 29 3d 64 b8 3b be
       0.025097957 -0.17742237 0.04132909 -0.18332058
000330 ea d0 fc 3d 9c 92 d2 bd 77 ae d9 3d 6e 44 5c be
       0.12344535 -0.1028187 0.1062898 -0.21510479
000340 35 fa 2c 3e a4 2e 7e bd cd 20 f6 3d 0d 73 2a be
       0.16892321 -0.0620562 0.12017975 -0.16645451
000350 19 20 46 3e fc 62 f8 ba 3a 89 cd 3d a8 fa 9b be
       0.19348182 -0.0018950398 0.100359395 -0.30464673
000360 b3 d0 a3 3d 17 4f 03 3d e5 8c 2b 3e 66 94 a4 3c
       0.079987906 0.032057848 0.16752966 0.020090293
000370 3f 04 f3 bd 7f a8 2e 3e 3e e1 89 3e 60 e6 e5 3d
       -0.11866044 0.17056464 0.2692966 0.11225581
000380 f7 0d 81 3d 99 1e 91 3d 49 31 c0 bb 65 ca b3 bd
       0.06301492 0.07085914 -0.0058652502 -0.08778838
000390 25 0f 18 bd 2d 6d 77 3e 12 c5 bd bb 27 66 3b 3d
       -0.037123818 0.24162741 -0.005791315 0.045751717
0003a0 6f 2d aa 3b 7f 30 54 3d 59 e2 b6 3c 00 49 cc bc
       0.0051934044 0.051804062 0.022324728 -0.024937153
0003b0 e2 26 c3 3e d5 fb 43 be 09 1a a5 3e e6 1c f0 bc
       0.38115603 -0.19139035 0.32246426 -0.029310655
0003c0 30 02 fe 3e 34 7e 30 be 57 a6 3b 3e 43 8a 81 3e
       0.49611044 -0.17235643 0.18325172 0.25300798
0003d0 3c 93 cb 3d a2 65 16 be f5 4a 65 3e 31 2c 8d 3d
       0.09940192 -0.14687207 0.22391875 0.068931945
0003e0 94 d6 2c 3e d6 a0 c8 3d c0 73 68 bd a5 e8 56 3b
       0.1687873 0.09796302 -0.056751013 0.0032792476
0003f0 da 3c bf 3d fa d9 67 be cf cd 45 be 36 53 87 bd
       0.093377784 -0.22641745 -0.19316791 -0.06607668

fc1.bias f4 [32]
000000 50 f5 cb be 73 5f f6 bd 5b d6 f8 3d 4f 90 89 3e
       -0.39835596 -0.12029924 0.1215026 0.2686791
000010 4e a4 da bc 74 9a 07 bd dc c4 42 be 04 ab cc 3d
       -0.026689675 -0.033106282 -0.19020408 0.09993556
000020 2d 9e 8c be d7 9a 25 be 0d 71 15 3e 83 1e 0b be
       -0.2746443 -0.16172348 0.14593907 -0.13585858
000030 22 1e ad 3d dd 6e 16 be 3a 72 43 be ea dd de bd
       0.08453013 -0.14690728 -0.19086543 -0.108821705
000040 7e eb 5b 3c ec 49 28 3e 36 b4 89 3d 0c d7 dc 3d
       0.013422845 0.16434449 0.06723826 0.107832044
000050 b7 74 5f 3b b4 1d 19 3e 9c b9 38 3e 65 d5 27 3e
       0.0034096667 0.14952737 0.18039554 0.16389997
000060 24 27 27 3f 07 5c 68 3e c7 fc 88 3e 1c 6b 83 3e
       0.652941 0.22691356 0.26755354 0.25667655
000070 b2 c2 82 3e 6a e8 ff 3d 7e 25 18 be 9e 04 32 bd
       0.25539166 0.12495501 -0.14858052 -0.043461435

fc2.weight f4 [64, 32]
000000 6d 01 82 bc bd 43 e9 bd d0 c8 f6 b9 c3 71 b7 be
       -0.01586982 -0.11389873 -0.00047070393 -0.3582898
000010 84 ce 77 ba ad c3 52 3e 39 d8 93 3d 16 73 a6 3d
       -0.00094530755 0.20582457 0.072189756 0.0812742
000020 16 76 6d 3e ab 77 ba 3c 7b ee 63 bd 78 39 13 3e
       0.23189577 0.02276214 -0.055647355 0.14377391
000030 07 47 00 3e 1c d8 f1 3d 73 7d 88 3e ee 88 c2 3c
       0.12527095 0.11808798 0.2665821 0.023746934
000040 c3 e0 c4 3d 99 68 56 3c 2e 8e 2c 3c b7 78 ea bd
       0.096131824 0.013086461 0.010531945 -0.11448806
000050 8d 43 1b 3e 0d 5a 06 be 04 41 dd bd 06 a7 bb bc
       0.15162487 -0.13120289 -0.10803416 -0.022906791
000060 dd b8 90 bd 1e e0 11 be b0 ed 4f bd de cc 43 be
       -0.0706651 -0.1424565 -0.050763786 -0.1912112
000070 8c e1 ee bd 8a 46 fa bb fe 95 e5 bd 35 33 b2 3d
       -0.116641134 -0.0076378034 -0.11210249 0.08701173
000080 c7 6e cc 3d 60 01 a9 bb bc 5a 07 be 31 f9 7a be
       0.099820666 -0.0051576346 -0.13218206 -0.24509121
000090 db 07 2e be d4 89 ec 3c 06 7f 33 3e ab 82 e1 3c
       -0.16995184 0.028874315 0.17528924 0.027528128
0000a0 cb 32 41 3e 28 cf c6 3d ab 72 8e be dc 5c ae 3d
       0.18867032 0.09707481 -0.2782186 0.08513805
0000b0 d8 01 05 3c b7 39 fc 3c 11 f3 05 3e 54 20 31 3e
       0.008118115 0.03078924 0.13081004 0.17297488
0000c0 1a d8 0c 3e 9e 9c 54 3c dc 62 cf bc f8 be c0 bd
       0.13754311 0.012976794 -0.025315695 -0.094114244
0000d0 38 15 03 3e 67 2d 16 3d b4 4f 7b 3d ae f5 d6 bc
       0.12801063 0.036664393 0.061355308 -0.026240196
0000e0 c0 13 06 be 38 bf 0c 3e 28 84 2e be ea d2 1c be
       -0.13093472 0.13744819 -0.17042601 -0.15314832
0000f0 a9 33 aa 3d de 01 b2 bd 30 01 5a bd 28 02 fc 3d
       0.08310635 -0.086917624 -0.05322379 0.12305099
000100 88 7f 0a be f4 2c ee 3d 2b 16 ae 3d bd 78 fa bd
       -0.13525212 0.11629668 0.08500322 -0.1223006
000110 25 4f 2f be a2 47 36 bd a1 1e 14 be ce 99 1d be
       -0.17120035 -0.044501908 -0.14464809 -0.15390703
000120 28 e5 c2 bd 06 21 2f 3e 3e 0d 9f bc 3a a7 c2 3b
       -0.09516364 0.17102441 -0.019415494 0.005940345
000130 79 7b 32 bc 37 96 70 3d 6a 5d 18 be 66 d3 53 bd
       -0.010893696 0.058737006 -0.14879385 -0.051715277
000140 1f 1f 07 3e f5 6e 40 bd 43 4b 0f be c8 7a 72 3d
       0.13195466 -0.046980817 -0.13993554 0.059199125
000150 be 53 12 be 50 d8 09 be af 48 1f bd c2 e5 43 bd
       -0.14289758 -0.13461423 -0.038887676 -0.047826536
000160 01 e8 e2 bd 3e a5 20 bc 2e ea 25 be 1b 51 40 bc
       -0.110794075 -0.009805022 -0.16202614 -0.011738087
000170 40 b5 09 bc 4d c6 82 3d b3 36 c2 bd 7e 72 06 be
       -0.00840503 0.06385479 -0.09483089 -0.13129613
000180 a6 ff 05 3e 53 db ce bd 54 20 45 bd 36 e8 ad be
       0.13085803 -0.101004265 -0.048126534 -0.33966225
000190 33 cd 39 be 93 e6 88 3e 99 78 d2 bd f5 85 2c bd
       -0.18144684 0.26738414 -0.102769084 -0.04211994
0001a0 e5 5e 82 3e ff 51 51 3e 33 0b 03 be f8 e4 ef 3d
       0.25463024 0.20441435 -0.12797241 0.11713594
0001b0 26 a1 5c bd 32 6d b4 3d fd 0d ac 3e c6 6c 09 3e
       -0.05386462 0.0880989 0.33604422 0.134204
0001c0 36 b1 f4 3d 14 db 15 3e 65 6f 18 be a3 a2 18 bd
       0.11947863 0.14634353 -0.14886244 -0.037264477
0001d0 dc 96 9c 3e bd 33 f6 bb 3b 35 44 be 98 12 44 bc
       0.30583847 -0.007513492 -0.19160931 -0.011967324
0001e0 d3 a7 9f bd c0 00 00 be 86 e5 13 be 1e 3c b0 bd
       -0.07795682 -0.12500286 -0.14443025 -0.086052164
0001f0 09 da ca 3d af 84 cd bd 41 87 1e be 14 47 64 be
       0.09904868 -0.10035073 -0.15481283 -0.22292739
000200 dc 28 d4 bd 4d f7 f2 3d 66 81 c2 3c 38 b6 8c 3d
       -0.10359356 0.11863575 0.023743343 0.06870693
000210 5a 48 c5 bc fe 33 c6 bd a0 de db 3d 36 06 86 bd
       -0.024082351 -0.096778855 0.10735822 -0.065441534
000220 70 b9 9e 3d 96 75 06 be 6e a9 65 3d 9e 8b ff 3c
       0.07750213 -0.13130793 0.056069784 0.031194504
000230 3c 70 2f be dc 7f 8e bc 9d d0 f5 3b 97 26 00 be
       -0.17132658 -0.017394952 0.0075016753 -0.12514721
000240 82 b9 82 3d 71 1f 04 3e b5 62 23 3e e4 70 10 be
       0.06383039 0.12902619 0.15955622 -0.14105564
000250 8b 18 e0 3c 7a e1 c8 3d 66 4d 34 3e da 00 48 bd
       0.027355453 0.09808631 0.1760765 -0.048828937
000260 8c 82 2a be f1 a6 1c 3e 5c 4d 81 3d f2 57 18 bd
       -0.16651362 0.15298058 0.06313583 -0.037193246
000270 89 ec 27 be 50 05 08 be f9 22 0c bc 73 20 48 bc
       -0.16398825 -0.13283277 -0.00855326 -0.012214768
000280 00 dd 12 3e b8 1a b2 3d ea 51 38 be 13 17 0d 3e
       0.14342117 0.086965024 -0.17999998 0.13778333
000290 32 a2 81 bd 17 68 5b bd 93 68 ca bd c4 3e 33 be
       -0.063297644 -0.053566065 -0.09883227 -0.17504412
0002a0 5d 18 bf bd dc 55 2a be 4f 5f 0f 3e b6 3c a4 bc
       -0.09330819 -0.16634315 0.14001201 -0.02004848
0002b0 00 1c 1c be 55 2c a5 3d 04 e4 c2 bd b2 9b 1c 3e
       -0.15245056 0.08065096 -0.09516147 0.15293768
0002c0 ba 76 0d 3a 84 35 07 3d c4 31 2a 3d cb 2a 1a 3e
       0.0005396415 0.03301002 0.041551366 0.15055387
0002d0 ee 46 32 be f2 9b 34 3d fc 61 1c be 48 37 22 be
       -0.1740987 0.044094034 -0.15271753 -0.158414
0002e0 e8 27 d9 bd 24 83 25 be 93 39 c9 bc b5 c1 8c 3c
       -0.10603315 -0.16163307 -0.024563586 0.01718221
0002f0 2e a2 a4 3d cf 65 19 3e b1 3f cd b9 6f a2 d9 3d
       0.08038746 0.14980243 -0.000391481 0.10626685
000300 98 92 51 3d 99 f8 14 3c 6c 3b e7 3d 5c 8c 9b 3e
       0.051165193 0.009092473 0.11290631 0.30380523
000310 9e 09 fc 3b d2 67 ce 3d 39 f7 fc 3d 92 e0 6e 3e
       0.007691576 0.10078396 0.123518415 0.23327854
000320 c8 99 ef 3c 4b ec 45 3e 74 36 af bd 32 4f e4 3c
       0.029248133 0.1932842 -0.08555308 0.027869795
000330 b6 ab 01 3e 0d 60 a6 3d a6 49 73 bc f0 8d aa bd
       0.12663159 0.08123789 -0.014849102 -0.08327854
000340 bc a1 cd 3d 83 dd 53 3d e5 81 d9 bc 17 64 85 3d
       0.10040614 0.051724922 -0.026551196 0.06513231
000350 11 d0 22 3d 94 e9 09 3e 99 ef 8b 3e 8a 20 af bd
       0.03974921 0.13468009 0.27331236 -0.08551128
000360 c7 48 b8 3d 90 02 87 3d 3b df ae 3c 98 03 32 3e
       0.08998256 0.06592286 0.021346679 0.17384183
000370 bd 5b 62 3e f9 36 36 3e 56 8d b9 bd 18 82 23 3e
       0.22105308 0.17794408 -0.09060161 0.15967596
000380 09 d6 46 be 11 aa 42 bc c7 e6 e2 bd 48 bd e4 3d
       -0.19417585 -0.011881367 -0.110791735 0.11168915
000390 9f e2 0b be ff e1 21 be 39 53 2e 3e a4 e1 4d bd
       -0.13660668 -0.15808867 0.17023934 -0.050264016
0003a0 28 b7 be 3d a6 72 c5 3d 69 06 98 bd 65 f7 ca 3c
       0.09312278 0.09641008 -0.07423098 0.02477617
0003b0 7d 67 d3 bd 66 43 59 be 7f ad b4 bd 9b a6 ba bd
       -0.10322473 -0.21217117 -0.08822154 -0.09113809
0003c0 e9 b8 8f be 84 3f 8b 3d 18 df 67 be 0d 8a 1d be
       -0.28070763 0.06799224 -0.22643697 -0.15384693
0003d0 5d e2 51 bc 92 12 db 3b 53 d8 28 bd 88 7a c5 3d
       -0.012810317 0.0066855634 -0.041221928 0.096425116
0003e0 dd 65 6d bd b8 57 e4 3b 17 d3 bf 3d 1a 9b 72 bd
       -0.057958473 0.0069684647 0.09366434 -0.059229948
0003f0 00 39 8d bd 56 3c d5 3d 6b d9 dc bd c8 66 af bd
       -0.068956375 0.10411899 -0.10783657 -0.08564526

fc2.bias f4 [64]
000000 41 84 1a be fc 46 46 be 7d 02 e5 bc 3a df ad be
       -0.15089513 -0.19363016 -0.027955288 -0.3395937
000010 9e ca 32 3e 62 e0 82 3d 77 25 77 3e 8a ca 71 3e
       0.17460105 0.06390454 0.24135385 0.23612419
000020 d8 7e 5b be 2a a6 a3 be 17 62 42 3e b4 b2 2b 3e
       -0.21435106 -0.3196271 0.18982731 0.16767389
000030 53 86 57 3e 74 eb 89 3c 01 b4 bc bd d6 66 1b bd
       0.21047334 0.016835906 -0.092140205 -0.03793987
000040 b3 22 b8 bc 63 bb e3 bd 5d a9 33 be b2 1e 6b 3b
       -0.022477483 -0.111197256 -0.17545076 0.003587645
000050 7a 5b 47 be e2 4e b8 be 8d 6c dc bd 78 09 90 3e
       -0.1946849 -0.35997683 -0.10762892 0.28132224
000060 91 79 ff bd 27 82 a1 be 86 c4 98 3e 62 7b 89 be
       -0.12474359 -0.3154461 0.29837435 -0.26851946
000070 34 70 9f be e1 7a 4c be ad 70 51 3e 2c a0 1e 3e
       -0.31140292 -0.1996875 0.20453139 0.15490788
000080 9b fa a6 3d fb ca a3 3e aa 47 a2 3d 58 cf 22 3e
       0.08153268 0.319908 0.07923825 0.15899408
000090 7e 5e 22 be 1e a9 92 be 01 ba 08 3e 07 70 99 3e
       -0.15856358 -0.2864465 0.13352205 0.29968283
0000a0 87 55 9f 3e fb 30 ec 3c 76 26 37 bd bf 9b 15 be
       0.3111994 0.02883195 -0.044714414 -0.14610194
0000b0 fd a3 03 be 12 dd 65 3d 62 10 ca 3d b2 b2 28 3e
       -0.12855525 0.056119032 0.09866406 0.16474417
0000c0 a2 2b ae 3d 01 df 0d 3f 66 2c b6 3d 0d 56 85 3c
       0.08504416 0.554184 0.08895187 0.016276384
0000d0 fb d8 52 3e d1 17 80 3e c7 77 92 3d 1d 31 ad 3d
       0.20590584 0.2501817 0.07151752 0.08456633
0000e0 7d 83 b6 be 3c dd ec bb 6d 19 07 3e 31 ed 3f bd
       -0.35647193 -0.0072285216 0.13193293 -0.046857063
0000f0 9a 44 dc bc 53 f7 85 3e d2 dd 24 be d3 58 81 3e
       -0.02688818 0.26165256 -0.16100243 0.2526308

fc3.weight f4 [32, 64]
000000 41 f5 04 3c f1 14 37 3d 80 bd d7 3d df 2b 17 3e
       0.008115114 0.044697706 0.10534191 0.14762829
000010 82 3e ba 3d 3d 70 4d 3d fa 59 2e 3e 6b cc fe bc
       0.09093954 0.050155867 0.17026511 -0.031103333
000020 70 28 23 3e 7c 29 15 3e c4 91 db 3d 52 c3 11 bd
       0.15933394 0.14566606 0.10721162 -0.035586663
000030 fd 6a 21 3e 7e 9e 36 3d 04 43 4c bd 80 67 8d bd
       0.15763469 0.044584744 -0.0498686 -0.06904507
000040 a4 54 ca 3d 15 94 09 3e 78 c4 cd bd d2 5b d3 3d
       0.09879425 0.13435395 -0.10047239 0.10320248
000050 00 d0 70 bd 2c d2 14 3e 5e 9b 77 bd 08 10 a9 bc
       -0.058792114 0.14533299 -0.060450904 -0.020637527
000060 9e 0c e5 3d 10 2e 20 3e 86 10 df 3d 61 05 a6 3d
       0.11184047 0.15642571 0.108918235 0.08106495
000070 16 43 f0 bc a0 1d b5 bd f0 c0 34 3e 40 20 e2 3c
       -0.029328864 -0.08843541 0.17651725 0.027603269
000080 bb fb c1 bd e2 72 b6 bd 2c 81 83 3d 9a ec b2 3c
       -0.09471842 -0.08908631 0.06421122 0.021841336
000090 40 30 01 3d 2b 37 65 3c 40 e6 de bb f2 34 1c bd
       0.031540155 0.013990204 -0.0068023503 -0.03813643
0000a0 88 83 30 3d af 41 25 3e 40 21 64 bc 5c f5 3e bd
       0.043094188 0.16138338 -0.013923943 -0.04662071
0000b0 27 de 8e 3c 98 65 f5 3d 96 73 90 bd 82 04 2d 3d
       0.017439915 0.11982268 -0.07053296 0.042240627
0000c0 2c 74 38 3d 9b 90 76 3d a0 f5 bc 3d b1 5d b8 3c
       0.045032665 0.0601965 0.09226537 0.022505613
0000d0 19 3c b3 3d 4d a2 0b 3e 0c 97 73 3d 00 5c 3f bd
       0.08751697 0.13636132 0.05947022 -0.046718597
0000e0 54 ff 90 3c d0 4d 05 bc 65 ca ec 3c 90 b3 1d bd
       0.017699875 -0.008136228 0.028905103 -0.038501322
0000f0 0a 09 8a 3d 4b ea 07 3d 29 b8 07 3e 26 10 a1 bd
       0.06740005 0.033182424 0.13253845 -0.07864408
000100 82 7b 8f 3c 5c 84 e8 bc 90 73 74 bd e3 53 ba 3c
       0.017514948 -0.028383426 -0.05968052 0.022745078
000110 68 3d d6 3d b4 b9 da 3d 2d 39 19 be fa 21 79 3d
       0.10460931 0.10679951 -0.14963217 0.06082342
000120 bc 06 cc 3d 9c ba 82 3d e8 2e 13 bd 91 03 5d bc
       0.09962222 0.06383249 -0.035933405 -0.01348962
000130 72 31 18 3e 0c f8 47 bd b1 0e d0 3c 89 32 86 bd
       0.14862612 -0.04882054 0.02539763 -0.065526076
000140 40 9c 8c 3d 9e 67 e1 3d 05 1e 22 3d ee 9c a5 3d
       0.0686574 0.110060915 0.03957941 0.080865726
000150 d9 8f 3d bd 80 d6 a7 bd 2b bc 36 bd ca c9 e8 3d
       -0.046279762 -0.081952095 -0.044613045 0.11366613
000160 10 da 85 3d ab 41 c1 bd b7 25 03 3e 15 02 45 bd
       0.06535733 -0.09436353 0.12807356 -0.04809769
000170 18 2b 27 3d a6 28 c6 bd ec 4f 95 bd 66 16 1b 3d
       0.04081258 -0.09675722 -0.072906345 0.037863158
000180 b2 c0 6e 3c ae 13 eb bd 68 b1 b0 bd be b2 e7 bd
       0.014572309 -0.11478363 -0.086275876 -0.11313389
000190 90 95 23 bc 1b 83 8a bc 13 1d 71 bd bc a6 b5 3d
       -0.009984389 -0.01690822 -0.058865618 0.08869693
0001a0 46 8b 73 3d ec c2 91 bd e9 86 9b 3a de c5 31 bd
       0.059458993 -0.071172565 0.0011865768 -0.04340159
0001b0 87 d4 9b 3c a2 a0 a7 ba dc e6 75 bd a6 28 e9 3d
       0.01902224 -0.0012788961 -0.060034618 0.11384706
0001c0 6e d2 96 bd 10 07 95 bd 18 6f c2 bd 1e 7f 9d 3d
       -0.07364355 -0.07276738 -0.09493846 0.07690261
0001d0 f3 36 24 3d ce 68 05 bd eb 62 1c bd 7c 61 71 3d
       0.040091466 -0.032570653 -0.038180273 0.05893086
0001e0 88 93 96 bd 16 cf 98 bd 86 c1 83 bd b8 d6 fb 3d
       -0.07352358 -0.074613735 -0.06433396 0.12296814
0001f0 3a df ae 3c fa f5 ba 3d 50 33 34 bc d8 42 5e 3c
       0.021346677 0.091289476 -0.010998562 0.0135657415
000200 48 1e 50 bb d0 40 3d 3e a0 f3 f2 3d aa 41 ce 3d
       -0.003175633 0.18481755 0.11862874 0.10071118
000210 14 7c 27 3d 83 7c 96 3c da 15 80 3d a0 e0 37 bd
       0.040889814 0.018369919 0.06254168 -0.044891953
000220 fa d4 8d 3d 42 63 e1 3d 24 89 f4 3d 71 eb 2e 3e
       0.06925388 0.1100526 0.1194022 0.17082001
000230 6a bf 32 3e 1f bb b3 3d 35 bf ba bc 85 22 1e 3e
       0.17455831 0.08775925 -0.022796253 0.15442856
000240 3a 44 fc bd ac 1f a5 bd cb 08 17 3e 60 73 26 3d
       -0.12317701 -0.080626816 0.14749448 0.040637374
000250 2c c5 c9 bd c0 35 60 3d 8f 07 20 3e fc 6e cb bd
       -0.09852061 0.05473876 0.15627883 -0.09933278
000260 08 d3 1d bd 7a 6f 8f bd f0 6f f6 3b 7e 0f c4 3c
       -0.038531333 -0.07003684 0.007520668 0.023933169
000270 48 47 2b 3d 7f f4 00 3e 9c 62 e7 bd 8d 9c 7c 3e
       0.041816026 0.12593268 -0.11298105 0.24669094
000280 2d 38 76 3d 35 2c bd 3c 68 28 ef bc 87 1f e2 bc
       0.060112167 0.023092369 -0.029194072 -0.027602924
000290 e0 91 62 bc 56 82 94 3d fe c8 fa 3d f2 a7 e9 3d
       -0.013828725 0.07251422 0.122453675 0.11408986
0002a0 3e f9 88 bd d4 e9 88 3d d1 3c 2c bc 79 54 91 3d
       -0.06688164 0.06685224 -0.010512547 0.0709619
0002b0 bc 39 c1 3d 63 d8 19 3d 74 af 1a bd 33 43 0c bd
       0.0943484 0.037559878 -0.03776498 -0.034243774
0002c0 c4 e3 bc bd 88 f4 dd bd 72 b3 b4 3d 6c 8a 3c 3c
       -0.0922313 -0.10837656 0.08823289 0.011507612
0002d0 a8 bc 81 3d 70 0a 7a 3c ca 8a 9d 3d 66 60 d6 3d
       0.063348114 0.015261278 0.076924875 0.10467605
0002e0 7b f6 61 bd 54 f1 79 bd 66 a0 ee 3d 9f eb 45 3e
       -0.055166703 -0.061021164 0.11651687 0.19328164
0002f0 d5 fc a8 3d 36 41 c2 bd df c2 93 3d 17 25 ee bb
       0.08251349 -0.09485094 0.07214903 -0.007267605
000300 6c 29 e0 3d bc 03 8f bd a0 54 a8 bc 50 77 85 bd
       0.109454006 -0.06983134 -0.020548165 -0.06516898
000310 d2 3d 99 bd 68 2f f9 3c 7f b0 7f bc d5 ee ce bc
       -0.074824944 0.030418113 -0.015606045 -0.025260368
000320 d0 b9 75 bc 61 9c a1 bc 70 b3 a1 3d 33 ed fe bd
       -0.014997914 -0.019727888 0.07895553 -0.12447586
000330 6b e1 b1 3d 40 9a 70 bc 74 23 2d 3d 29 e6 2c 3d
       0.08685573 -0.014685214 0.04227014 0.042211685
000340 cc d5 2b 3d b8 5f af bd a2 6f 95 3d 1e 42 c4 bd
       0.04195194 -0.08563179 0.07296683 -0.09582923
000350 ae e9 db bb 7d cd 9d bd 04 09 0e 3e 8f 21 c3 bd
       -0.0067112064 -0.077052094 0.13870627 -0.09527885
000360 f4 dd 80 3d 42 4f 9b bd df 0e c8 bd 9a 9a e8 bd
       0.06292334 -0.075834766 -0.097684614 -0.11357613
000370 fc b2 d8 3d 66 5e 7b 3d 8c 29 d0 bd 80 a5 82 3b
       0.105810136 0.061369322 -0.101641744 0.0039870143
000380 dc 5e e1 bd 30 f5 5a be 58 5a fc 3d 80 9f 31 3c
       -0.11004421 -0.21382594 0.12321919 0.01084125
000390 d4 ea 7a 3d ee 58 fc 3d cc 5a 13 bd 3d 8b 8f bd
       0.061259106 0.123216495 -0.035975263 -0.070089795
0003a0 53 30 8f bc 03 35 03 be 80 b4 f7 b7 e7 d9 93 3d
       -0.017479097 -0.12813191 -2.9528746e-05 0.07219296
0003b0 5e 3b 80 3d 5c 9f a9 3d 2c 07 8a bd 67 bb ed bc
       0.062613234 0.082823485 -0.06739649 -0.029020024
0003c0 38 3e 75 3d 1e 95 30 be 23 12 fd ba d6 00 3a 3d
       0.05987379 -0.17244384 -0.0019307773 0.045410953
0003d0 b5 91 11 be cf a3 75 3d 11 62 eb bd e8 c1 82 bd
       -0.14215739 0.059970673 -0.11493314 -0.06384641
0003e0 7a 9d 98 bd 82 0a fd bd ba 97 ae bb 9b 79 5d 3d
       -0.07451911 -0.1235552 -0.005328146 0.05407105
0003f0 ea 77 1c be 8f b9 47 be ab 09 16 bd 19 6c 6d be
       -0.15280119 -0.19504379 -0.036630314 -0.23185767

fc3.bias f4 [32]
000000 35 95 4e 3d 83 91 0b 3e 3a 95 89 3d 09 86 80 be
       0.050435264 0.13629727 0.06717916 -0.2510226
000010 25 5f 53 3e e0 dc 9d bc e5 23 89 bd fb ae d5 bd
       0.20641764 -0.01927036 -0.066962995 -0.104337655
000020 68 9f 99 3e bf 1b 5d 3d 10 7e f7 bc 86 7a 87 3d
       0.3000443 0.05398154 -0.030211478 0.06615166
000030 f6 80 5d bc f2 ae d5 bd 8c 12 78 3e 18 08 42 3e
       -0.013519516 -0.10433759 0.24225825 0.189484
000040 3d 8c cd bc e8 20 9b bd 68 41 2b 3d b4 e1 90 3e
       -0.025091285 -0.07574636 0.041810423 0.28297198
000050 f1 f6 9d 3e b9 24 60 3e 89 8e 7d be d3 d0 dc bc
       0.30852464 0.21889009 -0.24761404 -0.026955044
000060 b5 5f 08 3e a2 29 8e 3e ef c8 0f 3e 18 b2 24 bc
       0.1331776 0.27766138 0.14041494 -0.0100522265
000070 55 02 80 bd 28 47 01 bd 90 7b 69 bd 5d e9 33 3d
       -0.06250445 -0.031562 -0.057002604 0.043923724

fc4.weight f4 [14, 32]
000000 24 b7 c1 39 ef 39 0f 3e bd dc 37 3e 61 36 dd 3d
       0.0003694828 0.13986944 0.17955299 0.108013876
000010 d3 c7 22 3e 38 26 83 3d 13 81 37 3e 09 58 90 bc
       0.1589654 0.06403774 0.17920332 -0.017620103
000020 74 b3 d3 3e 1c 94 33 bb dc d0 8c 3d 3c 1e dc 3e
       0.4134785 -0.0027401512 0.06875774 0.42991817
000030 d0 a8 1e 3e ae 04 2b 3e 1d 70 aa 3e f2 46 9b 3e
       0.15494084 0.16701004 0.3328866 0.30327564
000040 db 00 7f 3e ee 6b cd bd e2 8d ec 3d 07 d0 3f 3e
       0.2490267 -0.100303516 0.115504995 0.187317
000050 0c d6 86 3e cc f3 d8 3d 3f b5 13 3d 43 54 cc 3d
       0.2633518 0.105933756 0.03606152 0.09977009
000060 6a 04 6a 3d ec ab 85 3e 2e b4 30 3b 7f 10 a6 3b
       0.057133116 0.26107728 0.0026962864 0.0050678845
000070 87 4e c5 bd f1 ca a6 3d d1 1c 03 be 4a dd 0d bc
       -0.096341185 0.08144177 -0.12803961 -0.008658716
000080 5a 4c 2a 3e 21 87 d8 3d d6 e2 e9 3d 9d c8 f7 bd
       0.16630688 0.10572649 0.11420219 -0.12098811
000090 19 84 c7 3d 4e 68 e1 bc 6a 04 f7 bd f6 6c 57 bc
       0.097419925 -0.027515557 -0.12061389 -0.013148537
0000a0 29 6e 3d bd c7 99 63 bd 78 6d d7 3d 1c 2f 6a 3d
       -0.046247635 -0.055566575 0.105189264 0.057173833
0000b0 bf 4b 06 be 07 1b e3 3d 1d ed 84 3e 52 67 7a 3c
       -0.13114832 0.110891394 0.25962153 0.015283423
0000c0 27 3a 3c 3e cb 19 b8 3d c6 20 97 bc 87 06 71 3d
       0.18381558 0.089892946 -0.018448245 0.058844116
0000d0 58 3a 3e 3e 11 9b 61 3e ee 1b b9 bd 23 fb 52 3e
       0.18576944 0.2203181 -0.0903853 0.20603614
0000e0 40 e6 58 3e 93 bb 5e 3e c2 c3 c1 3c 3d 6a 53 bd
       0.21181583 0.21751241 0.023652915 -0.05161499
0000f0 b5 7c d4 bc aa 15 b2 bd ee 36 07 3d de 20 9d 3c
       -0.025938371 -0.08695538 0.03301137 0.019180711
000100 fc 26 97 3d 50 81 83 3b b5 29 10 be e6 a9 19 3e
       0.073804826 0.004013218 -0.1407841 0.15006217
000110 84 4e bd 3d 7b 73 05 be 92 cf 2e be c5 99 1d 3e
       0.09243491 -0.13032334 -0.1707137 0.1539069
000120 1d 12 5b 3e 50 11 3d 3e d1 12 65 bd 0a 9b 8f 3d
       0.21393628 0.18463635 -0.055926148 0.07011993
000130 8b 5b 13 be d2 e9 95 3d ae b7 c9 bd 28 26 42 3e
       -0.1439039 0.07319988 -0.09849487 0.18959868
000140 31 d0 aa bc 82 8b 32 be 3e ec 16 3e 83 a0 00 be
       -0.020851227 -0.1743603 0.14738557 -0.1256123
000150 87 22 11 3e eb d8 94 3b 0d 66 53 bd 21 c7 d7 3d
       0.14173327 0.00454246 -0.051610995 0.10536028
000160 bf ae 02 3e 9a 20 20 be ce 8b 47 3d 22 94 0d be
       0.12761973 -0.15637437 0.048717313 -0.1382604
000170 33 5d d6 bd 82 8b a5 3d 1b d4 8e bd 26 e8 13 be
       -0.10466995 0.0808325 -0.0697405 -0.14444026
000180 a9 2b 11 be 52 f2 d8 bb fc 76 58 be 30 72 da bd
       -0.14176811 -0.0066206837 -0.21139139 -0.10666311
000190 8c fa 0e be 5b 40 31 3e 65 56 a2 bd 54 36 e8 3b
       -0.13962764 0.17309706 -0.07926635 0.0070865545
0001a0 f0 b2 cd 3d a5 ab 43 bd 8e e9 d7 3d fc 23 34 be
       0.10043895 -0.047771115 0.10542594 -0.17591852
0001b0 c5 7d 86 bd a6 55 2b 3e 8e cd 12 3e 37 66 04 3d
       -0.065669574 0.16731891 0.14336225 0.032324042
0001c0 53 7b 00 bd 6a 8e 32 be 95 49 db bd c1 b9 44 bd
       -0.03136761 -0.17437139 -0.10707394 -0.04802871
0001d0 9b 5f ef bc 91 42 e9 bd fc 1a fd bb 30 df ac 3d
       -0.029220393 -0.1138965 -0.007724164 0.08441007
0001e0 7b ee 37 be dc 7c 1e be b4 cd ea 3d 68 1c e3 bd
       -0.17962067 -0.15477318 0.11465016 -0.110894024
0001f0 99 06 04 bd 8f 18 1a bd 5c fb 22 be cd 1f 55 be
       -0.032232855 -0.037621077 -0.15916198 -0.20812912
000200 a2 87 a2 3c 12 ac e4 bc 8e 9f 78 bc e8 a6 47 3e
       0.019840065 -0.02791408 -0.01517476 0.19497263
000210 54 79 d4 3d c4 16 b2 bd 21 6a 02 3e 94 2e d8 3b
       0.10374704 -0.086957484 0.12735797 0.0065973494
000220 c2 17 ce 3e fe 03 ed 3d 64 fc 45 bb f6 b4 c2 3e
       0.402525 0.11573027 -0.003021025 0.38028687
000230 f8 1f d7 3d d5 e9 ff bc 53 0b e6 3e ae 0d 6b 3e
       0.105041444 -0.03123943 0.44930515 0.22954437
000240 b4 f1 ad 3e cc 46 d7 bd 1e dd c1 3d 1c 17 3d 3e
       0.33973467 -0.1051155 0.09466003 0.18465847
000250 01 da d8 3e db cc b6 3e 1d 72 9f 3d 25 2f dc 3c
       0.42353824 0.35703167 0.07785437 0.026877949
000260 34 0d b8 3d ae 57 f9 3e ff 40 36 bd bb ee 32 bd
       0.08986893 0.48699707 -0.04449558 -0.043684702
000270 48 a7 22 be 97 0d c7 3d 53 69 a0 bd 54 25 4f 3e
       -0.15884125 0.09719389 -0.07832589 0.20229083
000280 bb 45 02 3e de 01 93 3d 05 89 2a 3e cc bd cb bd
       0.12721913 0.071780905 0.16653831 -0.0994831
000290 c0 6c 08 3e 6c ac 13 3d 78 70 0b be 79 35 20 be
       0.13322735 0.036053106 -0.13617122 -0.15645398
0002a0 18 c0 da 3d 70 43 fd bb a2 11 59 bc 03 86 46 3e
       0.1068117 -0.0077289864 -0.013248833 0.19387059
0002b0 5c df df bc 37 b3 a3 3c c7 bb 15 3e c5 21 fe 3d
       -0.027328186 0.019982917 0.14622413 0.12408785
0002c0 74 d6 af 3d 46 a8 f1 3d 1a 83 4e bd 54 ce 9b 3d
       0.085858256 0.11799674 -0.050417997 0.07607713
0002d0 2e 4b 0d 3d 9c 81 17 be df cd 4a bd ea f5 d8 bd
       0.034495525 -0.14795536 -0.04951274 -0.105937794
0002e0 76 b7 ec bd 14 6b a2 bd 74 30 b4 3c 19 41 11 be
       -0.1155843 -0.0793058 0.02199576 -0.14184989
0002f0 96 f8 1d bd 8c 44 67 3d c6 27 83 3c b2 26 b3 3d
       -0.03856715 0.056461856 0.016010176 0.08747615
000300 b5 16 76 bd f5 34 c9 3c 92 89 e2 3c f1 f0 d4 bd
       -0.06008025 0.024561385 0.02765349 -0.103975184
000310 48 71 2c bc 8c 06 e0 bb 3a 77 80 bd 26 04 1d be
       -0.010525055 -0.006836718 -0.06272741 -0.15333614
000320 35 4e ce 3c a9 12 3d 3e 3e e5 ff bb bc 21 51 3d
       0.025183776 0.1846415 -0.00780931 0.051057562
000330 6f 47 54 bd 1b 7b 95 3d fa e0 ef bd 7f 7c 77 bd
       -0.051825937 0.07298871 -0.11712833 -0.060421463
000340 32 25 0e be cf 7e e9 3d b2 ed e8 bc 13 9c 00 be
       -0.13881376 0.1140114 -0.028433654 -0.12559538
000350 c0 b4 02 bc f2 7c 42 3e 90 52 a6 3d 8d 74 89 3d
       -0.0079776645 0.18992975 0.08121216 0.067116834
000360 09 97 af bd 85 99 04 3e f6 3b 0b be 19 1f 81 bd
       -0.085737295 0.12949188 -0.13597092 -0.063047595
000370 ef 73 8f bd ad 9c 95 3d 04 88 85 bc 01 da 91 bd
       -0.070045345 0.07305274 -0.016300209 -0.07121659
000380 1b c0 fe bc ac 6d 7e 3e 11 83 c9 3d 59 65 2e bd
       -0.031097462 0.24846524 0.09839452 -0.04257712
000390 61 75 b9 3e 23 39 67 bd 8f 38 c7 3d 0d 79 0b 3e
       0.36222365 -0.056450974 0.097275846 0.13620396
0003a0 39 74 a6 3e fa 0f 0e bc f9 1a fe 3a 53 29 90 3e
       0.32510546 -0.008670801 0.0019386701 0.28156528
0003b0 29 e9 d2 3d fb df ab 3d 93 92 cd 3e 1c 12 91 3d
       0.10298378 0.0839233 0.4015089 0.07083532
0003c0 21 6a 30 3e f5 a9 05 3c d2 09 1e 3e 67 29 04 3e
       0.17227985 0.008158197 0.15433434 0.12906419
0003d0 4d e8 9a 3e 03 99 b3 3e f5 f1 46 3e 4b f2 5f 3e
       0.30255356 0.35077676 0.19428237 0.21869771
0003e0 54 91 a1 3e b5 b8 e5 3e 8a 65 84 3d 38 c2 90 3d
       0.3155619 0.44867483 0.064646795 0.07068294
0003f0 e7 ea 91 bd 5f d2 ff 3d 84 c3 b5 3c 65 fb 92 3e
       -0.07124882 0.12491297 0.022187956 0.28707424

fc4.bias f4 [14]
000000 d9 4f 85 3e de 42 0a 3d a2 08 cd ba af 4d 59 be
       0.2603748 0.033755176 -0.0015642832 -0.2122104
000010 9d 39 a9 3e ea 89 83 3d ac fd 20 3e fc 1b c9 3e
       0.33051768 0.064227894 0.15721768 0.39279163
000020 8c ab b4 bb 43 ae e7 bd b0 da 17 3e 98 6e 9c 3d
       -0.005513614 -0.11312535 0.14829516 0.076382816
000030 82 6c ac 3e e6 61 05 be
       0.33676535 -0.13025627
