saved_models/q_network.pth (torch, 24792 bytes, 8 tensors)

fc1.weight f4 [32, 23]
000000 0a 05 04 3f d7 38 51 be 0c 1a 04 3e 19 58 f8 3d
       0.5157019 -0.20431839 0.12900561 0.12126178
000010 e1 ec e8 3d 4f 7d 5b bd 80 b8 c0 3e 3d c6 5c be
       0.11373306 -0.0535863 0.37640762 -0.21559997
000020 29 70 4c be 36 ce fe bd 4a 88 1c 3e 52 c3 83 bd
       -0.1996466 -0.12441675 0.15286365 -0.06433739
000030 df 83 23 3e b1 ff af bd 3a 67 23 be 8f 76 a4 bd
       0.15968274 -0.08593691 -0.15957347 -0.08030426
000040 91 5d 99 bd 1d 2b 4e 3d 36 e0 02 3e a7 48 08 3e
       -0.074885495 0.050334085 0.12780842 0.13308965
000050 8d e3 f1 bd 82 18 a0 bb 13 81 b3 3d d7 7f e2 3e
       -0.1181098 -0.004885734 0.08764853 0.4423816
000060 e4 d1 09 bd c9 46 a4 bd 70 3d 29 bd eb 0e 21 3e
       -0.033647433 -0.08021314 -0.041318357 0.15728347
000070 8b 97 e2 3d 1f b1 b0 3e d7 46 5a 3e 52 bc 8d bd
       0.11064061 0.34510133 0.21316086 -0.06920685
000080 3b ac da bd cf 55 be bd 86 ef e1 bd e0 1f 03 3e
       -0.106773816 -0.092937104 -0.110320136 0.12805128
000090 f6 a6 38 bb f2 8c 4f 3d c0 d5 92 bd 1a 1b 2b 3e
       -0.0028175688 0.050671525 -0.07169676 0.16709557
0000a0 86 12 0f 3e 17 f2 6e 3e 14 b8 48 3e 78 7e 19 be
       0.1397191 0.23334537 0.1960147 -0.1498965
0000b0 64 c7 e3 3d 36 34 19 be fd 57 71 be 33 9f 2d 3e
       0.11122015 -0.14961323 -0.23568721 0.16955261
0000c0 3f d0 8b bd bf 7a 82 bd f8 25 94 bd 19 ff 4b 3c
       -0.06826829 -0.06371068 -0.072338045 0.012450957
0000d0 30 94 7a bc 15 33 97 3e 25 d2 09 3e 92 cc 48 3d
       -0.01529412 0.2953116 0.1345907 0.04902322
0000e0 73 47 46 be c3 d9 8b 3e 99 23 35 bd 2c 66 ec bb
       -0.19363193 0.27314577 -0.0442234 -0.0072143283
0000f0 a2 47 83 3e 8c 7c 0c 3e 6a 1b 51 3e 6c 25 c4 3d
       0.2564059 0.13719386 0.20420614 0.0957745
000100 e3 78 14 3d 1e 39 55 3e 04 f6 e9 3e 0f 03 2a be
       0.0362481 0.2082257 0.45695508 -0.1660273
000110 05 c6 14 3e 73 aa 98 3e 3b 87 98 3d 26 58 a8 3d
       0.14528663 0.29817542 0.07447668 0.08219938
000120 a0 a8 2e 3e 00 cb 0a 3e 69 1f 34 3e 45 36 82 bd
       0.17056513 0.13554001 0.17590107 -0.06358007
000130 22 d2 ae 3e 44 b2 38 be d4 4d 60 3e 2b 09 59 3e
       0.34144694 -0.18036753 0.21904689 0.21194904
000140 e4 12 89 3d 31 99 5c 3d 10 95 e8 3c 88 23 8f 3e
       0.06693056 0.053857032 0.028391391 0.27956796
000150 85 80 78 3e 18 84 94 3e 4b ef 55 3e cb 8c 3c 3e
       0.24267776 0.2900703 0.20892064 0.18413083
000160 45 33 a3 3e 4c 98 a3 bc c4 fc 74 ba da 9e f7 3d
       0.31875053 -0.019970082 -0.00093455263 0.120908454
000170 a0 34 81 3e 1f a8 31 3e e2 52 af bd ae 89 87 3e
       0.25235462 0.1734929 -0.085607305 0.2647223
000180 70 e2 cd 3d 74 4e 04 3e b4 42 92 3e 7e 6e 10 3e
       0.10052955 0.12920552 0.28566515 0.1410465
000190 33 06 20 3c da d6 12 3e 83 e8 94 bd ea fe 3b 3e
       0.009767103 0.14339772 -0.072709106 0.18358961
0001a0 d4 12 a4 bc 56 77 40 bd 92 71 4f 3e 34 16 81 3e
       -0.02002851 -0.046988808 0.20258167 0.25212252
0001b0 21 9b 50 bc 39 41 87 3e 7f 47 b5 3d b0 82 8b 3e
       -0.012732298 0.26416948 0.088515274 0.27248144
0001c0 8e a5 48 3d 5f 1e cb bd b4 80 cc bd d8 d8 08 3e
       0.04898601 -0.09917902 -0.09985486 0.1336397
0001d0 09 88 22 3d e9 75 f0 bd 67 b0 6a bd ed 2d 84 bc
       0.039680514 -0.117412396 -0.057297137 -0.01613518
0001e0 e3 36 44 be 96 2f 94 bd 5e ff 4d be f9 f6 df bd
       -0.19161563 -0.07235639 -0.20116946 -0.10935778
0001f0 36 57 3e be 75 e9 be bd fe 69 06 3e 12 cd 01 3e
       -0.18587956 -0.09321872 0.1312637 0.12675884
000200 17 d8 4a 3d df 09 aa bd ef 6a 0e be c5 3e fb 3b
       0.049522486 -0.08302664 -0.1390798 0.007667395
000210 57 15 07 be c6 c5 36 bd d3 6d 55 be c3 b3 f8 bd
       -0.13191734 -0.044622205 -0.20842676 -0.12143662
000220 58 d0 8e bc 95 45 ca bd a9 88 c8 3c ba 5d 6a bc
       -0.01743333 -0.09876553 0.024479227 -0.014304573
000230 4e 59 83 3e 7c 3d 13 be 18 8e 3a bc 88 c2 17 be
       0.25654072 -0.14378923 -0.011386417 -0.14820302
000240 90 3b c4 3b ff 4d fe bc 4c a1 12 3e 6b c0 af 3d
       0.0059885457 -0.03104305 0.14319342 0.08581623
000250 c9 1a 2c 3e db e8 75 3d 77 aa 28 3e 39 70 ac bc
       0.16807093 0.06003652 0.16471277 -0.021049606
000260 2c e6 c5 bb 6d 60 99 bc 19 2b 91 3d 82 4b 34 be
       -0.0060394015 -0.018722737 0.07088298 -0.17606929
000270 f1 41 6d 3e a2 18 b9 3d 4a c6 b1 be 46 e8 1d 3e
       0.23169686 0.090379015 -0.34721595 0.15420637
000280 5d 0b 3c 3e 4b 06 03 3e 1f ca 28 be 95 80 cb 3c
       0.1836371 0.1279537 -0.16483353 0.024841586
000290 c6 4b e4 bc 2e d1 c8 bb fa 92 4c 3e 22 96 88 3e
       -0.027868163 -0.006128452 0.19977942 0.26677042
0002a0 ba a5 40 3e a1 38 17 bd 6e cf 52 3e 7c 2c e5 bc
       0.1881322 -0.03691924 0.2058694 -0.027975313
0002b0 88 2c e2 bc df 72 cc 3c 28 f3 a5 3d 14 fa 80 3e
       -0.027609125 0.024957119 0.08103019 0.25190794
0002c0 af d2 5b 3e 60 c9 3d 3e 4d 0b b3 3d 00 16 3b 3e
       0.21467088 0.1853385 0.0874239 0.18270111
0002d0 20 c8 10 3e 2a 96 59 be d8 e4 06 be 5c 4d 12 3e
       0.14138842 -0.2124869 -0.13173234 0.14287323
0002e0 86 b0 a4 bd df 5c 41 be 61 cc 03 3e a4 ae 89 bd
       -0.08041482 -0.18883084 0.12870933 -0.06722763
0002f0 6d 6b 4a 3e 2a b2 07 3d ff a3 3d 3e 40 e0 77 3d
       0.19767542 0.033128895 0.18519591 0.060516596
000300 23 45 5f 3d 81 d5 37 3e 43 ef 01 3d ac 1a 23 3e
       0.054509293 0.17952539 0.03172232 0.15928143
000310 9b 55 e1 3a 36 4e 27 be ca dc 6b be 72 f2 af 3d
       0.001719165 -0.16338429 -0.23033443 0.08591165
000320 c1 cc a7 3e a4 98 82 3e e4 93 9f bc 66 a1 3e 3a
       0.32773402 0.2550708 -0.0194797 0.0007271975
000330 11 d3 6a 3e 35 d4 76 3d 81 c1 55 3e 7d be 2a 3e
       0.22932078 0.06026097 0.20874597 0.16674228
000340 02 b4 86 3c 5c 13 aa 3d e9 8a f9 3d 41 91 20 be
       0.016443256 0.08304474 0.12184698 -0.1568041
000350 c2 6d f6 bc 35 47 54 3e cd 1f a8 bc cb 32 91 3d
       -0.030081633 0.20730288 -0.020522976 0.07089766
000360 68 7d a4 3d 7b 39 34 bd b2 15 88 3e 3a 1a 05 3e
       0.08031732 -0.04400013 0.26579052 0.12998286
000370 a7 bd 98 bd b2 f2 90 3e 7e 55 87 3d de 4f 08 3e
       -0.07458048 0.28310162 0.06608103 0.13311717
000380 33 be 50 be 37 eb 13 3e 55 d7 e8 bc 6d e7 1d be
       -0.20385055 0.14445196 -0.02842299 -0.15420313
000390 83 a9 76 bd b6 bb 01 be 1a 02 1f be 3c d7 c1 bd
       -0.060220253 -0.12669262 -0.15528145 -0.09464881
0003a0 ff 21 4c bc 97 03 75 be b1 b5 cd 3c 6e f5 27 3d
       -0.012459277 -0.2392715 0.025111051 0.041005544
0003b0 51 88 07 3c 07 e7 4d bb de 55 50 3e a0 47 f5 3b
       0.008272246 -0.003141822 0.20345256 0.007485345
0003c0 c7 1b dc 3d 43 2a 2b 3e 31 58 09 3e 86 9f c6 3d
       0.107474856 0.1671534 0.13412549 0.096983954
0003d0 62 9c fb bd df 59 48 be dc 48 f8 bc 04 ab a9 bd
       -0.12285687 -0.19565533 -0.03030818 -0.08284572
0003e0 4c 9f 25 3a 4a 89 3a 3e 84 db 7a 3e 5d a3 89 bc
       0.00063179876 0.18216434 0.24497801 -0.01680153
0003f0 e9 82 3b 3d f0 08 1e be df 4d 3f 3e 20 a4 f2 3c
       0.045779143 -0.15433097 0.18682049 0.029619277

fc1.bias f4 [32]
000000 3e a5 0d 3e 52 5e 04 3f fd a2 24 bd a3 5f b0 3d
       0.13832566 0.5170642 -0.0401945 0.08611991
000010 f5 be c9 3e c9 94 87 3d b3 35 18 be 92 b9 a8 3e
       0.394035 0.066201754 -0.14864235 0.3295408
000020 2b f6 f4 bd c7 59 82 bc d4 06 f3 bd c3 44 07 be
       -0.11961015 -0.01591195 -0.11866537 -0.13209824
000030 85 2d 52 bd 59 f3 3f bd ed 41 e7 3e 7b 72 90 bd
       -0.051312942 -0.046862934 0.45167485 -0.070530854
000040 1a 60 12 bd 5a d1 6b 3c 92 aa bf 3e da 02 8e 3e
       -0.03573618 0.014393175 0.37434822 0.2773655
000050 b2 ad 92 3d a7 e1 d7 bc f2 cf b8 bc cc 66 33 3e
       0.07162036 -0.026352717 -0.022560094 0.17519683
000060 04 6a df bd 44 13 1f 3d a6 07 03 3e 3a 38 69 3d
       -0.10908893 0.038836733 0.12795886 0.056938387
000070 d3 ce 10 bd 18 52 09 bd 61 e9 d0 3d be af c0 3d
       -0.035353493 -0.033525556 0.102007635 0.0940852

fc2.weight f4 [64, 32]
000000 30 67 06 bb 5e 56 b5 bd b7 9f a2 bb 95 9f 5e 3e
       -0.0020508282 -0.08854364 -0.004962887 0.21740563
000010 94 f9 61 bd 0e 8a 18 be 22 6c f1 3d fa fc 25 3e
       -0.055169657 -0.14896414 0.11788203 0.16209784
000020 bf af 20 3e 06 58 4a bd 7b 71 10 be b8 74 0c 3e
       0.15692042 -0.049400352 -0.1410579 0.137164
000030 3a 02 ef bc 08 1a b4 3c 04 9f e2 bd 63 96 25 bd
       -0.029175866 0.021985069 -0.11065486 -0.040426623
000040 cf 4a 53 be 06 6c 04 3e 97 24 0e 3e f9 8d 03 bd
       -0.20634006 0.12931833 0.13881145 -0.032117818
000050 57 e8 2f bd 24 af ec 3d cd b0 16 be 03 3a 37 3e
       -0.042946186 0.11556843 -0.14715882 0.17893223
000060 f9 8f 73 be ca ac b7 3b a5 51 4b 3c b6 dd 13 3e
       -0.2378539 0.005605315 0.012409602 0.14440045
000070 64 9d 8c be 92 c7 61 3d 24 bb 03 be 29 19 94 3d
       -0.2746383 0.055121966 -0.12864357 0.072313614
000080 3a 5e f3 3d af c2 81 3e 94 f3 80 bc 02 38 d3 3b
       0.11883207 0.25343844 -0.015741147 0.0064458856
000090 1c f7 dd bb e0 6c b2 3d 55 24 ad 3d e9 49 00 bd
       -0.0067738425 0.087121725 0.084541954 -0.031320486
0000a0 34 f6 fd 3d 02 d6 12 be b5 ec 7e bd a5 5d 1e 3e
       0.12400475 -0.1433945 -0.06223746 0.1546541
0000b0 29 71 43 3e d5 24 54 3d 5a 16 6a bd 0d 44 f8 bd
       0.19086136 0.05179294 -0.057150222 -0.12122355
0000c0 a6 ac 9d 3d a9 69 3c 3e 14 12 2a be 36 95 72 3c
       0.07698946 0.18399681 -0.16608459 0.0148060825
0000d0 38 02 ee bd 9a a5 f2 3d b7 46 be 3d e9 be 04 be
       -0.11621517 0.11847992 0.092908315 -0.12963451
0000e0 19 e2 32 3e 65 43 a2 bb eb a7 6a 3e 79 b4 01 3e
       0.17469062 -0.0049518817 0.22915618 0.12666501
0000f0 48 22 79 3d db 0c a3 bd d9 b8 3f be 0b 0e 22 bd
       0.06082371 -0.07961436 -0.18722858 -0.039564174
000100 21 62 23 bd 86 c8 5e 3e dd 86 38 3e e6 b6 cc 3a
       -0.039888505 0.21756181 0.18020196 0.0015618473
000110 20 22 62 bc 2f 39 d7 bd c0 02 39 bd bf 99 38 3d
       -0.013802081 -0.10508954 -0.04516864 0.0450685
000120 c5 cb a3 3d f5 5d f2 3d 30 0b 19 be 38 7f 13 3d
       0.0799785 0.11834327 -0.14945674 0.036009997
000130 87 8f f8 3d fe 84 29 3e db b8 d8 bc a4 d1 e6 3c
       0.12136751 0.16554639 -0.026455333 0.028176136
000140 32 97 99 3d ba f8 9a 3d cd f1 6c bd e4 30 41 3d
       0.07499541 0.07566972 -0.057847787 0.047165766
000150 3f 3c 0b be b0 6f 52 bd ca 98 67 be d4 45 8e 3b
       -0.13597201 -0.051376045 -0.22616878 0.0043418203
000160 1d e0 3c be aa 7c 03 3e a5 eb 14 bd 2a a3 20 bc
       -0.18444867 0.12840524 -0.03635754 -0.009804526
000170 80 ac 3e be bd 93 9e bd 10 fc 16 bd 7a 65 36 3e
       -0.18620491 -0.077430226 -0.03686148 0.17812148
000180 1d ff 00 be 1a 85 a1 be 91 c5 24 3e 8d 85 26 bd
       -0.12597318 -0.3154686 0.1609099 -0.040654708
000190 8d 48 92 bd 6b 26 a4 3d 2a 43 90 3d 53 ee c4 3d
       -0.07142744 0.0801514 0.070440605 0.09615769
0001a0 7d 0d 8c bd b4 ca 02 be d1 d2 97 3d ae 5b 9d 3e
       -0.0683851 -0.12772638 0.07413257 0.3073401
0001b0 09 6e 88 3e ac 62 b9 3e ff 94 44 be 3d 82 33 3e
       0.2664645 0.36208093 -0.19197462 0.1753015
0001c0 b2 7b dd 3d 2e 91 34 3e 04 44 17 be 4a 1d a5 be
       0.10814609 0.17633507 -0.1477204 -0.32248908
0001d0 bc c2 e2 bd 36 34 11 3e 08 a5 b3 3e f5 42 28 3d
       -0.11072299 0.14180073 0.35086846 0.04107948
0001e0 ca 9a a6 bb 00 b7 7a bd e8 5b 84 be 51 fe 7e bd
       -0.0050843703 -0.06120968 -0.2585137 -0.062254254
0001f0 08 43 52 3e b2 44 25 3e ba 80 68 be c0 c5 da bc
       0.20533383 0.16139486 -0.22705355 -0.026705623
000200 1f 4f f2 3d fb fc 37 3e d7 8f 05 be 02 cb e9 3d
       0.118314974 0.17967598 -0.13043152 0.11415674
000210 81 68 40 3e 92 5e 15 3e 1a 8d 96 3c 1c 6d a7 bd
       0.18789865 0.14586857 0.01837783 -0.08175108
000220 1c 0c c0 3c 96 48 0a be 9b 99 5a be 2e f7 b7 3d
       0.023443274 -0.13504252 -0.21347658 0.08982693
000230 84 00 50 be f3 3a a7 bd 24 59 f7 3d 30 d8 5d bd
       -0.20312697 -0.081655405 0.12077549 -0.05416125
000240 31 2e 85 be 8f cf ae 3d ea df 72 bd 9d 7c d7 3d
       -0.26011804 0.085356824 -0.059295572 0.10521815
000250 c4 c0 1d 3e ca ef 9d 3d 26 77 81 bc 76 37 b5 bd
       0.15405566 0.07711752 -0.015803885 -0.08848469
000260 19 9b 43 3d ff fc 42 be 5f 41 90 3d 31 68 91 bd
       0.047755335 -0.19041823 0.070437185 -0.07099951
000270 78 ae 10 be 43 a0 43 bd a5 bf 9f bd 6b 40 16 be
       -0.14129055 -0.04776026 -0.07800225 -0.14673011
000280 e2 e0 80 be 41 95 2d bd 1a 11 b2 3e 99 b9 51 be
       -0.25171572 -0.042378668 0.34778672 -0.20480956
000290 cf 72 a4 bc a5 b8 aa bd cf 42 e6 bd dc 38 95 be
       -0.020074276 -0.083359994 -0.112432115 -0.29144943
0002a0 d9 ec 0a 3d f5 a2 08 be 1b 6f ce 3e 95 6e 8a 3e
       0.03391728 -0.13343413 0.40319142 0.27037492
0002b0 8e 36 d2 3e 3c 36 e9 3d 06 11 6c be d3 a7 ee 3d
       0.41057247 0.113872975 -0.23053369 0.11653104
0002c0 e2 64 bc 3e cc da 81 bd 89 58 8d be 6d a1 5e bd
       0.36795717 -0.0634056 -0.2760661 -0.054353166
0002d0 50 a6 78 3e db cf 9b 3d be 9b ac 3e 3c 32 b6 3d
       0.24282193 0.07608005 0.33712572 0.088963
0002e0 0e cc ea 3d ea 4d 30 3e 7a 7b 96 bd 2d 1e f3 bd
       0.114647016 0.17217222 -0.0734777 -0.1187099
0002f0 68 09 82 3e 27 09 23 bd 61 91 6b be 2b 3b 37 be
       0.253978 -0.03980365 -0.23004676 -0.17893665
000300 88 5f c5 bd dc be 13 bd f0 cc ee 3b bb 0f 05 3d
       -0.09637362 -0.03607069 0.007287614 0.032485705
000310 f8 29 bd 3d b9 c5 8b bd ca 45 09 3d 35 2c 6a be
       0.092365205 -0.06824822 0.03351382 -0.22868426
000320 a4 86 dd bd 50 44 34 be 3b c1 1a 3e e6 d5 13 3e
       -0.10816696 -0.17604184 0.15112774 0.14437065
000330 ae 4b 1b 3e fe 99 d3 3c d0 33 70 3c 61 e2 d1 bd
       0.15165588 0.025830265 0.014660791 -0.102482565
000340 f7 02 87 bd 72 33 47 3d d8 d9 72 bc 34 00 3a be
       -0.065923624 0.048633046 -0.014822446 -0.1816414
000350 30 af bc bd b4 63 d8 bd 41 b0 19 3e 60 2a f4 3c
       -0.09213102 -0.10565892 0.15008642 0.029805362
000360 e5 3d 29 3e f2 c4 27 3d d1 d9 00 3e d5 8e 06 be
       0.16527517 0.040959306 0.1258309 -0.13140424
000370 1c eb 03 3e 3c e3 10 be b3 69 12 bd 74 8a 95 3d
       0.12882656 -0.14149183 -0.035745334 0.073017985
000380 ee 8d a9 bd 93 40 a6 be c1 29 a0 3b 1d 51 1a 3d
       -0.08279024 -0.3247114 0.00488779 0.037675012
000390 b4 29 10 3d f3 4c 94 3d e3 d5 82 be 69 5a ae bd
       0.03519602 0.072412394 -0.25553808 -0.08513338
0003a0 e4 12 3f bc 56 02 33 be 5d 5a 15 3d d9 55 62 3e
       -0.011662219 -0.1748136 0.03646313 0.22103061
0003b0 e8 cd f4 3b ec 68 a1 3e 1e 2e a6 3d 5d 91 d5 3d
       0.007470835 0.31525362 0.08114265 0.104281165
0003c0 a9 ac b7 3d 10 7f 10 3d b6 0f 6c bd 46 28 4f be
       0.08968479 0.035277426 -0.05763217 -0.20230207
0003d0 d4 26 62 3e 9d 0d a5 3e c9 df aa 3e 14 f1 73 3e
       0.22085124 0.3223695 0.3337386 0.23822433
0003e0 c1 c5 75 3d 5d 60 77 3e df d9 cf bd 2a df 45 be
       0.060003046 0.24157853 -0.101489775 -0.19323412
0003f0 0a 51 6e 3e 4b d3 b3 bd 32 21 8a be 2c 15 ac bd
       0.23273101 -0.08780535 -0.2697845 -0.08402476

fc2.bias f4 [64]
000000 1e 7e 61 3c 2a 37 91 3e 5d 65 44 3e 8a e0 81 3d
       0.013762979 0.283624 0.19179292 0.063416556
000010 6a 0f ad 3e dc cf 07 be 87 1a 04 3c 48 b0 6d 3e
       0.33800822 -0.13262886 0.008062965 0.23211777
000020 11 23 2a be e2 28 ba bc e5 d9 49 3d 3b df e5 3d
       -0.1661494 -0.022724573 0.049280066 0.112242185
000030 a6 0e 8e 3a 9a 32 41 bc b2 e1 a8 3e bf 88 be bd
       0.0010838106 -0.0117918495 0.32984692 -0.09303426
000040 66 a5 d2 3d 0c 3e 05 be 8f 80 34 3e 8b f2 87 3e
       0.102854535 -0.1301195 0.17627166 0.26552233
000050 ea 1f ab be e3 16 93 3e 8d 4d 75 bd 27 7b 55 3e
       -0.33422786 0.287284 -0.05988841 0.2084776
000060 f9 01 8d 3e 01 d2 67 3c 14 17 1e 3e 3e 28 fb bd
       0.27540568 0.01414919 0.15438491 -0.12263535
000070 01 d2 87 be a3 a8 14 be af 6c 8b 3d dc bb 57 3e
       -0.26527408 -0.14517455 0.06807839 0.21067756
000080 4d 26 96 3d 49 d4 17 be df a2 78 be 3f 3a 93 3e
       0.07331524 -0.14827074 -0.2428088 0.28755376
000090 b5 e0 04 be d2 79 a2 3e a0 9d 29 3d ab 11 de bd
       -0.12976344 0.31733567 0.04141009 -0.10843214
0000a0 67 4f 4f 3e 86 18 30 bd dd 8c 48 3e 25 69 ce 3c
       0.20245133 -0.042992137 0.19584985 0.025196621
0000b0 4c 86 34 bd 0f 41 9b 3e b3 27 03 3e 9a a9 8e bd
       -0.044073388 0.30323073 0.12808113 -0.06965943
0000c0 6b 75 aa bd 6e a3 05 3d eb 8a c9 3c ce 77 18 3d
       -0.08323177 0.03262656 0.024602374 0.03722363
0000d0 63 40 58 3e f3 f4 1a 3e cd ec 07 be b4 29 56 be
       0.21118312 0.15132503 -0.13273926 -0.20914346
0000e0 61 05 00 3e 7c 59 1d be 5c 61 f9 3d 95 46 80 3d
       0.12502052 -0.15366167 0.12176773 0.062634625
0000f0 e3 9f b5 bd fd 28 27 3d 45 6e 45 3d 6c 2f 13 be
       -0.088683866 0.040810574 0.048200864 -0.14373559

fc3.weight f4 [32, 64]
000000 d3 cd 3b 3e 77 12 c6 bc d0 06 3c 3e 70 1e be b8
       0.18340234 -0.024178727 0.18361974 -9.0655754e-05
000010 3f a6 ae 3d b6 14 d1 3c 8f ce 32 3c d8 4b 41 bd
       0.08527803 0.025522571 0.010913505 -0.04719147
000020 dd 16 86 bd f2 30 f5 bc 26 1d c8 3d 0d 43 2a bd
       -0.065473296 -0.029930566 0.097711846 -0.04156785
000030 68 fa c7 3d 84 14 32 bd b3 37 93 3d 09 cd 90 3d
       0.09764558 -0.043476596 0.07188358 0.07070357
000040 95 41 a4 bd 9a a3 60 bb 61 25 18 3d 60 bd d6 3d
       -0.08020321 -0.0034277202 0.037145022 0.10485339
000050 a4 7e be bd aa dc 1d 3e 3d 9a e0 bd 69 f2 03 3d
       -0.093014985 0.15416208 -0.109669186 0.032213602
000060 bc d9 70 3d 95 35 d3 3c fb 25 0b 3e ec ba 00 3e
       0.058801398 0.025782386 0.13588707 0.12571305
000070 69 8c dd bc 71 7c 46 3b 94 8f ae bd 37 c2 ba 3c
       -0.027044492 0.0030286575 -0.08523479 0.022797687
000080 ec 5e fb 3d 40 8a c6 3d 8d cd 01 3d b8 74 95 bd
       0.12273964 0.09694338 0.03169017 -0.07297653
000090 42 21 93 bc 6c 89 a2 3d f2 c7 84 bd 8f 27 d9 3c
       -0.017960194 0.079363674 -0.06483449 0.02650812
0000a0 f8 99 f7 3c 74 c5 c0 bd 6b 28 11 3e 76 56 bf 3b
       0.030224785 -0.09412661 0.14175574 0.0058391644
0000b0 36 f1 39 3a 3a 3d 8c 3d 3d 77 95 bd e3 39 23 3d
       0.0007093133 0.068476155 -0.072981335 0.039850127
0000c0 6e 79 29 3c 08 44 d7 3d f2 3a fd 3d 24 3c 7a 3c
       0.0103438925 0.10511023 0.123647586 0.015273128
0000d0 dc 07 0b 3c e4 a1 52 3d 60 43 86 3d 94 ba ee 3b
       0.008485761 0.051423922 0.065558195 0.0072854254
0000e0 2c c3 e5 bd e0 7f e1 3c 6c 74 b3 3c 63 03 ad bc
       -0.11218867 0.027526796 0.0219061 -0.021119779
0000f0 40 6b 29 3d 58 37 a7 bd e2 b4 a4 bd a2 97 6c 3d
       0.041362047 -0.08164853 -0.08042313 0.057761796
000100 60 15 cc bd 38 65 39 bd 40 6b 79 bb 8c 34 a1 bd
       -0.099650145 -0.045262545 -0.003805831 -0.07871351
000110 92 08 e3 3d f0 57 3e 3c b0 e8 e6 bc 62 7b ad bd
       0.11085619 0.011617646 -0.028187126 -0.08470799
000120 8a ee 9b bd b0 d7 e3 3c d2 e7 e2 bd dc 81 17 3d
       -0.07613857 0.027812809 -0.110793725 0.036989078
000130 e0 99 b4 bd c4 f8 f6 bd 20 29 d8 bd 18 ea 37 3d
       -0.08818412 -0.12059167 -0.10554719 0.044900984
000140 58 4f cc 3c f0 1c 7b 3c 08 42 f6 3c 18 bc 9c bc
       0.024940178 0.015326723 0.030060783 -0.019132659
000150 d8 d8 c3 bc 0c 09 33 3d c0 74 83 3b 54 29 49 3d
       -0.02390711 0.0437098 0.0040117204 0.04911168
000160 0c 07 ad bd 00 00 92 bb 24 c3 61 3d b0 8e 7c bd
       -0.0844861 -0.0044555664 0.05511774 -0.061659515
000170 2e 55 ef 3d e4 5d 25 3d 00 4c 25 3c ee 17 9e 3d
       0.116861686 0.040372744 0.010088921 0.07719408
000180 b0 a9 06 bd a0 52 24 bd 18 c0 0d bd 0c 43 c7 3d
       -0.03287667 -0.04011786 -0.034607023 0.09729585
000190 0a 2f c4 3d 76 98 f7 bd b8 16 91 bc 7a 34 89 bd
       0.095792845 -0.120896265 -0.017711028 -0.06699462
0001a0 00 18 66 3b 00 b5 79 bb 30 f2 a1 3c e8 86 26 bd
       0.003510952 -0.003810227 0.019768804 -0.040656
0001b0 40 74 33 bd 08 62 1b bd 86 3a e8 3d 86 c0 d8 bd
       -0.043812037 -0.037935287 0.113392875 -0.10583596
0001c0 24 31 38 3d f0 3b fd bd 88 19 fb bd 88 42 8e bc
       0.04496874 -0.12364948 -0.12260729 -0.017365709
0001d0 98 10 ab bc 9e 16 f2 bd c0 d2 8b 3c b4 bb 09 3d
       -0.020881936 -0.1182072 0.017068267 0.033626273
0001e0 5c b2 7c bd 4a 5b 8b bd ce 3f b2 3d 34 d1 f6 3d
       -0.061693534 -0.068045214 0.08703576 0.12051621
0001f0 14 34 80 3d 34 d9 7b bd 98 09 fe 3d ae 2c c2 bd
       0.06259933 -0.061486438 0.124041736 -0.09481178
000200 02 5a 9b bd e5 cc 3a bd 68 68 ca bd 40 15 b6 bd
       -0.07585527 -0.04560556 -0.09883195 -0.08890772
000210 ea e0 7d be d7 37 1b 3e 2b c4 1f 3e c8 76 65 3a
       -0.24792829 0.1515802 0.15602176 0.00087533565
000220 35 cf 73 bc d3 84 a1 3c 34 0c e1 bd 00 c5 0a 3c
       -0.014880945 0.019716656 -0.10988656 0.00846982
000230 85 7d 99 bd 01 04 eb 3d f1 5a 94 3d 5b 13 8e bd
       -0.07494644 0.11475373 0.07243908 -0.069372855
000240 6f 6a b7 bd 46 89 c5 bc 19 15 81 bc 38 3b 3f bd
       -0.089558475 -0.024113309 -0.01575713 -0.046687335
000250 6c 95 1b bd 9a 78 58 3c dd 3c d5 3d 8b 47 87 3d
       -0.037984297 0.013212347 0.104119994 0.066054426
000260 cb 64 1e bc c8 01 5e 3c 21 03 39 be d8 8d c7 bc
       -0.009667586 0.013550229 -0.180676 -0.024359629
000270 d3 ed b9 bd 59 d7 29 bd e0 5a b7 3d 2d 80 1f be
       -0.090785645 -0.041465137 0.0895288 -0.15576239
000280 9a 11 48 be d8 0f 3c 3d 2f 8e 8e 3d 07 a3 7e bd
       -0.19537964 0.045913547 0.06960713 -0.062167194
000290 0f 51 27 bd d8 d9 9b bd 21 1d cf 3d 69 64 88 bd
       -0.040848788 -0.0760991 0.10112978 -0.06659777
0002a0 d6 4f 8b bc ce a1 bf 3d d1 d6 4d bd b4 7a 85 3d
       -0.017005842 0.09357034 -0.050253693 0.065175444
0002b0 b0 0c 7c 3c ef f9 50 be 20 c7 61 bd 72 1f 17 3e
       0.015383884 -0.20407842 -0.05512154 0.14758089
0002c0 99 60 c7 bd 3b 72 e0 3d 7c 36 4f 3b 8d 8a 32 3d
       -0.097352214 0.10959288 0.0031618169 0.043589164
0002d0 01 5d a1 bc 7d 54 95 bc 95 48 0b 3e 10 d6 0c be
       -0.019697668 -0.018228764 0.13601907 -0.13753533
0002e0 ee 0c a9 3d 32 fa c5 3c ea b3 87 3d 7c bc e2 3d
       0.08254419 0.024167154 0.06626113 0.11071107
0002f0 dc d2 5d 3c 3c 0f 50 bc 2c 82 b7 bd 0f d4 45 bc
       0.013539042 -0.012698945 -0.08960375 -0.0120744845
000300 aa 45 0e bd e6 db 2d 3d e9 da 93 3c a7 10 8a bd
       -0.034734406 0.04244604 0.01804872 -0.067414574
000310 12 0e e1 3d 1a bf 16 bd 34 64 fd bd 7d 10 90 3d
       0.10989012 -0.036803342 -0.12372628 0.07034395
000320 ba bd 11 bd 36 9f c2 3d 1c e0 a0 bd 91 40 14 be
       -0.035581328 0.09503023 -0.078552455 -0.14477755
000330 d1 0e 02 3e c4 7f 8b bd 96 25 dd 3d 58 7a 8f 3d
       0.12700965 -0.06811479 0.107981846 0.07005757
000340 02 c3 cf 3d e1 7a 91 bd 41 29 86 bc e2 71 5c 3d
       0.10144617 -0.071035154 -0.016377093 0.053819545
000350 2c 3b 10 3d f4 94 94 3d 5e c3 de bd 8b 12 6c bd
       0.03521268 0.07254973 -0.10877107 -0.05763487
000360 44 26 e0 3d a8 48 8f bd be fa 90 bd 16 84 17 bd
       0.109447986 -0.0699628 -0.07079075 -0.0369912
000370 2c 67 a7 3d 74 42 b6 3c a0 dc 9f 3b de df da bd
       0.08173975 0.022248484 0.0048785955 -0.106872305
000380 ed 73 55 3d 00 2b c2 bd 14 c4 1f bd cd f9 08 3e
       0.05211251 -0.09480858 -0.039005354 0.13376541
000390 33 46 17 bd d3 86 11 3d 06 2f d3 bc c6 81 d8 3d
       -0.03693218 0.03552897 -0.025779258 0.10571627
0003a0 f5 f1 f0 3c 26 8f 4e bd 34 68 0f 3e 72 39 ae bd
       0.02941225 -0.050429486 0.14004594 -0.085070506
0003b0 70 89 dc 3d 28 7c ed bd 52 f9 98 3a dc 38 e7 bd
       0.107684016 -0.115959466 0.0011670983 -0.11290142
0003c0 fb 90 41 3d 8d 62 f9 3c 42 49 6d bc c4 63 71 3d
       0.047257405 0.0304425 -0.014482798 0.058933035
0003d0 df 15 96 3c 38 d9 eb 3d 6d f3 ed 3c b8 be ad bd
       0.018320976 0.115160406 0.029046739 -0.08483642
0003e0 4c 51 f4 bb 22 77 8b bd 82 23 b3 3d b9 5e 9b 3b
       -0.0074559804 -0.06809832 0.08747007 0.0047415164
0003f0 bb 1e 04 bd 0b d2 19 3e b8 be 67 bd 66 0e 07 3d
       -0.03225587 0.15021531 -0.056578368 0.032972716

fc3.bias f4 [32]
000000 a2 17 bb 3d 62 10 95 bd d6 13 cf bd 0b 4a 8a 3d
       0.09135367 -0.072785154 -0.10111205 0.06752404
000010 5e 1c 5b 3d 01 98 4b 3e 42 9e 5a 3c 20 e8 16 3d
       0.05349385 0.19882204 0.013343396 0.036842465
000020 ee 86 d6 bd 69 f2 89 bd 42 82 53 3d 8c 69 0f be
       -0.104749545 -0.06735689 0.051637895 -0.14005107
000030 3c ea 33 bd bb 84 10 bd 69 69 0f 3d b3 68 c8 3e
       -0.043924555 -0.03528283 0.035012636 0.3914238
000040 43 26 fb 3d 98 8d b9 bd 76 d9 82 3d 48 9a a0 bd
       0.12263157 -0.0906021 0.06389134 -0.07841927
000050 0d da 35 be 33 55 a1 bd 74 27 bf 3d 03 88 d8 bc
       -0.17758961 -0.078775786 0.09333697 -0.026432043
000060 96 32 82 3e 44 27 70 bd 40 1e b6 3d 5f b7 75 3d
       0.2542922 -0.058631197 0.088924885 0.05998933
000070 82 f9 c0 bd 47 9a 95 bd aa f1 5c bb 85 20 b3 3c
       -0.0942259 -0.07304817 -0.003371338 0.021866092

fc4.weight f4 [14, 32]
000000 99 3d 23 3d 97 29 1d 3e dc aa cb 3d 0c ca 0c 3e
       0.039853666 0.15347897 0.09944698 0.1374895
000010 d1 05 c9 3c 7d 3a b5 3d e8 a4 ca 3d 4d 8b 40 3e
       0.024538906 0.088490464 0.098947346 0.18803139
000020 ec 67 06 3e f8 c6 91 bd 3b cf 7b 3e ad e1 31 3c
       0.1312558 -0.071180284 0.24590771 0.010857028
000030 18 72 9f 3c dd 92 2e 3e 01 6d 2c bd f7 39 b1 3e
       0.019463584 0.17048211 -0.04209614 0.34614536
000040 7c 33 9b bd 42 8e 6f bb 99 63 29 3e 55 4d 00 bd
       -0.07578179 -0.0036553298 0.165419 -0.03132375
000050 6b 71 e9 bc 4b 32 63 3d 8b 8f 23 3e 26 66 2f bc
       -0.028496465 0.055467885 0.15972726 -0.010705506
000060 e9 2d 1d 3e f6 20 30 be 34 fb 2d 3e 30 ae e7 3c
       0.15349545 -0.17200074 0.16990358 0.028281301
000070 16 70 fd bd 99 76 bf bd 15 be 32 3e de b9 1f 3e
       -0.12374894 -0.093487926 0.17455323 0.15598246
000080 c2 ec e6 bc 46 83 2a be 25 9c 08 3e ef 44 81 bd
       -0.028189067 -0.1665164 0.13340814 -0.06311976
000090 11 53 26 be 06 f5 a0 bd 7a 99 34 bc 74 e0 cb bd
       -0.16242625 -0.078592345 -0.01102292 -0.099549204
0000a0 4c d5 3a bd c2 1b a7 bd 58 53 09 3e 2c 2a df 3d
       -0.045613572 -0.08159591 0.134107 0.108967155
0000b0 85 ad 99 bd e8 d3 1c be 7b c3 11 3c 60 c8 c7 3d
       -0.07503799 -0.15315211 0.008896704 0.097550154
0000c0 58 ce ce 3d ce ac 24 3e 87 3a 1d 3d 93 6f 08 3e
       0.10097951 0.16081545 0.038385894 0.13323812
0000d0 93 46 92 bd 7c 13 21 bd 68 33 48 be c0 55 c2 bc
       -0.07142367 -0.039325222 -0.1955086 -0.02372253
0000e0 68 00 62 bd 7f 19 2d 3d 33 9f d4 3d 5d 03 23 3d
       -0.05517617 0.042260643 0.10381927 0.03979813
0000f0 91 7c 84 3d 9f 15 1a be 37 76 d3 3d 71 19 02 3c
       0.06469072 -0.1504731 0.10325282 0.007940636
000100 3d 6b 00 3e 89 2b 0f 3e 5d 2a 43 3d 29 1b 24 3d
       0.12540908 0.13981451 0.047647823 0.040064964
000110 96 ac 24 be a7 b8 35 3d 0d 9c 55 be 66 2f 7b bd
       -0.16081461 0.04436555 -0.2086031 -0.0613245
000120 01 3b 5a 3c 2a 58 8d bd a9 ef 75 3d 11 d7 0e be
       0.013319732 -0.069015816 0.06004301 -0.13949229
000130 8a fd d5 bd 04 b3 27 be 8c 6b b5 3d 7f fc 2e bd
       -0.10448749 -0.16376883 0.088584036 -0.042721268
000140 0d dc 98 bd a2 84 96 bc a9 3a 22 3e d0 fe ee bb
       -0.07463846 -0.018373791 0.1584269 -0.0072935596
000150 1c 04 da 3d e3 75 03 be 5e 6f 49 3d fd 5a a7 3d
       0.10645315 -0.12837939 0.049178474 0.081716515
000160 76 70 cc bd 47 db 06 be 6d 27 0e 3e 01 d6 9b bc
       -0.09982388 -0.13169585 0.13882227 -0.019022943
000170 5f af 67 bd 24 93 04 be d7 cf ab 3d 3f 76 64 be
       -0.05656373 -0.12946755 0.08389252 -0.22310732
000180 f6 4b 56 3d d1 7d 0c bd fa 73 cf bd 5e 9b 20 3e
       0.052318536 -0.034299675 -0.10129543 0.15684268
000190 08 6d 9a bd 3e e2 a9 3d 7a d0 5e bc 19 66 9d 3d
       -0.07540327 0.082951054 -0.013599509 0.07685489
0001a0 36 18 b4 3d 76 d0 ae 3c 9b 52 d5 bd da e1 42 3d
       0.0879368 0.021339636 -0.10416146 0.04757867
0001b0 69 d2 e7 3b c3 ca b8 bb b2 bf 01 be f3 21 53 bd
       0.0070746434 -0.0056394055 -0.12670782 -0.05154605
0001c0 6f a1 44 3d fe 58 4d bd c2 b4 22 be e5 60 2c 3e
       0.048005518 -0.050133698 -0.15889266 0.16833837
0001d0 96 2a a1 3d 56 29 2b bb 15 50 06 3e a4 b4 1a 3e
       0.07869451 -0.0026117167 0.13116486 0.15107971
0001e0 c2 21 33 be 14 a6 14 be d1 8e 96 3d 39 e9 81 bd
       -0.17493346 -0.14516479 0.07351459 -0.06343312
0001f0 4a f5 72 3d fb ab 6c bd 80 4f b5 3c db aa 2a bd
       0.059315957 -0.0577812 0.022132635 -0.041666847
000200 35 9d 36 3e 8f 73 e9 bc b2 3d 6a bc 90 27 33 3e
       0.17833407 -0.028497485 -0.014296936 0.1749556
000210 fb 3d 6d bd 17 96 99 3d 4f c6 0f 3e 56 49 11 bc
       -0.057920437 0.074993305 0.14040492 -0.008867582
000220 2b bb 77 3d ac fa b9 bd c4 06 c3 3d 71 83 c6 3d
       0.06048123 -0.09081015 0.09522775 0.09693039
000230 33 54 b1 bd 25 22 04 be f4 23 b6 bd 99 04 41 3e
       -0.08658638 -0.1290365 -0.08893576 0.1884941
000240 91 10 76 3d c0 c8 a9 3c 08 18 3f bc 04 eb 46 bc
       0.060074393 0.020725608 -0.011663444 -0.012140993
000250 5c e1 e9 3c 15 68 8e bc bf 26 11 3d a8 15 a3 3d
       0.028549843 -0.017383615 0.03543734 0.07963115
000260 a6 99 71 bd 0d 36 5f 3d 93 30 a3 3c e3 ec 65 bd
       -0.05898442 0.054494906 0.019920623 -0.056134116
000270 8b e5 2c 3e 32 55 bd 3d 32 73 5e bc 8c 56 96 3d
       0.16884439 0.09244765 -0.013577269 0.07340726
000280 02 ee b0 3d 8f b3 57 bd 7b d1 e2 3d d2 7d 29 3e
       0.086391464 -0.052661475 0.110751115 0.16551903
000290 a5 51 44 bd bc 02 8d bd d8 8d 10 3e 74 fb 0e 3e
       -0.047929425 -0.06885287 0.14116609 0.13963109
0002a0 13 32 1b 3d e2 e7 24 be c8 48 a3 3a 7f 15 68 3d
       0.03788955 -0.16104081 0.0012457604 0.056661125
0002b0 fe 93 7f 3d e3 f4 06 be 4b 2b 95 bd bb 98 de 3d
       0.062396996 -0.13179354 -0.07283648 0.10868975
0002c0 c0 ff 87 bd 40 7e 2e be 3c c1 b9 bc 1a 1d 33 3e
       -0.06640577 -0.17040348 -0.02267515 0.1749157
0002d0 f5 8a 92 bd 05 d7 8c 3b bb 3a 0f be 98 d1 8b 3c
       -0.0715541 0.0042980933 -0.13987248 0.017067716
0002e0 d5 48 ff bc cc 2c 0d 3e eb 18 d1 3d 05 43 a1 bd
       -0.031162659 0.1378662 0.10209831 -0.07874111
0002f0 a0 2a 98 bd e4 84 1c bd 2d ab 26 be 62 c6 29 be
       -0.07430005 -0.038212672 -0.16276236 -0.16579583
000300 33 e8 5d 3d 9b a1 23 3e 88 95 0b be 22 0b 6b bc
       0.05417652 0.15979616 -0.1363126 -0.014345916
000310 ba c4 03 be e6 6a 2c 3d a1 c0 19 3e 99 82 1f be
       -0.12868014 0.042094134 0.15014888 -0.15577163
000320 52 ff 50 bd 00 3e 13 3e 8c 6c 93 bb 1b 22 0c 3e
       -0.051024742 0.1437912 -0.004499024 0.13684885
000330 ea 57 cc bd ce a6 06 be 00 a7 93 bc c6 db 95 3c
       -0.09977706 -0.13149568 -0.018023968 0.018293273
000340 71 d0 88 bc c3 5d f3 3c 3e 4c 66 3d ec bb 93 3c
       -0.016700955 0.029707795 0.056225054 0.018033944
000350 3f 6f 9e bd ca 82 83 bd 68 55 4d bd b4 f0 85 3c
       -0.07736062 -0.064214304 -0.050130278 0.016350128
000360 b3 7d 8a bc 12 98 b1 3d 22 f1 bd bd 29 bb 44 bd
       -0.016905641 0.08671583 -0.09274508 -0.048030052
000370 32 ac 1d 3e 0b 1d cf 3d 7f 22 09 be 0a 7d b4 bd
       0.15397719 0.101129614 -0.13392065 -0.08812912
000380 50 9f 69 3c 6a 08 17 3e 7c df 1d bd af 7f c1 3c
       0.0142591745 0.14749303 -0.03854321 0.023620455
000390 a0 9a df bd 76 7c 1a 3c fa f6 68 3c e3 76 01 be
       -0.10918164 0.009429088 0.01421904 -0.12643008
0003a0 4a 4e 0a 3e 3a 09 18 ba 82 7b ae bc db be f8 bc
       0.13506427 -0.00057997147 -0.021299127 -0.030364444
0003b0 7b 26 59 3d 86 e4 a4 3d 4a 33 4c bc 2c 73 3e 3e
       0.053015213 0.080514 -0.0124634 0.18598622
0003c0 a2 c2 84 bc 39 c5 62 3d 7f db 0f be 36 6e ce bd
       -0.01620609 0.055363867 -0.14048575 -0.10079615
0003d0 f4 b3 13 3e 15 18 be bd 52 52 a0 3d b4 db 51 bd
       0.14424115 -0.09281937 0.07828201 -0.051234916
0003e0 41 16 49 3e 14 b0 51 bd 13 7d 0d be 7b ff 1a bd
       0.19637395 -0.05119331 -0.13817243 -0.0378413
0003f0 9d 27 ef 3d 53 2e c0 3c 1a 44 02 3e 00 dd 94 bd
       0.116774775 0.02345959 0.12721291 -0.07268715

fc4.bias f4 [14]
000000 70 40 3d 3e e8 d0 ae bd 3c 7c 92 bd d1 ca 70 bd
       0.18481612 -0.085359395 -0.07152602 -0.05878717
000010 7d be 39 bc 71 4f 86 3d 13 b3 d9 3d e0 b7 99 bd
       -0.01133692 0.06558121 0.10629859 -0.075057745
000020 2c 13 7a bd f7 b6 eb 3c c9 ed 1e 3e ba a6 a0 3e
       -0.06105344 0.028773768 0.15520395 0.31377202
000030 d5 50 a0 bd c7 ac 18 3e
       -0.078279175 0.1490966
