saved_models/q_network.pth (torch, 79192 bytes, 8 tensors)

fc1.weight f4 [64, 23]
00000000: 93b3 fcbd 1639 ddbc 2c24 9ebc 314f 30be
00000010: 1ce5 2d3e 0886 0d3e d753 fbbc afed 03be
00000020: 9ef6 36bd 2ed5 703d 2fa4 98bd 65a0 0fbe
00000030: f716 d83d 430f 0dbe 47cb 1d3e 55ca 03bd
00000040: 798e ee3d 5420 ad3c 2249 b93d 330c 323e
00000050: 4b2c 5cbe 0bcc d33d 91e9 08be 9508 3bbd
00000060: e759 2e3e 1393 56be 5b46 b3bd 12d9 e23d
00000070: 3d12 5cbe 7be0 0a3e 00c4 d8bd 33d7 39be
00000080: 974f 69bd d76e 9f3d c08c 38be 5760 5a3e
00000090: fe31 1c3e d88b 18bd 868c 363e b46b 2bbe
000000a0: fa01 33be 6111 213e 2f81 02be 161e 103e
000000b0: 8aff d4bd fa37 8bbe de69 7dbe f3a6 fbbd
000000c0: b65f 84bc f5d3 20be e621 a33a be40 d2bc
000000d0: 406d 993d a1ab 64be 4384 b33d ddc6 16be
000000e0: 867c 28be 38e5 f6bd d246 35be a52f 30be
000000f0: d925 34be 3163 44be 7697 95bd 0045 58be
00000100: 067b 2e3e 127b b23d c092 3c3e d0f0 0cbe
00000110: ba4f e93d 4218 253e 9eef 3fbe 6f47 f4bd
00000120: 78e8 0bbe 3e7c 833d 8fd4 db3d 0623 cebd
00000130: 067b 023d e25b 25be 8530 4b3e 9285 df3c
00000140: 0e12 a3bd 9f2e a4bb 4311 80bd 78c2 3c3c
00000150: ca68 2bbd 8c9c 5f3d da9d 433c 239d 983b
00000160: 6f30 09be e192 933d e521 05be cd0c 3bbc
00000170: 7fe4 c53d 5d31 263e ecd9 183e 8972 b03d
00000180: 017b 0b3d 1ea4 d0bd 6566 00bd ba4c 183e
00000190: 1469 06be c39d 4ebc 562e 4abd e287 ca3d
000001a0: 1654 04be 87bb 81bd 800c afbd b875 f9bd
000001b0: fd30 d3bd df78 04be f811 923d ed7c 543c
000001c0: 9288 1fbe 2a5d 043e 0442 bc3d 6fc7 debd
000001d0: 5aad 69bd f94e d43d 4e48 85bd dc20 35be
000001e0: 9975 af3d de64 1abe ad3b 9fbd 7e84 aebd
000001f0: e701 a83d a348 a63c 31a8 503e 421d 12bd
00000200: 9472 10be 03be 72bd 44dd 0d3b e406 a23d
00000210: abf0 2d3e 65eb 8abd 4259 4d3e 95d3 433d
00000220: b257 a6bd e1d3 00be 0fba 183e 4fd1 163d
00000230: 4729 01be 1582 13be fb3e 87bd f191 033d
00000240: c0bb 463e e535 26be ff56 14be 2fc9 08be
00000250: 2ea7 a0bb 1e2f cc3b a0f7 0bbe e002 31be
00000260: 2198 dfbd 1c7f 833d 7579 c2bc cb0a 9abd
00000270: 44af fbbc f850 05be f59f 2dbe 78e7 1bbe
00000280: 09d0 903d 794b 3cbe b261 003e c6e7 61be
00000290: 8f25 0fbe 5c62 073e 753e 90bd 8ef9 d83c
000002a0: f696 01bd ce24 043e f6a1 9bbd e8e8 d0bd
000002b0: 9916 a33d e0ff ee3d 875e e3bd 0324 6fbe
000002c0: 1527 8abd 6288 5bbd 09c4 97bd 693c e8bc
000002d0: d5be ebbd 128b 3bbe b975 223e 03fb d73d
000002e0: 0353 043d 4b7e 8b3d a474 023e 26dd 0f3e
000002f0: 1230 263e 675d debd bbad c1bd d2d4 89bd
00000300: e5fb 993d 2b96 5e3d ae3f 593e 30a7 063d
00000310: ed30 513d e976 863e 507b 44bd 119d 303c
00000320: 4830 bdbd 0996 8abd 3887 ccbb ad55 233e
00000330: 4b17 7a3d e625 65bd 8004 2bbe facc 913d
00000340: e649 4e3d a7b6 413e 23a8 b9bd 060f 103e
00000350: 39ce 543e cf02 6b3e 95c3 b0bd eb87 89bc
00000360: ab10 bc3d ef3d 9ebd ca93 0b3e f756 363e
00000370: 27f0 08be 032e 9c3d d1a1 36be c597 f1bb
00000380: 4d9e 61be 557a d83c fb52 d938 fb0c 8abd
00000390: 0e4c f33c c1ac 133e d1e0 ee3d 857b c63c
000003a0: 3304 1e3e a786 54bd 8d0f 443e 6cc2 403e
000003b0: 8034 11be 9ff4 853d a6e2 f7bc 2395 c7bd
000003c0: c7f6 a33d f097 9fbd a6c3 463e cc11 41bd
000003d0: 08fd 293e 9ce7 073d 7645 313e cdce da3c
000003e0: 19ee 4d3e 9b05 353e 42e0 aebd fe9c 073e
000003f0: 3307 4e3e d1ad b73c fb52 35be d95d 2c3c
-0.123389386 -0.02700476 -0.019304357 -0.17217709 0.1698193 0.1382066 -0.030679626 -0.12883638
-0.044668786 0.058797054 -0.074531905 -0.1402603 0.10551255 -0.13775353 0.15409575 -0.03217538
0.11648268 0.02113358 0.09047152 0.17387466 -0.21501271 0.103416525 -0.13370349 -0.04566248
0.17026483 -0.20954542 -0.087536536 0.11076559 -0.21491332 0.13562195 -0.10584259 -0.18148498
-0.05696067 0.07784813 -0.18022442 0.21325813 0.15253446 -0.03724274 0.17827043 -0.16740304
-0.17481223 0.15729286 -0.12744592 0.14073977 -0.10400303 -0.27191144 -0.24747416 -0.122877024
-0.01615892 -0.15705855 0.0012446016 -0.025665637 0.07491541 -0.22331096 0.08765461 -0.14724298
-0.16453752 -0.12055439 -0.17702797 -0.17205675 -0.17592563 -0.19178464 -0.073042795 -0.21120071
0.17039117 0.0871488 0.18415356 -0.13763738 0.1139216 0.16122535 -0.1874375 -0.119276874
-0.13662899 0.06420182 0.10733902 -0.10065274 0.031855606 -0.16148332 0.19842727 0.027285371
-0.07962428 -0.0050104405 -0.062532924 0.011520974 -0.04184798 0.054592654 0.01193949 0.004657404
-0.13397382 0.07205749 -0.13001211 -0.011416626 0.09662723 0.16229768 0.1492688 0.08615596
0.034052853 -0.10187553 -0.03134765 0.14873019 -0.13126022 -0.0126108555 -0.049360596 0.09889199
-0.12922701 -0.06334596 -0.08547306 -0.12180656 -0.10312078 -0.12936734 0.071323335 0.012969238
-0.15579441 0.12926164 0.09192279 -0.10877883 -0.057050087 0.10366625 -0.06507932 -0.17688316
0.08567352 -0.1507754 -0.07775054 -0.08521365 0.08203488 0.020298308 0.2037666 -0.035672434
-0.14106208 -0.05926324 0.0021646777 0.079114705 0.16986339 -0.06783179 0.2005358 0.047809202
-0.08122195 -0.12580825 0.14914726 0.036820706 -0.12613402 -0.14405091 -0.066038094 0.032121602
0.19407558 -0.16231497 -0.14486311 -0.13357995 -0.004902742 0.0062312027 -0.1366868 -0.17286253
-0.10917688 0.064207286 -0.023739556 -0.0752159 -0.030723222 -0.13019168 -0.1695555 -0.15225017
0.070709296 -0.18388166 0.12537268 -0.22061071 -0.13979171 0.13221115 -0.07043163 0.026486184
-0.03163811 0.12904665 -0.07599251 -0.10200673 0.079632945 0.11669898 -0.11102014 -0.23353581
-0.067457356 -0.05359686 -0.074104376 -0.028349118 -0.11511008 -0.1831477 0.1586522 0.105459236
0.03230573 0.06811198 0.12739807 0.14049205 0.16229275 -0.10857659 -0.094569646 -0.067300454
0.07518748 0.05434243 0.21215698 0.032874286 0.05107205 0.26262596 -0.047969162 0.010779635
-0.092377245 -0.06766898 -0.0062417053 0.15950651 0.06105737 -0.055944346 -0.16700935 0.07119174
0.050363444 0.18917333 -0.09065273 0.14068231 0.20781793 0.2295029 -0.08631054 -0.016788444
0.09182867 -0.07726657 0.13630596 0.17806612 -0.13372861 0.076259635 -0.17835166 -0.0073728287
-0.22033043 0.02642552 0.00010362823 -0.06740757 0.029699352 0.14421369 0.11663974 0.02422882
0.1543129 -0.051886227 0.19146557 0.18824166 -0.14180183 0.065407984 -0.030259442 -0.097452424
0.080060534 -0.07792652 0.19410571 -0.047136113 0.1660043 0.033179864 0.17311653 0.026709938
0.20110358 0.1767792 -0.085388675 0.13243482 0.20119934 0.02242175 -0.17707436 0.010520422

fc1.bias f4 [64]
00000000: 6264 d53d 43e8 3b3d cc34 063e 50f4 123d
00000010: 7070 49be c837 563e 3f33 403e 7175 38be
00000020: ec65 bbbd 7728 ddbb 701f 203e eaeb 0dbc
00000030: 7e40 18bd 5fa3 cabd 2bf3 7c3e 77df ff3c
00000040: 2bdd 1a3d bb77 3cbd bb88 ed3d d6ee 6e3d
00000050: ea26 0cbe c2e1 4a3e 445c 9cbd 5720 893d
00000060: 4fa2 11be d1ba 153e b3b7 053e 9f45 c43d
00000070: 3a92 febd 8dcc 49be 0476 773e 0698 0fbe
00000080: bb61 6e3e 97c3 79be 7a62 2f3e 2479 c83c
00000090: 7d73 5bbe 552f d33d 1c00 353e 2a19 1dbe
000000a0: 6743 a5bd 94da d7bd fae1 0dbe 6839 803e
000000b0: 5994 163e 158c 143e 97ae 1abe 162f 303e
000000c0: d59f 1d3e d4f3 3e3e 2179 6f3d f815 403e
000000d0: cf5f 56be 22d3 a53d 48c5 b03d dd2c fa3d
000000e0: 16d2 16bd 9e79 33be 0652 93be 781e 313e
000000f0: 720b f63d 505a ddbd 8b57 933b 963c 25be
0.10419537 0.0458758 0.13106078 0.035877526 -0.19671798 0.20919716 0.18769549 -0.1801355
-0.091502994 -0.0067492086 0.15636992 -0.008662203 -0.03717088 -0.09894442 0.24702136 0.031234486
0.03780858 -0.04601262 0.11598345 0.05833324 -0.1368672 0.19812682 -0.07634786 0.066956215
-0.14222072 0.14622046 0.13058357 0.09583592 -0.12430234 -0.19706936 0.24166113 -0.14022836
0.23279469 -0.24391018 0.1712741 0.024471827 -0.21430774 0.10311762 0.17675823 -0.1534163
-0.080694966 -0.10539737 -0.13855734 0.25043797 0.14705028 0.14506562 -0.15105663 0.17205462
0.15393002 0.186477 0.058465127 0.1875838 -0.20934986 0.08096911 0.086313784 0.12215588
-0.036821447 -0.17526862 -0.28773516 0.17296779 0.12013902 -0.10808241 0.00449652 -0.16136393

fc2.weight f4 [128, 64]
00000000: d8a3 6cbd 419a 7dbd 494f 7cbd 62ff 9d3d
00000010: 2f2e 023e 7860 143d ad3b 573d f2ec 81bd
00000020: 23ca 703b 5f1e 043e 8fcb e33d 7d86 4abd
00000030: 28f3 d9bd 8fcf c5bd 0b2c 28be e5d5 45bd
00000040: 64fa 793d 5571 5ebd 4aec 153e 7dcd 1dbe
00000050: 5a16 d5bd 4005 c63d 01a2 a83d 2d64 e1bc
00000060: 83b3 0d3d 391f 753d 7613 5bbd 503e 80bd
00000070: c5f5 1abe d475 3ebe 4086 b5bd c46d 083e
00000080: d013 6cbd d836 1cbe af64 38bd 60f4 9e3d
00000090: 5561 8cbd 018f af3d 3b30 6c3d 0961 a7bd
000000a0: 3ca2 56bd d4ca b0bd 532b 1b3c 023d e9bd
000000b0: bf53 efbc f8d5 1d3e fc7f b83a 21f3 fdbd
000000c0: 0570 b53d ac8d 18bd 8e8b ec3d a751 143d
000000d0: d493 af3d d3a4 a33d f629 033e 2f46 483d
000000e0: 5f60 7dbd 0752 b9bd eacc babc 30f4 87bd
000000f0: e72a 2fbd 54e0 f23d f7c3 0b3e 1eeb 8fbd
00000100: 7a9c 873c de8a 3a3d f77e 55bc b544 95bd
00000110: 8dde 173e 66a9 bf3c 6e06 933d 1461 143e
00000120: 0564 7cbd e9fd e73c c678 cf3d 40c2 3cbc
00000130: 388c 0dbd bc0d edbd 9158 80bd 89d9 a13c
00000140: 2644 aebd f944 953d ce47 29bd a18e 493d
00000150: 5eb5 133c be8c e03d 496e 1bbd 5782 41be
00000160: e3cf 023e 76bf 363d d44d 693d 586d 9f3b
00000170: a47d 7a3d ceed 28bc 7e06 4cbe 5ef5 453e
00000180: bab0 3cbd 05d6 d9bd 0b88 0b3d e650 61bc
00000190: 5d32 06be 6e16 213d d06e ce3d a677 803d
000001a0: 279d 023e d39e 123d 20d8 78bb 517d 273c
000001b0: fcee 213e ab06 313d a468 2e3d be5a 30bd
000001c0: 8e37 b93d 3972 053d 5a49 893d 90cd c13c
000001d0: 6d57 99bc ccca 84bd cf89 2a3d 0a53 83bd
000001e0: 3b0e cabd adf9 19be 210c d83d 9005 c53d
000001f0: 5135 8ebd f4a4 f93d dd8a 013e 63b9 f7bd
00000200: fac8 e5bd 6798 1a3d b0c7 ae3d 0f1a 64bd
00000210: e7d8 f5bc 45ec 61bd 1ae3 28bc 3b28 043e
00000220: a412 8fbd 5406 c93d 96ad 12bd 61d6 33bd
00000230: d28f 783d ca64 813c 06c5 0e3d b296 973d
00000240: a6bb cbbc c7b2 513d 7c15 a7bb 5e6d d03d
00000250: 6ff8 063e 66fe 083e 854a eb3d 1e3d 85bd
00000260: e814 a23d 9fae 643d bdcc dd3d 66d4 523b
00000270: d047 a13d 4167 b63d a233 26bd 9f2b b4bd
00000280: f078 bf3c 56f0 ecba 1822 613d 6f18 21bd
00000290: 9cf7 60bc 642b 22bc e589 99bd 9550 b2bd
000002a0: 5eea 023e ed4a 94bc 3c42 3e3c a6f2 dd3d
000002b0: aed5 5fbd a471 9b3c e344 3e3d 97ff 93bd
000002c0: 404b 4a3d 3d51 3c3e 92f9 863d 1ad8 c8bd
000002d0: e15f f63d 5589 fa3c 468e fc3b 3f35 53bd
000002e0: fab6 fbbd 0b17 13be 083d b0bc 8c18 78bd
000002f0: cc38 86bd e6fa cfbd 25b9 86bd 6147 4b3e
00000300: 87e4 023d adbc 6ebd 3aef d5bd 9bd1 e33d
00000310: 122a 0abd dcab 16be 0dca a13d cf17 113d
00000320: 8d7d 55bc 3219 79be e4ee 5d3d 85ef 183d
00000330: 4afc 3abd 0e86 52bd 2344 f0bd 8a56 9f3d
00000340: 6077 ca3d c6e7 db3c 5ade 5b3d 469f 5a3d
00000350: 9091 c6bd 78aa 95bd cd47 0e3d 440f e1bc
00000360: 9da1 0f3e 6658 673d 09ac aabd 32c3 09be
00000370: f6bc cd3b f671 a5bb 4362 053d 2dfc c53d
00000380: 993b 11be 91f5 33bd 80ca 123c 995e 14bd
00000390: 4e18 2c3d 4fdf e53d 4b17 143e 4ef6 9f3d
000003a0: c7ce cdbd 7302 07be 0070 d0bb 7d90 7abe
000003b0: e664 51bd 0353 ffbd b69f 8cbd 822c fe3d
000003c0: 8484 38bd 072a 58be cfb3 403d a86f c239
000003d0: dfa7 963d 2222 eabd 6331 06be febd 23be
000003e0: c416 d83d e130 1b3d 3cd5 a03d 0209 b6bd
000003f0: 27f8 11bc db43 9e3d eae0 433d 9262 8abd
-0.05777344 -0.061914686 -0.06159905 0.07714726 0.1271293 0.036224812 0.052547146 -0.06344022
0.0036741577 0.1290221 0.1112281 -0.049444664 -0.106420815 -0.09658729 -0.16423051 -0.04829969
0.061029807 -0.0543073 0.14640918 -0.15410419 -0.10404654 0.0966897 0.08234025 -0.027513588
0.034595024 0.05984423 -0.053485356 -0.06261885 -0.15132816 -0.18599635 -0.08863497 0.13323122
-0.057636082 -0.15255296 -0.045017894 0.077614546 -0.06854502 0.08572198 0.057663184 -0.08172805
-0.052400813 -0.086324364 0.0094707785 -0.113885894 -0.029214738 0.15413654 0.0014076228 -0.12399889
0.08859257 -0.037244484 0.115500554 0.036210682 0.08573118 0.07990422 0.12808976 0.048895057
-0.061859485 -0.090488486 -0.022802789 -0.06638372 -0.042765524 0.118591934 0.13648973 -0.07027267
0.016554106 0.04554259 -0.013030759 -0.072884955 0.1483099 0.023396205 0.07178961 0.14490157
-0.061618824 0.028319316 0.101304576 -0.011520922 -0.03455755 -0.11574885 -0.06266893 0.01975705
-0.08509092 0.07288546 -0.041328244 0.049208287 0.009015409 0.109643444 -0.037946973 -0.18897377
0.12774615 0.044616185 0.05695899 0.0048653297 0.061154976 -0.010310603 -0.19924352 0.19331881
-0.046066977 -0.10636524 0.034065288 -0.013752198 -0.1310515 0.03932803 0.100797296 0.06272821
0.12755261 0.035795998 -0.0037970617 0.010222749 0.15813822 0.04321925 0.04258026 -0.04305529
0.09043799 0.032579634 0.06703444 0.02365759 -0.018718446 -0.06483993 0.04163533 -0.06412323
-0.098659955 -0.1503665 0.105491884 0.096202016 -0.06943763 0.121896654 0.12650628 -0.120959066
-0.11219974 0.037743 0.08534181 -0.055688914 -0.030010654 -0.055156965 -0.0103080515 0.12905972
-0.06985977 0.0981566 -0.035810076 -0.04390562 0.060684033 0.01579513 0.034855865 0.0740179
-0.024869751 0.051195886 -0.0050989967 0.1017711 0.13180707 0.13378295 0.11488823 -0.06505798
0.07914144 0.055830594 0.10830066 0.0032170056 0.07875025 0.08906413 -0.040576585 -0.087973826
0.023373097 -0.0018076997 0.054964155 -0.039329942 -0.01373091 -0.00989804 -0.074970044 -0.08706776
0.12784716 -0.018102134 0.011612471 0.10837297 -0.05464714 0.018975087 0.046452414 -0.07226484
0.04938817 0.18390365 0.065905705 -0.09806843 0.12030006 0.030583063 0.00770739 -0.05156445
-0.122907594 -0.14364259 -0.021513477 -0.060570285 -0.06553802 -0.10155277 -0.06578282 0.19851448
0.031956222 -0.058285404 -0.104460195 0.111239634 -0.033731528 -0.14713997 0.07899866 0.035423096
-0.013030422 -0.24326017 0.054182902 0.0373378 -0.045650758 -0.051397376 -0.11731746 0.07780178
0.0988605 0.026843917 0.053678848 0.05337455 -0.096957326 -0.07307905 0.034736443 -0.0274731
0.14026494 0.056480788 -0.08333594 -0.13453367 0.0062786294 -0.0050489856 0.032564413 0.09667239
-0.14182891 -0.043935362 0.008959413 -0.036223028 0.042015366 0.11224233 0.1446201 0.07810651
-0.10049205 -0.13184528 -0.0063610077 -0.2446918 -0.051121615 -0.12467005 -0.068664 0.12410833
-0.04504825 -0.21109782 0.04704648 0.00037085754 0.073562376 -0.114322916 -0.13104777 -0.15990445
0.10551217 0.03788841 0.07853171 -0.08888437 -0.008909262 0.07727786 0.047821917 -0.06757082

fc2.bias f4 [128]
00000000: 2143 95bd 59a8 46bb f024 0c3e 2bf4 2dbe
00000010: 3f25 12be 31aa 32be f5b0 4fbe 4d20 01be
00000020: 5573 3cbd 2de7 61bc 40cb 6a3e 06e8 66bc
00000030: 6275 4ebe 7009 b73c 5c3a dbbd 59ed a6bb
00000040: 8cb3 7bbd f68f 7c3c 59f1 063e 2d81 433c
00000050: 73eb 9b3d 9c6a 2cbd 3016 193c fc6e 263e
00000060: 6d52 c5bd 85d5 1bbe f1a2 ca3d cc43 85bc
00000070: 09be 33bd 00cd e1bd c80a 1a3d ce95 c03c
00000080: d5e9 d8bd 775a 00be ac72 4dbc a59a 17be
00000090: 2775 1b3e 1bc4 56bd 19fa 2c3e 09c6 7dbe
000000a0: f4aa 3b3d aeed 97bd eaf4 ce3c 37e0 9a3d
000000b0: 88c2 913d bf27 e73c 6da0 27bd 246c 583d
000000c0: 3e51 23bd f562 ff3d 71ba b83d 7aca b8bd
000000d0: 77a9 efbb 729e 9fbd e4aa 013d cef6 3dbb
000000e0: 9004 9f3d ed69 803c ac52 74bd 04e6 2c3d
000000f0: f246 333e 49f4 513e 5b45 ce3c 9ab9 543d
00000100: 8bb7 0abe ac7d 2e3e 5587 ddbd 95c2 dabc
00000110: f246 0e3d 45b4 11be 03c1 1abe 818f 8abd
00000120: 7039 b0bd d1ad b1bd 49f1 143d 4875 2bbe
00000130: b201 b4bc 033d 463e aa92 283e 72b9 06be
00000140: 7bc5 4c3d 7789 cf3d f35d 103d 87d5 a43d
00000150: fe2c 663d 6e47 3f3e 664e 93bd bd4f 243d
00000160: 895d a43c 6574 a5bd 4f99 f1bd 0ce8 a8bd
00000170: cf40 123e 00bd 9b3d 7435 f1bd 0eac f9bd
00000180: 9bd8 323d 3ac4 833d 2b37 9a3d a3ea 0fbe
00000190: 11f2 00be 0e20 c5bb 52c4 00bd 848b 2e3d
000001a0: 933a f0bd 4fd3 4d3d eab8 b5bd d0d0 a3bd
000001b0: 7e04 0dbe 9aac fa3c d27d 8dbd 7b63 b73d
000001c0: 2323 4bbb 90bc 08bb ae75 ac3d 7a0d 323c
000001d0: e459 49be c13d f03c 29fd 983c e7cf 1b3d
000001e0: 854c 59bd 204c c93c d21e 763d 0a66 1d3d
000001f0: 063d 4c3e 7e61 423d 68b6 bfbd 0b9f 6e3d
-0.072881944 -0.0030312745 0.13685966 -0.16987674 -0.14272021 -0.17447735 -0.20282348 -0.12609978
-0.046008427 -0.013788027 0.22929096 -0.014093405 -0.20161965 0.022343367 -0.107044905 -0.005094212
-0.061450526 0.015415182 0.13178004 0.011932653 0.07613268 -0.042093858 0.009343669 0.16253275
-0.09634862 -0.1521817 0.0989436 -0.01626768 -0.043882404 -0.11025429 0.037607938 0.023508932
-0.10591475 -0.1253451 -0.012539547 -0.14805086 0.15181409 -0.052433114 0.1689228 -0.24782576
0.04581733 -0.07418381 0.025263269 0.07562297 0.07117182 0.028217195 -0.04092448 0.052837506
-0.0398724 0.124700464 0.09019936 -0.09022994 -0.007313903 -0.07793893 0.031657115 -0.0028986218
0.07764542 0.01567551 -0.059649155 0.042211547 0.17507532 0.20503344 0.025179556 0.051934816
-0.13546579 0.17040128 -0.10816828 -0.026704112 0.034735627 -0.14228924 -0.1511269 -0.067656524
-0.08604705 -0.08675731 0.03636292 -0.16743958 -0.021973465 0.19359212 0.16462198 -0.1315668
0.04999302 0.10133641 0.035245847 0.080485396 0.05619525 0.18679592 -0.07192688 0.040115107
0.020064132 -0.08078841 -0.117968194 -0.082473844 0.14282535 0.07604408 -0.117777735 -0.1219102
0.043663602 0.064339116 0.07530054 -0.1405435 -0.12592341 -0.006015784 -0.031437226 0.04261352
-0.11729922 0.050250348 -0.0887316 -0.07998812 -0.13771245 0.030599881 -0.06908764 0.08954521
-0.0030996285 -0.0020864345 0.08420883 0.010867471 -0.19663197 0.029326322 0.018675404 0.038040068
-0.05305149 0.024572432 0.060087986 0.03842739 0.19945154 0.047456257 -0.09360963 0.058257144

fc3.weight f4 [64, 128]
00000000: 0948 b3bd 21a4 b5bd 6390 013e ac5f e8bd
00000010: 97d6 66bd 75a6 8ebd f750 b63c 7b01 72bd
00000020: d4e8 683c 9cb7 4fbc 36e9 eebb 10b7 dabc
00000030: 04dd d83d f036 603b 0103 30bd 0315 0dbe
00000040: 0700 fabc 60c8 debd 1e69 893c 1247 00bc
00000050: b5b0 efbd 7ee1 c4bc 867e a1bd fa6c b7bd
00000060: 0ccc bb3c 6ddf 55bd 8d72 c93d 110b 6f3b
00000070: 400e 2c3d 5527 eb3d f84d d5bc 5c63 303d
00000080: 5d6d a93d 8766 1c3d b999 30bd be83 1e3c
00000090: 9053 763d 5f66 a73d b059 a83d b68e 63bd
000000a0: d836 ac3d 3a3a 03be d603 89bd 9009 eebc
000000b0: a635 4a3d bf42 b9bc ca3e dabc 3def a83c
000000c0: 03f8 7d3d 15fb 063d d1d4 1b3d 8289 a1bd
000000d0: 6bdc d83d cc71 ccbd 5b57 d03c facf f03c
000000e0: b09a 793c 9b60 943d 9d6d f1bc 0570 333d
000000f0: 399d 9a3c 91b5 8e3d c0f2 8d3d f7b9 b43d
00000100: e8cf b339 c78f 3f3e 081a 0c3e ee02 9ebd
00000110: c80b a93d cb8e e83c 98a6 81bd 65fc 0f3d
00000120: 32bd 4d3d 804e 1dbd 286e dfbd 6ce3 91bd
00000130: a117 113d b1bf 093d 3553 f23d 2056 87bd
00000140: caed 333d d472 1f3d efdf 943d 3799 9a3c
00000150: 1af9 8c3d 6c1b d03d a647 da3d 2829 8a3d
00000160: e69f a2bd 3d1c 1cbd 0c8e 32bc 51a7 91bd
00000170: b398 43bd 7acb e1bc b306 6a3d f4d8 47bc
00000180: 65c1 da3d db29 cc3d fed3 21bd dd1b 9bbd
00000190: 9f66 03be d092 093d be04 81bd 309a 163d
000001a0: 2cce 60bd e06f 75bd 1d81 dcbd 4354 fa3d
000001b0: 8703 c7bc 415c 2a3d 172d 9cbd 51cd 483d
000001c0: f9a5 40bd 902f 863d ee03 3abd fd36 8bbd
000001d0: b85f 71bd c24f f33d 04c6 b03d 2d11 053c
000001e0: 17d6 933c 6af5 c93d 3e26 143e 59c8 b6bd
000001f0: bfe1 2b3d ec5e 9abc f17f cc3d 57ff 3d3c
00000200: 0c38 9e3c f94f 60bd 7fa1 52bd 9cab 26bd
00000210: a7f7 953c 9b6d 81bd f1a2 d6bd 8834 e73a
00000220: 768c 4a3d 2ebe 593b 6e04 64bd 4bb3 03be
00000230: de6c 0dbb e6ff 6ebd e53d c5bd ef8e 84bc
00000240: 4ffb d9bd f267 a1bc 3f45 4cbd 908a 8bbd
00000250: 6954 a63d f954 85bd 4069 17bc 00aa 0cbc
00000260: f3ac d03c 08f1 8d3d 1b06 8fbd 8b87 8b3d
00000270: 017f b23c b546 01be 67c8 adbc e566 9ebc
00000280: 1bb4 e0bd 7d1f 90bc f013 bdbd 5033 21bd
00000290: 052a a63d c168 9c3b c8b0 3c3d 5a9a 283c
000002a0: 7625 5ebd 91ea b03d 58da 8fbd 6aa9 ec3d
000002b0: f79f b1bc e48e b53d 7c7a 0ebd 4ae2 9abc
000002c0: 9e81 aabb 7a0f 0d3d 8cb4 a4bd b3d2 c1bc
000002d0: 89fa 2d3b dd1d 863d 5191 1bbd a6b5 11bd
000002e0: 433a ca3c a697 10bd 1918 0ebd 5caa a0bb
000002f0: 7e31 713d 5574 c9bc 13be 2ebc 783f d6bd
00000300: 1863 18bc 39f4 acbd f194 55bd 9486 1cbc
00000310: 84cb b0bd f4ca 87bd 3ca0 49bc 3122 05bc
00000320: c356 6f3d 66c2 5f3c 8a57 1c3d e039 82bd
00000330: 8726 e23c 091d 59bd 6a9a 3cbd 3321 7fbd
00000340: 8afd 1aba 15e2 0ebd 8eab c2bd 1d03 bfbd
00000350: 6a1d 6fbc a9f6 303d 8f56 f2bd a43e 693d
00000360: fac9 08bd d6b2 03be 3a73 04bc 68ae 0c3d
00000370: dd81 dfbd 71eb c0bd b315 45bd 19e6 d03d
00000380: e7d2 48bd 7ec6 f53b 7a3d db3d 9f98 c6bd
00000390: e587 a0bc d1ff 293d 8664 5c3d fe0c 9bbd
000003a0: 16ea 3e3b 0a96 01be 18b4 12bd 99b6 e73c
000003b0: 5ee4 c83d 32e9 033c 6998 96bc 9759 413d
000003c0: 5b0d 0ebd b310 ac3d 6cc9 473d 6758 bcbd
000003d0: 7eea 3a3c ec77 5a3b cefd f6bd a384 bd3d
000003e0: 7b17 c7bd b154 2cbc e4a3 a43c 7732 e73c
000003f0: 3884 ddbd 06c0 45bd 43e1 6bbd c70f 173b
-0.08753974 -0.08869196 0.12652735 -0.11346373 -0.056356993 -0.06965343 0.022255404 -0.059083443
0.014215667 -0.012678053 -0.0072909845 -0.02669862 0.105890304 0.0034212433 -0.042971615 -0.13777547
-0.030517591 -0.10878062 0.016773757 -0.0078294445 -0.11703626 -0.024033304 -0.078854606 -0.089563325
0.022924446 -0.05221503 0.09836302 0.0036475102 0.042005777 0.11482111 -0.026038155 0.043063506
0.082728125 0.038183715 -0.04311535 0.0096749645 0.060138285 0.081738226 0.082202315 -0.05555602
0.08408898 -0.1281518 -0.06690185 -0.029057294 0.04936757 -0.022614835 -0.026641268 0.02062189
0.0620041 0.032954294 0.038044754 -0.07887556 0.105889164 -0.099826425 0.02543228 0.029396046
0.015234634 0.072449885 -0.029471213 0.043808002 0.018873798 0.06968225 0.069310665 0.088245325
0.00034296443 0.1870719 0.13681805 -0.077154025 0.082542 0.028388401 -0.06330603 0.03515281
0.05022926 -0.03840494 -0.109096825 -0.071234554 0.035422925 0.033630077 0.11832277 -0.06608224
0.043927945 0.038927868 0.072692744 0.018871887 0.0688345 0.1016148 0.10658197 0.06746131
-0.079406545 -0.038112868 -0.010898124 -0.07111991 -0.047753047 -0.027562845 0.057135295 -0.012197722
0.10681418 0.09968921 -0.039508812 -0.07573674 -0.12832116 0.033587277 -0.062997326 0.03676814
-0.05488412 -0.059921145 -0.10766814 0.12223103 -0.024293674 0.041591886 -0.07625788 0.04902393
-0.047033284 0.065520406 -0.045413904 -0.067975976 -0.058929175 0.11880447 0.086315185 0.008121771
0.018046422 0.09861262 0.14467713 -0.08924932 0.041963335 -0.01884409 0.099853404 0.011596522
0.019313835 -0.054763768 -0.051423546 -0.040691003 0.018306566 -0.06319734 -0.10480297 0.0017639557
0.04945036 0.0033224928 -0.055668287 -0.12861364 -0.0021579782 -0.058349513 -0.09630946 -0.016181437
-0.106436364 -0.019702885 -0.049870726 -0.06813538 0.08121569 -0.06510348 -0.009241402 -0.008585453
0.025473094 0.06930739 -0.069835864 0.06812962 0.021789076 -0.12624629 -0.021213723 -0.019336173
-0.109718524 -0.01759314 -0.092323184 -0.039355576 0.08113483 0.00477323 0.04606703 0.0102907065
-0.054234944 0.0863849 -0.07024068 0.11555751 -0.021682722 0.08865145 -0.03478478 -0.018906731
-0.00520344 0.034438588 -0.08042249 -0.02366004 0.0026547036 0.06548665 -0.03798038 -0.035573624
0.024685984 -0.035300873 -0.03469095 -0.004903121 0.05888509 -0.024591604 -0.010665434 -0.104613245
-0.00930097 -0.08445019 -0.052143995 -0.00955357 -0.086325675 -0.06630507 -0.012306269 -0.008125828
0.05843235 0.013657188 0.03816942 -0.06358695 0.027606262 -0.053006206 -0.0460457 -0.06228752
-0.0005912414 -0.034883577 -0.09505378 -0.09326766 -0.014594415 0.043203983 -0.11832916 0.056944504
-0.033395745 -0.12861189 -0.008084113 0.034346014 -0.10913441 -0.09419907 -0.048116397 0.10200138
-0.049029257 0.0075004688 0.10705085 -0.09697079 -0.01959605 0.04150373 0.053806804 -0.075708374
0.0029131225 -0.12654892 -0.035816282 0.028285312 0.098091826 0.008051204 -0.018383222 0.04720458
-0.034680706 0.084016226 0.048776075 -0.09196549 0.011408446 0.003333564 -0.12060128 0.09253814
-0.097212754 -0.010518239 0.02009768 0.028222306 -0.10816234 -0.04827883 -0.057587873 0.0023050176

fc3.bias f4 [64]
00000000: c0cb 0d3d 0d97 d63d 6ec1 f0bc 9028 5cbc
00000010: 1ece 8c3b d3b0 d33b ac0c 4dbc da86 92bc
00000020: 39b8 673e bd0a ed3d 90ff 163e df65 58bd
00000030: 1138 9d3d ca8a 2b3d a640 903d e8af 41bd
00000040: 7982 1e3e 6961 8b3c 0887 d93d 9fba 20bd
00000050: 9f1f 9f3d 899a 983c fab9 b23d 42ce c43d
00000060: 512e b2bd dfb7 0c3e 841e b53c 957c bc3c
00000070: d769 123d 70c4 3abd d840 8f3d a64a 85bb
00000080: 7187 5d3d 8a7d ea3d 9f0b 053e eebd 523d
00000090: 4c01 c23c a68b a53c 9296 d23c 94c5 a73d
000000a0: e572 053d b639 773d b873 c63c d942 fabd
000000b0: c80a ac3d 903f 23be 8f09 153e 226b 86bd
000000c0: 9864 a83d 9535 3e3d 972c aa3d e353 073c
000000d0: a394 f33d a2e8 0b3e c4a4 5fbd c8c7 8a3d
000000e0: 9712 8e3d bb1e ac3d 6743 1dbd 0700 ad3d
000000f0: fdfb cbbc f12d ce3d 96fe ff3d a92c 29bd
0.03461814 0.104780294 -0.02938911 -0.013437405 0.004297032 0.006460288 -0.012515228 -0.017886568
0.22628869 0.11574314 0.14745927 -0.052831527 0.076767094 0.041880406 0.07043581 -0.047286898
0.15479459 0.017014222 0.10621458 -0.039240476 0.07769703 0.018628376 0.087268785 0.09609653
-0.087002404 0.13742016 0.022109278 0.023008624 0.035745468 -0.045597494 0.0699479 -0.0040677367
0.054084245 0.11449726 0.12992714 0.051450662 0.023682259 0.020208191 0.025706563 0.08191982
0.032580275 0.06035777 0.0242251 -0.122197814 0.08400494 -0.15942216 0.14554428 -0.06563403
0.08222312 0.04643782 0.08309286 0.008259746 0.118935846 0.13662961 -0.054600492 0.067763865
0.069371395 0.08404299 -0.038394358 0.08447271 -0.02490043 0.100673564 0.1249973 -0.041302357

fc4.weight f4 [14, 64]
00000000: e591 b03d 7213 29be 1aa1 053e 7ed3 143d
00000010: bd38 e2bb 1c72 613d e39c 1dbd 6480 f93d
00000020: 612d e13d b627 09be 78b1 da3d 02e9 bfbc
00000030: b63e 4b3e 381b 47bc 62d5 f13d 84a1 f3bc
00000040: 5602 cb3b 6fd2 763d 9a62 27be 8afe bc3d
00000050: 99e8 cb3d 1742 083e eb27 043e 281b 1ebd
00000060: cf7a 46bd 9f7d 203e 2046 b63d cc34 1b3d
00000070: 6eaf fdbc bada a13b af7d 693d 6295 bbbd
00000080: 2658 03bc 530b 773d f8b8 9c3d 2144 893c
00000090: 6907 1c3e fb67 a6bd d316 21be 3a31 f0bc
000000a0: 25e4 c83c 691d b23d 5ac9 b23d 6868 05bd
000000b0: 86c1 443c 27a8 cdbc 3bbc 383d 4f84 cebc
000000c0: c98a 363d 7396 55bd ebee 453e ddc6 8c3d
000000d0: d250 943b a6c3 d3bc 2de7 19bd fa92 523e
000000e0: bbfa d13c 32e3 0dbe 64cc eebb 6e05 70bd
000000f0: 0d78 c6bc ba17 153e 083f ab3a 6e70 5a3e
00000100: 79b5 11bd da1c fbbd d376 d8bc 0f4a 00bd
00000110: ade7 1dbe 6eca 9ebd 13fc a7bd 30dc 1a3e
00000120: aeec 51bd dede e03a 8d48 e03d ec7c 29be
00000130: c73b ef3b 0df3 763d 26fc 9a3d 743f 94bc
00000140: 99ec 033d 7ad7 13be b9f3 273c fd35 f03d
00000150: ff98 193c 771d 383d 43f5 0f3e 48ea b3bd
00000160: d1b0 3b3d a143 1b3d 3fb2 05be c447 803d
00000170: f98b ed3d 893d 563d 9e79 503d a430 54bb
00000180: 4736 1c3e b149 d7bd 0d07 913a 8025 6d3d
00000190: 5be7 433c dd3a e73d ea13 90bd 9ca1 733d
000001a0: cd80 90bd 09ad e0bc de03 5bbc 06a1 e7bc
000001b0: 4be1 c1bd aedc 583d fca7 ab3d 9a1f 24bb
000001c0: 8650 d2bc 54f8 bdbc 10a9 38be 0503 a83d
000001d0: d144 2abe 1aae bbbd 9bb0 543d 11ef 5d3d
000001e0: 6961 ac3d 2997 d9bd dd3a 273e d308 bd3d
000001f0: 0901 0e3e 87de 503c 5358 c23d 60e0 203d
00000200: c483 6bbd 2532 f03d 2754 0b3e 7567 8abd
00000210: 7e38 acbd a43d 88bd 8a9a 16bd b537 8cbd
00000220: d045 9c3d 168c fc3d 46e8 c93d 3ae0 06be
00000230: 773e b0bd 1a8e 953d 72e6 e0bc cb35 a3bd
00000240: a0a1 b3bc 193e 23be a386 433d 54db a6bd
00000250: fc63 623d 73df bd3d ae01 2d3e bb1e 143c
00000260: 5ebd 27bd 6d9e 2d3e c048 7abc aa32 27be
00000270: 72a4 8abd c796 33bd b37d c13d 8229 af3d
00000280: 0e79 8fbd 6fdd 0f3e b3fd 853d 3c9c 3abc
00000290: b1f1 ba3d 94c8 a3bd f209 dabc 2022 e2bb
000002a0: 1950 1a3c 48e2 383d 34b7 843d 3850 a8bd
000002b0: a6a2 273e f959 f03c f4fe 06bc 35f2 c9bd
000002c0: 4b45 dabc 411c 173d a0d4 ad3d e2de 833d
000002d0: 6669 06be 8fe5 2e3e ec78 86bc 72a9 e03d
000002e0: 0742 433d 0e3c c2bd 95c9 6b3d 728b 7ebd
000002f0: 8bac a5bd 13ab 093e 0f99 9d3c 7c73 e73d
00000300: 5819 50bd 081d ca3d 7028 e6bc f9ef 1a3d
00000310: 0672 ebbd fce2 cf3d 0a5d ddbd 474a 543c
00000320: e765 fabd cefc e5bd ad35 ab3d 5119 f5bc
00000330: f801 a4bd ede3 a03d 0713 67bd d006 303d
00000340: 254a 5cbd 2470 fbbd 3ca3 5d3d c7e7 053e
00000350: e759 bbbd 3b24 ad3d 53bf 2bbd ee15 fcbd
00000360: 140d c83d 882f 1fbd 7516 a8bd 563b 19ba
00000370: 9498 8d3d 1575 d0bd 0ef5 bf3d 3eb5 a3bb
00000380: bdc8 b43d 3714 843c b4be 043b 21ff 5cbd
00000390: 6ce0 78bd e8c4 283b 0e50 1f3d 5642 dabd
000003a0: 2cf5 653d 8ee9 043e 3511 0bbd bc2a 18be
000003b0: 5a05 e63d 9f7b afbc d28b c73d 1ef9 ab3d
000003c0: 3b01 46bd f6ea c83c 66b3 123d 1810 f43d
000003d0: bcc0 0dbd b349 2ebd 00da a23c b443 513d
000003e0: 33b3 133e 335b 98bd 6b78 053e 6563 d8bc
000003f0: 9f11 0d3e 0c59 b23d 7a9a 493d ce19 c5bd
0.08621577 -0.16511324 0.13049737 0.036334507 -0.0069037364 0.055040464 -0.038479697 0.12182692
0.109949835 -0.13394055 0.10678381 -0.023426536 0.19848141 -0.012152486 0.11808278 -0.029740103
0.006195347 0.06025928 -0.16346207 0.09228237 0.09956474 0.13306461 0.12905852 -0.038600117
-0.048456963 0.1567292 0.08900094 0.037892148 -0.03096744 0.0049394043 0.057004627 -0.09159352
-0.008016622 0.060313534 0.076524675 0.01675612 0.15237202 -0.081253015 -0.15731363 -0.029320348
0.02452285 0.08697016 0.08729811 -0.032570273 0.01200903 -0.025104595 0.045101386 -0.025209574
0.04456595 -0.052145433 0.19329421 0.06873868 0.004526236 -0.025850128 -0.037573982 0.2056388
0.025632253 -0.138562 -0.007287549 -0.05859893 -0.024227167 0.14559832 0.001306505 0.21331951
-0.035573456 -0.122613624 -0.026423847 -0.031320628 -0.15420409 -0.07753454 -0.08202376 0.15123057
-0.051251106 0.0017156263 0.10951338 -0.1655156 0.007300827 0.060290385 0.07567625 -0.018096663
0.03220806 -0.14437667 0.010250979 0.117290474 0.009374856 0.044949975 0.14058404 -0.0878492
0.045822922 0.037906293 -0.13056277 0.06263688 0.11598963 0.05230478 0.050897233 -0.0032377625
0.1525508 -0.105121024 0.0011064723 0.05789709 0.011957015 0.11290524 -0.07035048 0.059480295
-0.07055817 -0.02742626 -0.013367621 -0.028275024 -0.09466799 0.05294483 0.0838165 -0.002504325
-0.025673162 -0.023189701 -0.18033242 0.08203701 -0.16627814 -0.091640666 0.051926237 0.05418307
0.08417017 -0.10624535 0.16331048 0.09230199 0.13867582 0.012748367 0.09489503 0.03927648
-0.05749871 0.11728314 0.1360632 -0.06758014 -0.084092125 -0.06652382 -0.036768474 -0.06846563
0.07630503 0.12331407 0.09858756 -0.13171473 -0.08605664 0.07302494 -0.027453635 -0.079692446
-0.021927655 -0.15941657 0.04773582 -0.08147302 0.055271134 0.09271135 0.16895172 0.00904053
-0.04095208 0.16954966 -0.015276134 -0.1632792 -0.06769647 -0.043844964 0.09447803 0.08552839
-0.07005511 0.14049314 0.0654253 -0.011389788 0.0912813 -0.079972416 -0.02661607 -0.0069010407
0.009418511 0.045137674 0.06480256 -0.082184255 0.16370639 0.029339777 -0.0082394965 -0.098606504
-0.02664437 0.03689218 0.084878206 0.06438996 -0.13126144 0.17079757 -0.016415082 0.10969819
0.04767039 -0.09484111 0.05756529 -0.062144704 -0.080895506 0.13444166 0.019238023 0.11301324
-0.05080542 0.098688185 -0.028095454 0.037826512 -0.114963576 0.10150716 -0.108087614 0.012957162
-0.122264676 -0.11229859 0.08359847 -0.029919298 -0.08008188 0.078559734 -0.05641463 0.042975247
-0.053781647 -0.122772485 0.05411075 0.13076697 -0.09148007 0.08454176 -0.041930508 -0.1230887
0.097681195 -0.03886369 -0.08207408 -0.00058453286 0.069138676 -0.101785816 0.09372912 -0.004995971
0.0882735 0.01612292 0.002025527 -0.053954247 -0.0607609 0.002575213 0.038894705 -0.10657184
0.056142017 0.12979719 -0.033951957 -0.14860052 0.112314895 -0.021421252 0.097434655 0.08397125
-0.048341017 0.0245261 0.03581562 0.11917132 -0.034607634 -0.042550754 0.019879341 0.051089957
0.14423828 -0.0743927 0.13034217 -0.026414583 0.13776253 0.087083906 0.049219586 -0.096240625

fc4.bias f4 [14]
00000000: b458 0a3d 24bf c13c db9e ddbc 4dbf 6d3d
00000010: 0340 86bd 9bed 0a3e e44f 423d 20a6 cf3c
00000020: c3bb 11bd b863 703d a285 ef3d 50bb a138
00000030: d671 16be ebae 873d
0.033776 0.023650713 -0.027053287 0.058043767 -0.06555178 0.13567202 0.04743947 0.02534777
-0.035579454 0.05868885 0.1169541 7.711968e-05 -0.14691862 0.0662516
