saved_models/q_network_finetuned.pth (torch, 79376 bytes, 8 tensors)

fc1.weight f4 [64, 23]
000000 df 6f 04 be dd 64 00 bd 33 62 a3 bc 51 f2 37 be
       -0.129333 -0.03134619 -0.019944286 -0.1796353
000010 4e bc 2a 3e 3a 7a 08 3e 80 be 1e bd 1f 4d 0f be
       0.16673395 0.13327876 -0.038755894 -0.13994263
000020 27 8f 5d bd bc 3b 45 3d c5 5a ad bd 60 23 1a be
       -0.0540916 0.04815267 -0.084645785 -0.15052557
000030 c1 dc c0 3d 32 49 18 be 0b ba 12 3e af ba fe bc
       0.094171055 -0.14871672 0.14328782 -0.031094877
000040 9e ea d8 3d fe 22 29 3c e3 6b 9e 3d 8f ab 2a 3e
       0.10591625 0.010323284 0.077354215 0.16667007
000050 ed c7 53 be c2 3b be 3d 8c e8 13 be 7b d7 79 bd
       -0.20681734 0.09288742 -0.14444178 -0.060996514
000060 5e 72 23 3e 84 cc 6d be fb b8 d4 bd cf bd b3 3d
       0.15961596 -0.23222548 -0.10386845 0.087764375
000070 91 cd 6d be 2f e2 f2 3d d8 88 12 be dc a9 55 be
       -0.23222949 0.11859547 -0.14310014 -0.20865577
000080 77 95 91 bd 88 90 1f 3d fc 57 61 be 8d e9 31 3e
       -0.07108586 0.038956195 -0.2200622 0.17374249
000090 98 14 e2 3d ab 5c a0 bd f2 1d 0d 3e dc e6 4f be
       0.11039084 -0.07830175 0.13780954 -0.2030291
0000a0 91 9d 56 be 3c a8 02 3e 50 68 20 be 1c ce 00 3e
       -0.20958544 0.12759489 -0.15664792 0.12578624
0000b0 17 89 e1 bd 96 e4 9a be 31 15 89 be b0 47 0d be
       -0.11012476 -0.30252522 -0.2677398 -0.13796878
0000c0 5c 0a 2c bd b3 df 34 be e0 44 d1 bc d0 d8 44 bd
       -0.042002067 -0.1766346 -0.025545537 -0.04805833
0000d0 41 6c 59 3d 3d 65 88 be 36 47 67 3d 0e de 29 be
       0.053081755 -0.2663974 0.056464396 -0.16588613
0000e0 96 a8 55 be bf 40 27 be 9c b5 61 be 4c ea 5d be
       -0.20865092 -0.16333292 -0.22041935 -0.21671408
0000f0 53 08 63 be f6 11 71 be 7c 19 ed bd b7 a4 82 be
       -0.22171144 -0.23542008 -0.115771264 -0.25516292
000100 bb 45 05 3e d4 f4 3b 3d 31 47 28 3e 82 31 18 be
       0.13014881 0.045887783 0.16433407 -0.14862636
000110 ec 7b a0 3d 86 57 19 3e 35 66 47 be 84 b1 0b be
       0.07836136 0.14974794 -0.19472583 -0.13641936
000120 0c 80 17 be 53 7f 3d 3d d1 ec c0 3d 8d 0e ea bd
       -0.1479494 0.046264004 0.09420169 -0.114285566
000130 3e c0 a5 bb 46 96 3d be cf 1d 41 3e 3c 44 44 bc
       -0.0050583174 -0.18514356 0.18859027 -0.011979159
000140 7a b3 f1 bd e9 ce 32 bd b6 81 d2 bd ab 8d f1 bc
       -0.118018106 -0.043654356 -0.10278647 -0.029486498
000150 28 ee a7 bd b1 8d a6 3c f7 47 b5 bc ec 28 f7 bc
       -0.081997216 0.020331236 -0.022129042 -0.03017088
000160 3f 6a 29 be 80 9c 7a 3d 17 ef 07 be 37 36 0d bd
       -0.16544436 0.061184406 -0.132748 -0.03447553
000170 25 56 b1 3d c8 fa 1c 3e 4b aa 12 3e 16 71 93 3d
       0.08659009 0.1533004 0.14322774 0.07199304
000180 76 5e d9 3c d2 22 f0 bd d3 03 19 bd 85 1b 13 3e
       0.0265343 -0.117253914 -0.037357163 0.14365967
000190 26 22 0d be 40 d8 c9 bc 31 07 54 bd 9e c8 bd 3d
       -0.13782558 -0.024639249 -0.05176467 0.0926678
0001a0 50 de 0b be 45 b5 92 bd 06 ae b9 bd c6 b0 fa bd
       -0.13659024 -0.07163481 -0.090663955 -0.12240748
0001b0 95 df e4 bd 8e 60 04 be 3f b7 93 3d 2e 30 3b 3d
       -0.111754574 -0.12927458 0.07212686 0.045700245
0001c0 7e 7e 1c be ef 66 f0 3d 20 13 a4 3d 0c ff ec bd
       -0.15282628 0.11738383 0.0801146 -0.11572084
0001d0 b0 b4 71 bd 1c 1c c4 3d d0 a6 92 bd 5f 94 3e be
       -0.059010208 0.09575674 -0.07160723 -0.18611287
0001e0 fb 8b a4 3d ca 5f 22 be b1 59 c8 bd b5 d0 cb bd
       0.08034512 -0.15856853 -0.09782732 -0.09951917
0001f0 49 83 9d 3d 86 f5 95 3a e2 92 39 3e 44 d9 66 bd
       0.07691056 0.001144097 0.18122438 -0.056359544
000200 42 d8 24 be 4c 54 a2 bd 50 b4 b4 bc 99 fe 72 3d
       -0.16098121 -0.079262346 -0.022058636 0.059324834
000210 d7 5f 1b 3e 28 e9 c2 bd 32 46 34 3e 5e ec 28 3d
       0.15173279 -0.09517127 0.17604902 0.041241042
000220 50 f8 a4 bd b7 9f 11 be ae 13 27 3e 89 b4 2d 3d
       -0.08055174 -0.14221083 0.16316101 0.0424085
000230 14 7e d8 bd 9f b9 03 be 99 88 39 bd f7 6d 4f 3d
       -0.105709225 -0.12863778 -0.045296285 0.05064198
000240 37 da 57 3e 20 43 e6 bd e2 c6 e9 bd bb 4c e2 bd
       0.21079336 -0.11243272 -0.11414887 -0.110497914
000250 bf 9c 3d 3d 2f 70 6a 3d d0 ec b0 bd 9a 3f f8 bd
       0.046292063 0.057235893 -0.086389184 -0.12121506
000260 7d 69 69 bd 2b 66 e7 3d 40 1b d7 3c 1f 2d c8 bc
       -0.056985367 0.11298784 0.026258111 -0.024435578
000270 7f da 58 3c 4b 24 b3 bd 90 45 20 be 92 c1 0f be
       0.013235687 -0.08747157 -0.15651536 -0.14038685
000280 57 92 ee 3d cd 47 34 be c3 dd f7 3d 9e ac 50 be
       0.11649006 -0.17605515 0.121028446 -0.20378348
000290 7a 14 0d be 53 b5 13 3e 30 b6 82 bd 2d c2 00 3d
       -0.13777342 0.14424638 -0.06382406 0.03143518
0002a0 aa 94 c6 bc e6 a7 15 3e 25 ab aa bd 82 88 8b bd
       -0.02424081 0.1461483 -0.083334245 -0.06813146
0002b0 c0 27 bf 3d 91 4d 0e 3e e4 41 d3 bd af 61 50 be
       0.093337536 0.13896777 -0.10315302 -0.20349763
0002c0 25 0d 9d bc dd 0c 58 bd 59 8e 99 bd 2c cf e1 bc
       -0.019171307 -0.052746642 -0.07497854 -0.027564608
0002d0 90 73 8b bd 81 f7 26 be 8d c3 1a 3e bb 1a c9 3d
       -0.06809151 -0.16305353 0.15113659 0.098195516
0002e0 5f 8c 19 3d 49 d5 ad 3d 9f d3 04 3e 80 81 17 3e
       0.037487384 0.084879465 0.12971352 0.14795494
0002f0 fe f3 26 3e 7b 38 d3 bd 1a 2e bc bd 1d 6f d3 bd
       0.16304013 -0.10313507 -0.09188481 -0.103239276
000300 8a a3 7a 3d 47 72 71 3d 9e 32 33 3e 58 a8 2f bb
       0.06119112 0.058946874 0.17499778 -0.0026803222
000310 fd 7d 6c 3c 2a ac 63 3e 0d e7 b6 bd fa 48 eb bc
       0.014434335 0.22233644 -0.08930788 -0.028721321
000320 c3 72 f8 bd a9 9a d5 bd 34 85 39 bd d3 cd f9 3d
       -0.12131264 -0.1042989 -0.045293048 0.12197461
000330 7e 5a 88 3d 97 50 3d bd 50 dd 35 be 19 23 9a 3d
       0.06657885 -0.046219435 -0.17760205 0.075262256
000340 68 3f 4c 3d 8c 87 45 3e 82 c4 bd bd c8 6a 16 3e
       0.049865156 0.19289988 -0.092659965 0.14689171
000350 1d 7c 4f 3e 64 54 70 3e 53 18 9b bd 46 d4 0a bc
       0.20262189 0.23469692 -0.07572999 -0.0084734615
000360 31 8e b0 3d 7b 6a 9b bd 20 f8 1c 3e fe 0e 3b 3e
       0.08620871 -0.07588669 0.15329027 0.18267438
000370 28 0f 09 be 9d 74 a3 3d 5e 3b 43 be aa 81 f2 3b
       -0.13384688 0.079812266 -0.19065616 0.007400711
000380 7a 02 5a be 4a 59 2c 3d 75 fc a9 3b 0f 9d 82 bd
       -0.21290007 0.04207734 0.005187566 -0.06377613
000390 1f 95 a4 3c e9 32 16 3e 75 f6 0a 3e cb 80 24 3d
       0.020090638 0.14667858 0.13570578 0.04016189
0003a0 ad d2 2b 3e 56 63 06 bd 69 fd 54 3e 44 ae 52 3e
       0.16779585 -0.032809578 0.20799793 0.2057429
0003b0 d2 f3 f7 bd 1f 0f a4 3d fd 96 53 bc 07 40 a2 bd
       -0.12107052 0.080106966 -0.012914416 -0.079223685
0003c0 50 e6 b9 3d 35 c6 88 bd 46 60 52 3e 46 f8 27 bd
       0.09077132 -0.0667843 0.20544538 -0.041008256
0003d0 29 7a 33 3e 57 84 0c 3d 35 ba 3e 3e 5c 13 3a 3d
       0.17527069 0.034305897 0.1862572 0.04542862
0003e0 9f 64 60 3e c6 32 40 3e ad 32 8c bd ea f3 17 3e
       0.21913384 0.18769369 -0.06845603 0.1483914
0003f0 6d c1 63 3e d2 09 88 bb 64 3c 4c be 5e ac 7f bc
       0.22241755 -0.0041515613 -0.19944912 -0.01560506

fc1.bias f4 [64]
000000 43 38 c9 3d cf 32 fa 3c 9b e8 e2 3d da e2 c7 3c
       0.09825184 0.030541806 0.11079522 0.024400163
000010 92 b7 53 be f6 1b 4f 3e b3 8c 4e 3e ed 71 30 be
       -0.20675495 0.2022551 0.2017086 -0.17230959
000020 3b c9 b0 bd f6 8d 2f bb 38 a5 33 3e 13 53 10 bd
       -0.08632132 -0.0026787496 0.17543495 -0.035235476
000030 11 a8 83 bc 13 91 ae bd 18 a9 82 3e b8 0b 89 3c
       -0.016071351 -0.085237645 0.25519633 0.01672922
000040 92 54 79 3c 29 fa 6b bd 2f e9 e3 3d 2e bc 64 3d
       0.015217917 -0.05761162 0.111284606 0.055843525
000050 5b 0f 11 be b6 46 58 3e ce f3 a8 bd bf fe 31 3d
       -0.14166014 0.21120724 -0.08249627 0.043455835
000060 27 6e 1d be 35 43 02 3e 36 f2 05 3e 27 c4 dc 3d
       -0.15374051 0.1272095 0.13080677 0.107796006
000070 db 09 16 be ff cf 58 be c0 a2 7f 3e bf 16 0c be
       -0.14652197 -0.21173094 0.24964428 -0.13680552
000080 37 54 7b 3e 68 f2 84 be b5 5e 39 3e 0e 6a 0c 3d
       0.24543844 -0.2596619 0.18102534 0.03428083
000090 46 56 70 be 34 81 02 3e 55 e5 24 3e 90 fd 26 be
       -0.2347041 0.127446 0.16103108 -0.16307664
0000a0 aa 84 5f bd 9d c9 0b be 0b 32 2b be 14 4b 83 3e
       -0.054569878 -0.13651128 -0.16718309 0.25643218
0000b0 f9 27 0f 3e 59 c0 0e 3e 3d 56 36 be 3a 1a 1e 3e
       0.13980092 0.13940562 -0.17806335 0.15439692
0000c0 71 5f 1e 3e 8e 2a 4a 3e 82 0b 8c 3d 70 7b 34 3e
       0.15466096 0.19742796 0.068381324 0.17625213
0000d0 87 f1 34 be 3d f7 a4 3d 39 08 ad 3d 35 95 fd 3d
       -0.1767026 0.080549695 0.08448834 0.123819746
0000e0 f9 d5 55 bd ee 8a 47 be 8c 9a a2 be 38 5a 28 3e
       -0.052206013 -0.19486591 -0.31758535 0.16440666
0000f0 2f 21 1a 3e ba 0d dd bd df a9 b4 bb db c2 11 be
       0.15051721 -0.10793634 -0.0055134143 -0.14234488

fc2.weight f4 [128, 64]
000000 36 6f 8e bd 35 af 80 bd 6f d4 83 bd a6 f4 88 3d
       -0.069548056 -0.06283418 -0.06437003 0.06687288
000010 41 47 ec 3d 38 3c 0c 3d 88 dc 7b 3d 50 73 9a bd
       0.11537028 0.034237117 0.061489612 -0.07541525
000020 10 05 28 3b 59 a5 f1 3d 24 56 cb 3d 66 f2 48 bd
       0.0025637783 0.11799116 0.099285394 -0.049059294
000030 a5 df b2 bd f6 ed b0 bd 23 44 1f be d9 90 70 bd
       -0.08734063 -0.086391374 -0.15553336 -0.058731887
000040 37 a0 6f 3d 04 6d 85 bd 8a 75 0e 3e b6 44 12 be
       0.058502402 -0.06514934 0.13912025 -0.14284024
000050 14 d8 da bd c4 98 b0 3d 07 f1 90 3d 14 4b f1 bc
       -0.10685745 0.08622888 0.07077222 -0.029454745
000060 34 d6 c1 3c bd 61 4c 3d a3 79 84 bd 11 73 62 bd
       0.02366171 0.049897898 -0.06468513 -0.055285517
000070 eb e2 1c be 07 6c 3e be b8 f5 9f bd 5f 39 11 3e
       -0.15320937 -0.18595897 -0.07810539 0.14182042
000080 3e fe 4b bd bd c1 1d be 76 ef 0c bd 23 19 b0 3d
       -0.04980301 -0.15405937 -0.034408055 0.085985444
000090 9f 0e 9e bd 66 63 c2 3d 5c 73 3d 3d 00 0c bb bd
       -0.077176325 0.09491615 0.046252593 -0.09133148
0000a0 d8 59 44 bd 01 bd c5 bd 0d ef 3d 3a f3 76 ff bd
       -0.047937244 -0.0965519 0.0007245399 -0.1247386
0000b0 ec c1 27 bd 1b 7f 12 3e cd 0c cd bb 43 b5 04 be
       -0.040956423 0.143063 -0.0062576295 -0.12959771
0000c0 bc 41 a2 3d fa 71 e9 bc 24 ac d5 3d b1 27 d5 3c
       0.07922694 -0.028496731 0.10433224 0.026019903
0000d0 c5 ee 97 3d 29 b3 8c 3d f2 d0 f0 3d 8c 28 1c 3d
       0.074185885 0.068701096 0.11758603 0.038124606
0000e0 24 ea 94 bd be 8f ba bd f8 1e d6 bc 88 30 9d bd
       -0.07271221 -0.09109448 -0.026137814 -0.07675272
0000f0 f6 33 06 bd 57 ab d9 3d 0d 3d 00 3e cd 4c 93 bd
       -0.032764398 0.106283836 0.12523289 -0.07192383
000100 6f e8 17 3c 35 37 3b 3d de 49 2a bc ca 22 ba bd
       0.009271725 0.045706946 -0.010393588 -0.09088667
000110 db 6e 0e 3e 53 1c c0 3c 2b 0a ae 3d a4 21 0c 3e
       0.13909476 0.023451006 0.08498033 0.13684708
000120 0e 82 7a bd 08 f1 a9 3b 76 98 a6 3d cf 02 29 bc
       -0.061159186 0.005186204 0.08134548 -0.010315611
000130 61 8d b2 bc 19 71 c9 bd ba 32 4e bd be eb fd 3a
       -0.02179593 -0.09836025 -0.050341345 0.0019372625
000140 11 de a7 bd 9d ae 83 3d e1 95 33 bd aa c1 90 3d
       -0.08196653 0.06429789 -0.043844108 0.070681885
000150 19 b1 c0 b9 20 50 b8 3d 97 ad 44 bd 29 45 47 be
       -0.00036753042 0.08999658 -0.04801711 -0.19459976
000160 0b 37 dd 3d cd 78 e2 3c 49 a5 20 3d 1e db 7c 3c
       0.10801514 0.027645493 0.03922013 0.015433101
000170 a2 85 7c 3d 21 c4 20 bc 88 28 39 be fb e3 53 3e
       0.06165088 -0.009812386 -0.18081868 0.20692436
000180 aa ed 10 bd 99 d7 d7 bd 2b 94 53 3d ea b5 5e b9
       -0.035382904 -0.10539169 0.051654976 -0.00021239338
000190 60 56 12 be 18 95 59 3d 8a d5 a8 3d d9 b0 3d 3d
       -0.14290762 0.053120703 0.08243854 0.046311233
0001a0 1f f5 0b 3e 1b cb 98 3c dd 34 85 bc a9 6f 12 bc
       0.13667725 0.018651536 -0.016260559 -0.008937755
0001b0 62 a7 1a 3e 8d 6b b0 3c 31 c6 fc 3c b2 ad 56 bd
       0.15102914 0.02153566 0.030856224 -0.052411743
0001c0 82 e1 9b 3d 20 b6 3a 3d 54 30 6b 3d fb c5 ba 3b
       0.076113716 0.045583844 0.057419136 0.0056998706
0001d0 8a ea 3d bd 6d 10 b2 bd 0a 8b db 3c 2d 48 ac bd
       -0.046366252 -0.08694539 0.026799697 -0.08412204
0001e0 87 8a f1 bd a5 dc 19 be 5a c4 d4 3d 7b bc 9e 3d
       -0.11794 -0.15025575 0.103890136 0.077507935
0001f0 19 cb 5a bd 51 72 e7 3d 96 b1 d4 3d b3 c8 e5 bd
       -0.053416345 0.11301101 0.10385434 -0.11219921
000200 96 63 ca bd 24 fc 03 3d 9e 8f a3 3d f6 d8 75 bd
       -0.09882276 0.032222882 0.07986377 -0.060021363
000210 15 e7 6e bc 6e 1f 78 bd d9 1d 30 bb 6c 3f 13 3e
       -0.014581461 -0.06057685 -0.002687326 0.14379662
000220 69 2d 9a bd 6f 21 ed 3d 6f 4b 93 bc 16 cb 4a bd
       -0.075281925 0.115786426 -0.017980305 -0.049510084
000230 bd 99 80 3d 5b 33 a6 3c 5d 74 2f 3d f6 bd 8e 3d
       0.06279323 0.02028816 0.042835582 0.06969826
000240 ac ae f8 bc 4f 0a 7b 3d ff 83 85 3b ce 20 ce 3d
       -0.030356728 0.061289128 0.004074573 0.10064851
000250 0a a5 01 3e 68 09 16 3e 3b a6 04 3e 06 22 90 bd
       0.12660614 0.14652026 0.12954037 -0.070377395
000260 4e 30 98 3d 81 b4 51 3d 7f 41 fc 3d cf 4f 36 3c
       0.074310884 0.051197533 0.1231718 0.011127426
000270 55 0b 96 3d 2c fc aa 3d 60 56 15 bd 0f 31 a5 bd
       0.0732638 0.08348879 -0.036459327 -0.08065998
000280 67 ea ff 3c 87 03 f0 bb cc 34 73 3d 62 ab 0c bd
       0.031239701 -0.0073246392 0.059376523 -0.03434313
000290 7c ca ab bc c0 11 3e bb b8 cc 73 bd af 7d c1 bd
       -0.020970576 -0.002900228 -0.059521407 -0.094478
0002a0 b1 c7 0a 3e da da cd bc 8d 93 d9 3b 47 00 f7 3d
       0.13552739 -0.02512877 0.006639904 0.120606
0002b0 54 45 2a bd a9 96 13 3d d8 3c 29 3d b4 5a a4 bd
       -0.041570023 0.036032353 0.04131779 -0.08025113
0002c0 5a 72 36 3d 9d 62 41 3e 9b c2 a1 3d 6d df d1 bd
       0.044542648 0.18885274 0.07898446 -0.10247693
0002d0 c0 36 10 3e e9 84 42 3d 2a 46 98 3c 95 0b 1e bd
       0.14083385 0.047490034 0.018588144 -0.038585264
0002e0 12 9c 01 be 30 c9 18 be 79 f3 dc bc 2c 78 82 bd
       -0.12657192 -0.14920497 -0.026971566 -0.06370577
0002f0 06 d2 6e bd a2 a7 ae bd e1 80 48 bd 42 bc 50 3e
       -0.058305763 -0.08528067 -0.048951034 0.20384315
000300 72 cc 21 3d 49 18 86 bd e0 41 e5 bd 83 b4 d4 3d
       0.039501615 -0.06547601 -0.11194205 0.103859924
000310 05 c9 d6 bc 57 ef 1d be b1 61 b0 3d 34 6a 2f 3d
       -0.0262189 -0.15423332 0.08612383 0.042825893
000320 8a 45 a7 bc 90 41 7a be a2 44 7a 3d 2f 15 f5 3c
       -0.020418901 -0.24439073 0.06110061 0.029917328
000330 76 ca 19 bd a4 09 34 bd f6 ee e1 bd 76 4b 90 3d
       -0.037546597 -0.043954507 -0.11031906 0.07045643
000340 e8 2e bb 3d c9 4c 0f 3d dc 4d 7a 3d c3 20 7a 3d
       0.09139806 0.034985337 0.06110941 0.0610664
000350 67 53 d5 bd 85 a8 9e bd 62 c1 2c 3d 69 c1 0d bd
       -0.10416298 -0.07746986 0.04217661 -0.03460828
000360 12 d5 07 3e 9b 2d 49 3d 9a 92 9b bd ce 7b 02 be
       0.13264874 0.04911576 -0.075963214 -0.1274254
000370 cd 0b 7c ba 92 c3 41 bc 22 89 24 3d ff 9c d4 3d
       -0.00096147956 -0.011826413 0.040169843 0.10381507
000380 40 19 0a be 6c 74 52 bd ec c4 86 3c 82 6c ed bc
       -0.13486195 -0.05138056 0.016451322 -0.028982405
000390 04 fa 0e 3d 9f af f4 3d 20 9b 1b 3e 10 27 91 3d
       0.034906402 0.119475596 0.15195894 0.07087529
0003a0 40 31 bf bd 29 3b 0e be 61 7d 61 bc 33 11 73 be
       -0.093355656 -0.13889755 -0.013762803 -0.2373703
0003b0 06 9a 33 bd 23 7f ef bd 10 71 9b bd e6 d1 ef 3d
       -0.04384806 -0.11694171 -0.07589924 0.11709957
0003c0 d3 c5 57 bd 91 93 50 be 17 c9 5f 3d e1 1a e9 bb
       -0.052678894 -0.20368792 0.054635134 -0.0071138
0003d0 59 75 67 3d ed 1e dc bd 7d e5 f6 bd d9 59 29 be
       0.056508396 -0.10748086 -0.1205549 -0.1653818
0003e0 53 06 ca 3d f3 07 fd 3c 65 59 91 3d ac 68 c3 bd
       0.098644875 0.03088758 0.07097129 -0.09541449
0003f0 cd 4f ec ba a8 13 ad 3d e4 d3 5b 3d fe da 76 bd
       -0.0018029154 0.08451015 0.05366887 -0.06026744

fc2.bias f4 [128]
000000 59 57 a7 bd 3b 0d 90 bc 1b 38 07 3e 32 9b 35 be
       -0.08170957 -0.017584434 0.13204996 -0.17734984
000010 60 4e 1b be 14 3f 3c be 39 8a 57 be 74 5e 0b be
       -0.15166616 -0.18383437 -0.21048822 -0.1361025
000020 4b 1f 47 bd 66 cb 05 bd 10 bb 68 3e 9a 4c 8c bc
       -0.048613828 -0.03266468 0.22727609 -0.01712637
000030 ae af 53 be e4 07 ab 3c 92 99 e1 bd 43 67 0e bc
       -0.20672485 0.020877786 -0.11015619 -0.008691612
000040 1c 8a 76 bd 85 3e 5f 3c 10 ea 08 3e 12 1d 26 39
       -0.060190305 0.013625746 0.13370538 0.00015841823
000050 0f cb 99 3d e0 83 2d bd dc f7 44 bb ed 5d 1d 3e
       0.075094335 -0.042362094 -0.0030054962 0.15367861
000060 6b 01 c8 bd a6 3c 1c be ca e9 f4 3d 33 d6 ab bc
       -0.097658955 -0.1525751 0.11958654 -0.020976162
000070 98 8b 3e bd 92 35 dd bd d0 e3 04 3d a9 7f 8b 3c
       -0.046519846 -0.10801233 0.03244382 0.017028647
000080 81 07 dd bd 16 d0 f9 bd 03 fe 86 bc 1a 56 1b be
       -0.10792447 -0.12197892 -0.016478544 -0.15169564
000090 47 61 1e 3e 71 fc 51 bd 19 2a 23 3e 4c 73 80 be
       0.15466796 -0.051266138 0.15934028 -0.25087965
0000a0 82 d7 15 3d 61 4b 99 bd 17 92 63 3c ca 82 84 3d
       0.036582477 -0.074850805 0.013889811 0.064702585
0000b0 44 60 8c 3d 5f e0 8c 3c b4 59 32 bd 0e 48 85 3d
       0.06854299 0.017196832 -0.04354258 0.06507884
0000c0 27 d0 47 bd 26 02 ff 3d a0 49 af 3d 44 ad c8 bd
       -0.048782494 0.12451582 0.08558965 -0.09798673
0000d0 e2 6f db bb ac cc b0 bd e0 3d e7 3c df 05 6b bc
       -0.006696687 -0.08632788 0.028227746 -0.0143446615
0000e0 93 ed a5 3d 29 a3 28 3c ad 61 7c bd 68 24 19 3d
       0.08101954 0.010292807 -0.06161659 0.037388235
0000f0 3c 04 34 3e c3 fe 47 3e 7d d0 a2 3c 12 ab 58 3d
       0.1757974 0.19530778 0.019874806 0.05289752
000100 17 13 1d be c3 eb 2f 3e 33 52 d9 bd 91 e9 c2 bc
       -0.15339313 0.1717978 -0.106113814 -0.023793014
000110 f0 87 f1 3c 13 b7 13 be 18 d6 21 be c3 0b a3 bd
       0.029483765 -0.14425306 -0.15804327 -0.07961228
000120 ba 5b b6 bd d3 e5 c1 bd 42 51 f7 3c 74 bd 29 be
       -0.08904214 -0.094676636 0.030190114 -0.16576177
000130 e9 ab ff bc e7 43 45 3e 9b 2a 20 3e d2 c3 10 be
       -0.031209903 0.19264184 0.15641253 -0.141372
000140 d3 d6 31 3d 10 fb b1 3d 77 2f 1c 3d 24 ec 88 3d
       0.043417763 0.086904645 0.038131204 0.06685665
000150 34 18 58 3d 55 13 41 3e b4 02 84 bd c3 89 14 3d
       0.052757457 0.18855031 -0.06445828 0.036264192
000160 ee fa 47 3c 57 ba ab bd d6 ff f9 bd a5 30 b8 bd
       0.012205822 -0.08385151 -0.12207 -0.08993653
000170 d0 05 1c 3e 51 2e 8f 3d c0 4a 03 be 65 81 02 be
       0.15236592 0.06991256 -0.12821484 -0.12744673
000180 45 87 11 3d 71 ed 72 3d 7b c8 98 3d 9b 4b 11 be
       0.035529394 0.059308473 0.074601136 -0.14188997
000190 91 b8 09 be a3 87 19 3c 74 d9 01 bd 99 9c 55 3d
       -0.13449313 0.009370717 -0.03170152 0.052151296
0001a0 fe c1 fc bd 33 af 40 3d d6 a0 9f bd 63 62 ae bd
       -0.123416886 0.047042083 -0.07794349 -0.085148595
0001b0 86 e5 19 be 96 0e f7 3c 50 5c 93 bd 1e 3b ac 3d
       -0.15028962 0.030158322 -0.071953416 0.08409713
0001c0 ed af bf bb c4 76 d0 bb 5b e8 93 3d df 7e 90 3c
       -0.0058498294 -0.006361814 0.07222053 0.017638622
0001d0 b8 9c 49 be 3d 80 bb 3c 2e e0 05 3d 88 da 06 3d
       -0.1968869 0.022888297 0.032684498 0.03292325
0001e0 ad 43 5a bd e6 17 4b 3c 5f 40 7a 3d 72 59 3e 3d
       -0.053287197 0.012395835 0.061096545 0.04647202
0001f0 24 34 50 3e b2 2b 12 3d 27 5c cc bd e5 29 72 3d
       0.2033239 0.035686202 -0.09978514 0.059121985

fc3.weight f4 [64, 128]
000000 00 ec cc bd e8 d4 cf bd 6d ec e7 3d dd 3e 00 be
       -0.10005951 -0.101480305 0.113243915 -0.1252398
000010 20 e6 82 bd 2c b8 9c bd 50 13 0e 3d 51 ac 83 bd
       -0.06391549 -0.076523155 0.034686387 -0.06429351
000020 83 ec c3 3c 1f aa ce bc 71 4e 5c bc 42 3c 21 bd
       0.023916489 -0.025227604 -0.013446436 -0.039364107
000030 54 36 cf 3d aa cd 11 bc a7 81 66 bd 3e 5b 10 be
       0.10117784 -0.008899132 -0.05627599 -0.14097306
000040 e2 f9 b8 bc 1d 26 e5 bd 10 14 83 3b 5b a2 a7 bc
       -0.02258009 -0.1118891 0.0040001944 -0.02046316
000050 e6 25 00 be 05 3d 16 bd 54 ef aa bd 0e e6 be bd
       -0.12514457 -0.036679287 -0.083464295 -0.09321223
000060 55 c8 ef 3c f7 6e 7f bd bd be db 3d de db aa ba
       0.02927033 -0.062361684 0.1072974 -0.0013035496
000070 96 6a 18 3d a8 c7 fc 3d 8e fc 1e bd 8a 11 1e 3d
       0.037211023 0.12342769 -0.038815074 0.038590945
000080 33 6b 9f 3d 38 49 cd 3c 8d 8d 47 bd e1 38 8f 3b
       0.077841185 0.025059327 -0.048718978 0.004370794
000090 af 13 93 3d c2 21 9a 3d 28 88 91 3d 39 81 30 bd
       0.07181489 0.0752597 0.07106048 -0.043091986
0000a0 53 f5 98 3d bb 1c 0b be b6 3e 98 bd 19 ed 0a bd
       0.07468667 -0.13585179 -0.07433836 -0.03391752
0000b0 69 63 31 3d 8b a1 0a bd e4 96 25 bd f8 0c 03 3d
       0.043307696 -0.033845466 -0.040427104 0.03199479
0000c0 8b b9 48 3d 9f 8a b6 3c 68 9a dc 3c ff 9c b9 bd
       0.049005073 0.022282897 0.026929095 -0.09063148
0000d0 b9 3a c1 3d e8 0e db bd 65 e5 4c 3c dd 7b c3 3c
       0.094350286 -0.106962025 0.012505864 0.023862774
0000e0 14 be cf 3c c5 14 78 3d e0 55 98 bc 26 9a 1a 3d
       0.025359191 0.060566682 -0.018595636 0.037744664
0000f0 37 5f e2 3c ab 4d 6e 3d e4 fb 9f 3d ab 89 9a 3d
       0.027633293 0.05817954 0.07811716 0.07545789
000100 fd a2 46 bc a9 33 48 3e 54 bd fe 3d fb e2 a6 bd
       -0.01212382 0.19550957 0.12438455 -0.08148762
000110 d4 86 92 3d a3 6d c2 3c 66 b2 84 bd 6e 35 ba 3c
       0.07154623 0.02373392 -0.06479339 0.022730555
000120 2b 9f 1a 3d 24 70 50 bd f7 63 f3 bd 32 fe 9f bd
       0.03774945 -0.050888196 -0.11884301 -0.07812156
000130 66 e8 bc 3c 97 b4 1d 3d f3 29 d9 3d e0 a1 9f bd
       0.023060035 0.038502302 0.10603704 -0.07794547
000140 c8 6d 15 3d ef b3 0a 3d 93 6c 72 3d 2b 77 d2 3b
       0.03648165 0.033863004 0.059185576 0.0064228973
000150 59 5a 7b 3d 7a bb e4 3d 89 5a ef 3d 85 1d 81 3d
       0.06136546 0.11168571 0.1168719 0.063044585
000160 1e 5b a5 bd 62 b7 52 bd ec 50 5e bc b3 94 9a bd
       -0.0807402 -0.05144442 -0.013569098 -0.075478934
000170 a2 bb 15 bd 95 15 09 bd e8 3d 35 3d 43 c4 97 bc
       -0.036555894 -0.033467848 0.04424849 -0.018526202
000180 b2 10 c5 3d 83 5b b1 3d 00 9e 2d bd 0e fc ae bd
       0.09622325 0.086600326 -0.04238701 -0.08544169
000190 0b d2 09 be cf a9 38 3d d5 8a 88 bd e0 29 3c 3d
       -0.13459031 0.045083817 -0.06667105 0.045938373
0001a0 bf d7 81 bd c1 f9 93 bd 76 e1 c7 bd 59 cb e4 3d
       -0.063399784 -0.07225371 -0.097598 0.11171598
0001b0 70 c8 06 bd c5 26 54 3d c0 b8 a3 bd 79 3a 26 3d
       -0.032905996 0.051794786 -0.07994223 0.040583108
0001c0 b6 df 68 bd 61 5f 59 3d 63 45 53 bd 1a 15 6e bd
       -0.056853972 0.053069476 -0.051579844 -0.058125593
0001d0 85 9b 81 bd aa be d9 3d 1e 74 c7 3d 54 8e 9f 3a
       -0.06328491 0.106320694 0.097389445 0.0012173154
0001e0 e6 77 ac 3b 09 4d b3 3d a7 af 1f 3e 67 6e a5 bd
       0.0052633164 0.08754928 0.1559435 -0.08077698
0001f0 5f 6c 4e 3d f7 19 d1 bc 5b 04 c1 3d da a6 93 3b
       0.05039632 -0.025525076 0.09424659 0.0045059742
000200 c6 e2 a3 3c 5f c6 47 bd bb 0f 68 bd 9b 1e 0b bd
       0.020005595 -0.048773166 -0.056655627 -0.033964735
000210 7c 0e 7f 3c c8 40 82 bd 60 a3 c5 bd 86 64 2d 39
       0.015567418 -0.06360012 -0.09650302 0.00016536014
000220 02 be 51 3d 3e 9b ab 3b 1d e4 52 bd 95 22 06 be
       0.051206596 0.005237012 -0.051487077 -0.1309913
000230 52 3e 73 bb c9 f6 5e bd 9a 62 c2 bd 57 2d 92 bc
       -0.0037116003 -0.05443457 -0.09491463 -0.017843885
000240 e7 11 d6 bd 01 99 6f bc ec 4b 1a bd 8d 15 8b bd
       -0.10452633 -0.014623881 -0.03767006 -0.0679122
000250 ea c1 a1 3d 5e f9 8a bd e6 3f 30 bc 1f 5b 49 bc
       0.07898314 -0.06785844 -0.010757422 -0.012289791
000260 a5 49 e0 3c 80 0a 8a 3d b1 44 89 bd da aa 87 3d
       0.027378866 0.06740284 -0.06702555 0.06624384
000270 2a 59 a8 3c 29 3a fe bd 16 74 af bc 7f c4 ad bc
       0.02055033 -0.12413437 -0.021417659 -0.02121186
000280 b8 7a e4 bd 8e 4d b1 39 ba 07 c0 bd 72 35 26 bd
       -0.11156219 0.00033817854 -0.09376474 -0.040578313
000290 86 35 b1 3d 6f 8f eb 3b d7 1d 32 3d f1 61 59 3c
       0.08652787 0.0071887295 0.04348549 0.01326798
0002a0 bc cb 54 bd c4 5c ac 3d aa 24 90 bd 47 f3 e8 3d
       -0.05195211 0.08416131 -0.07038243 0.113745265
0002b0 7e 88 a2 bc 09 3a b5 3d 6f 19 05 bd e3 56 8c bc
       -0.019840475 0.0884896 -0.03249496 -0.017131275
0002c0 19 eb ef ba cf 32 03 3d 52 30 a0 bd eb 99 d0 bc
       -0.0018304317 0.032030877 -0.07821716 -0.025464019
0002d0 8d 51 a1 3b fd bf 82 3d db 53 15 bd e9 dc 16 bd
       0.0049230517 0.06384275 -0.036456924 -0.03683177
0002e0 e6 93 e1 3c c8 b4 33 bd f6 b7 06 bd 18 da cb bb
       0.027536344 -0.04387358 -0.032890283 -0.006221067
0002f0 96 7f 7d 3d 58 78 b9 bc e5 ae fa ba 45 7a d0 bd
       0.061889254 -0.022640392 -0.0019125609 -0.10179571
000300 9c f5 49 bc 5e df a7 bd ce 70 51 bd 29 7c 39 bc
       -0.012326624 -0.08196901 -0.05113297 -0.011321106
000310 e4 85 ac bd 75 b8 8a bd c3 88 d0 bb 18 14 0e bc
       -0.08423975 -0.06773464 -0.0063639595 -0.008671783
000320 d5 5f 90 3d c2 99 f4 3b 23 82 0c 3d 48 8f 84 bd
       0.070495285 0.0074646184 0.034303796 -0.06472641
000330 6b 5c da 3c 7e 69 4c bd a0 e1 3b bd 81 be 79 bd
       0.026655396 -0.049905293 -0.04586947 -0.060972694
000340 3c 5d 20 bb 69 b0 15 bd e4 a3 b1 bd 06 57 bd bd
       -0.0024469635 -0.03654519 -0.08673838 -0.09245114
000350 1f cb 67 bc 30 c7 3a 3d d7 e2 ec bd 0f d0 5f 3d
       -0.014147549 0.045600116 -0.11566704 0.05464178
000360 8c 17 1a bd cb 52 f3 bd ec 65 5e bc 8d 25 04 3d
       -0.037620112 -0.11881026 -0.013574105 0.032262374
000370 4d e1 d9 bd 0c 42 c3 bd 30 b2 27 bd 79 a3 cc 3d
       -0.10638676 -0.09534082 -0.040941417 0.099921174
000380 2a 86 46 bd 64 3a cf 3b d9 f7 d4 3d 15 d2 ad bd
       -0.048467793 0.0063240994 0.10398836 -0.084873356
000390 5b 34 a7 bc 80 2a 31 3d 8f af 52 3d 4f ce 96 bd
       -0.020410707 0.04325342 0.051436957 -0.07363569
0003a0 c9 35 8a 3b 9b 61 07 be 2c 68 0b bd ad 2f f8 3c
       0.0042178375 -0.13220827 -0.034034893 0.030296171
0003b0 37 0f c7 3d ed 7c 26 3c 58 7f a5 bc e8 ac 38 3d
       0.09719699 0.010161621 -0.020202324 0.04508677
0003c0 e5 3c 03 bd 5b 5c a5 3d a3 9e 42 3d 78 ff b7 bd
       -0.032040495 0.08074256 0.04751457 -0.08984274
0003d0 9b f6 17 3c 03 f2 43 3b 18 b7 f0 bd ca 18 bb 3d
       0.009275104 0.002989889 -0.11753672 0.091355875
0003e0 24 fa c3 bd df 44 31 bc 15 7e d6 3c 32 7c f8 3c
       -0.09569195 -0.010819643 0.026183167 0.030332658
0003f0 60 f1 d7 bd 12 97 49 bd c0 9a 70 bd 23 62 9c 3b
       -0.105440855 -0.049216338 -0.05874133 0.004772441

fc3.bias f4 [64]
000000 d9 96 d0 3c a0 54 d2 3d 5d d0 0d bd e0 92 67 bc
       0.025462555 0.10270047 -0.03462254 -0.014134139
000010 8e c5 33 bb d8 a0 71 3b 5a b0 6f bc 07 4b db bb
       -0.0027430984 0.0036869552 -0.014629448 -0.0066922936
000020 a7 20 67 3e aa f3 e8 3d 02 b0 1f 3e a0 20 78 bd
       0.2257105 0.113746 0.15594485 -0.06057799
000030 ee a1 a0 3d 86 91 31 3d f8 ee 9d 3d 33 24 3f bd
       0.07843386 0.043351673 0.07711595 -0.04666538
000040 c0 e9 1b 3e 3c bd 6c 3c 27 b4 d6 3d 67 aa 03 bd
       0.15225887 0.014449414 0.1048358 -0.03214493
000050 7d af 8c 3d 64 48 c2 3c 6b 19 c0 3d af 6c b1 3d
       0.06869409 0.02371616 0.09379848 0.08663308
000060 7d 1b a9 bd c5 e9 0b 3e d4 ea 87 3c 6c 39 d7 3c
       -0.08257196 0.13663395 0.016591467 0.026272498
000070 d3 98 ec 3c 09 ce 57 bd dc ab 98 3d c9 1e 4b bb
       0.028881466 -0.052686725 0.074546546 -0.0030993691
000080 4f ef 6d 3d 87 b7 e1 3d 37 fe f5 3d c8 87 3c 3d
       0.05808955 0.11021333 0.12011378 0.04602793
000090 38 71 d1 3c fb 56 a9 3c 4f ab ca 3c f6 a5 ad 3d
       0.025566682 0.020671358 0.02473989 0.0847892
0000a0 57 91 ed 3c b2 b8 4c 3d 07 2d bd 3c 96 c8 f9 bd
       0.028999968 0.049980827 0.02309276 -0.12196462
0000b0 a8 12 98 3d 74 6d 1f be 5f 28 14 3e 16 05 85 bd
       0.074254334 -0.15569097 0.14468525 -0.06495111
0000c0 b7 48 97 3d a0 23 5b 3d c4 2b a6 3d 0c 61 38 3c
       0.07386916 0.05350077 0.081138164 0.0112536065
0000d0 8d 05 e7 3d 04 f8 05 3e bc 7c 5a bd b8 49 8c 3d
       0.112803556 0.13082892 -0.053341612 0.06849998
0000e0 74 23 80 3d 0f 59 a5 3d 92 0a fe bc 84 53 b6 3d
       0.06256762 0.08073627 -0.0310109 0.08902648
0000f0 66 df 08 bd 13 21 c2 3d e7 67 fb 3d 4a c1 2c bd
       -0.033416174 0.09478965 0.12275677 -0.042176522

fc4.weight f4 [14, 64]
000000 4e df ad 3d 67 a2 26 be 03 fd 03 3e a5 6f 18 3d
       0.084898576 -0.16272889 0.12889485 0.037215848
000010 2a 2c c3 bb 54 bf 5c 3d 57 7c 18 bd 11 09 f7 3d
       -0.0059561925 0.053893402 -0.037227955 0.12062276
000020 96 01 df 3d 4a 6f 07 be d3 49 d8 3d cc 38 b7 bc
       0.10888974 -0.13226047 0.10560956 -0.02236595
000030 82 98 49 3e db 4a 58 bc 25 86 ef 3d 56 5b e9 bc
       0.19687083 -0.013201441 0.11695508 -0.028485935
000040 7d 72 12 3a 3e b3 76 3d 7d 39 28 be a2 85 ba 3d
       0.0005586518 0.060229532 -0.1642818 0.0910752
000050 f8 ce c8 3d 04 b3 05 3e a1 a6 02 3e 45 ed 1f bd
       0.09805101 0.1305657 0.12758876 -0.039044637
000060 c0 f2 40 bd b8 59 1f 3e c0 58 b5 3d 05 c0 15 3d
       -0.047106504 0.15561569 0.08854818 0.036560077
000070 23 d9 da bc ac 7a 68 3b cc 8a 67 3d ee d3 b5 bd
       -0.026714867 0.0035473509 0.05652885 -0.08878313
000080 36 9a f9 bb 17 58 70 3d 04 17 9b 3d 44 46 83 3c
       -0.0076172603 0.05867776 0.07572749 0.016024716
000090 bd 8e 1a 3e 3b 5c 9f bd 0f 7c 1f be 91 74 e3 bc
       0.15093513 -0.077812634 -0.15574668 -0.027765544
0000a0 70 67 85 3c ae f5 ae 3d 40 22 af 3d 42 a9 00 bd
       0.016284674 0.085429534 0.085514545 -0.031411417
0000b0 f0 39 fc 3b b9 2a c2 bc ae c3 37 3d d3 6c d7 bc
       0.0076973364 -0.023702012 0.04486435 -0.026297009
0000c0 d6 bf 2e 3d f3 12 20 bd 05 2e 46 3e df 32 8a 3d
       0.042663418 -0.03908057 0.19353493 0.06747984
0000d0 3d 1e b8 3b a0 e1 e2 bc 12 55 14 bd f6 4c 53 3e
       0.005618839 -0.027695477 -0.036213942 0.20634827
0000e0 70 a0 ca 3c 6e 2b 0c be 5a a2 d9 bb 6c 48 68 bd
       0.024734706 -0.13688442 -0.0066416683 -0.056709692
0000f0 9e 7e ac bc 4b bf 13 3e 2d d6 19 3c fa 30 58 3e
       -0.02105647 0.14428441 0.009389442 0.21112433
000100 8b 14 ff bc f2 ef ec bd 36 27 00 bd 90 1d c8 bc
       -0.031137725 -0.115692034 -0.031287394 -0.024428159
000110 a8 91 16 be c0 cf ac bd 05 ca 99 bd ae f0 1d 3e
       -0.14704001 -0.08438063 -0.07509235 0.15423843
000120 26 e6 32 bd b8 43 12 3c 2c 4c e5 3d 09 44 22 be
       -0.043676518 0.008927278 0.11196169 -0.15846266
000130 bb b8 0b 3a d8 e9 5a 3d 18 7c ac 3d 00 59 39 bc
       0.0005329956 0.053445667 0.084221065 -0.011312723
000140 e0 72 27 3d 39 40 0c be 2d 1b 59 3b f6 00 e1 3d
       0.040881038 -0.13696374 0.003312777 0.109865114
000150 3c b1 72 3c 3f 8a 5f 3d f2 30 18 3e 37 92 a1 bd
       0.014812764 0.0545752 0.14862421 -0.078892164
000160 67 0a 57 3d 91 e5 42 3d 98 34 f9 bd 44 d8 63 3d
       0.052500155 0.047582213 -0.121682346 0.05562617
000170 e3 e8 01 3e e3 02 7d 3d c3 f1 30 3d 52 3c 4a 3b
       0.12686495 0.06177033 0.043199312 0.0030858708
000180 09 20 25 3e 87 9b e4 bd 75 f1 36 3c b2 c1 87 3d
       0.16125502 -0.11162477 0.011165966 0.06628741
000190 c0 a2 81 3b df 76 cd 3d 90 88 9e bd 5e 28 87 3d
       0.003956169 0.100324385 -0.07740891 0.06599496
0001a0 8d 0a 98 bd 75 18 a8 bc bd 64 a4 bc ce 9d b0 bc
       -0.074238874 -0.020519475 -0.020067567 -0.021559622
0001b0 f3 d1 b0 bd 4e 06 74 3d 06 6b bf 3d 16 93 17 bc
       -0.08633795 0.059576325 0.09346585 -0.009251377
0001c0 15 61 b1 bc 55 c9 8a bc f2 40 31 be f2 31 99 3d
       -0.021652738 -0.016941706 -0.17309931 0.074802294
0001d0 32 25 23 be 7c 3d b5 bd ea b3 6f 3d 4f 0a 7a 3d
       -0.15932158 -0.08849618 0.05852119 0.061044987
0001e0 bf e6 b7 3d 91 87 cb bd 03 20 31 3e b3 ad c9 3d
       0.08979558 -0.099379666 0.17297368 0.098475836
0001f0 17 19 19 3e fe 55 85 3c 9b 49 b9 3d 83 fb 50 3d
       0.14950977 0.016276356 0.09047242 0.05102111
000200 93 97 99 bd 3b ea 08 3e 11 a3 f3 3d ad b0 4d bd
       -0.074996136 0.13370602 0.11896337 -0.05021732
000210 ad ee 89 bd ef e8 aa bd 3a 16 a3 bc 36 e2 ad bd
       -0.06734977 -0.0834521 -0.01990806 -0.08490412
000220 6d 93 bf 3d b6 e5 0e 3e f3 27 a8 3d f3 50 eb bd
       0.09354291 0.13954815 0.08210745 -0.11490049
000230 75 91 d2 bd 7c d7 64 3d e8 59 36 bd 3e 58 80 bd
       -0.1028165 0.055869564 -0.044519335 -0.06266831
000240 7c 02 43 3b f4 01 12 be a6 33 fa 3c b0 f9 c7 bd
       0.002975612 -0.14258558 0.030542206 -0.09764421
000250 4e 6a 1b 3d d2 ec 9c 3d 28 41 1b 3e e8 db 0f bc
       0.037943177 0.076623574 0.15161574 -0.008780457
000260 ed a0 c3 bc 87 bc 1b 3e b3 8d 24 3a 70 55 38 be
       -0.023880446 0.15208636 0.00062772183 -0.18001342
000270 bb 0b ae bd 42 ad 7b bd 12 d1 a1 3d 3a 3f d1 3d
       -0.08498331 -0.06144453 0.07901205 0.10217138
000280 13 93 b2 bd 8c 41 fc 3d 84 28 47 3d 10 db e7 bc
       -0.087194584 0.123171896 0.048622623 -0.0283027
000290 9b 8d 9a 3d 87 92 be bd 75 e7 3a bd 0f 45 25 3c
       0.0754654 -0.093052916 -0.04563089 0.010087266
0002a0 19 e6 41 bb ce 70 e4 3c 60 12 44 3d 99 49 85 bd
       -0.0029586612 0.02788582 0.047869086 -0.06508178
0002b0 58 35 14 3e 8c 4f 3e 3d 1e 66 d2 bc c4 ed ec bd
       0.14473474 0.04646258 -0.025683459 -0.11568788
0002c0 15 41 35 bd 0c aa b7 3c 5a 50 d1 3d 85 55 44 3d
       -0.04425152 0.022419952 0.10220404 0.04793312
0002d0 af d0 ea bd af 44 1c 3e 9b 43 14 3a a7 f3 01 3e
       -0.114655845 0.15260576 0.0005655826 0.12690602
0002e0 ff 08 f9 3c ed e6 9f bd 00 0e 27 3d 6f b5 37 bd
       0.030399797 -0.078077175 0.040784836 -0.044850763
0002f0 e9 7c c9 bd 0d b9 ef 3d 34 34 86 3a 75 5e c4 3d
       -0.09838278 0.117052175 0.0010238946 0.09588329
000300 28 bb 67 bd 56 d3 d4 3d 43 70 0d bd 27 6a 35 3d
       -0.05657497 0.10391872 -0.03453089 0.044290688
000310 f9 d5 dd bd c2 e7 c2 3d ad 81 d0 bd 0c dc ce 3b
       -0.10831828 0.095168605 -0.10180984 0.0063128527
000320 81 bb ed bd ed 19 d7 bd 68 bf 9d 3d e7 01 c0 bc
       -0.11608029 -0.10502992 0.077025235 -0.023438407
000330 4a 20 b1 bd 48 68 93 3d 6e f8 80 bd e2 e2 48 3d
       -0.08648737 0.071976244 -0.06297384 0.049044497
000340 04 ff 3d bd 3e f4 ed bd fc 8a 42 3d 5d b8 fc 3d
       -0.04638578 -0.11618851 0.047495827 0.12339852
000350 57 6b c7 bd 2d 9b a1 3d b0 c5 42 bd fd 99 04 be
       -0.0973727 0.078909256 -0.04755181 -0.12949367
000360 36 e7 d4 3d 61 b1 35 bd 23 cf 97 bd a3 e2 e6 bb
       0.103956625 -0.044358615 -0.07412555 -0.00704606
000370 37 15 80 3d fe 88 db bd 9b 89 b3 3d c5 d7 92 3a
       0.062540464 -0.107194886 0.087664805 0.001120322
000380 48 ca a7 3d 93 cc 25 3c 74 14 71 bb c6 ef 77 bd
       0.08192879 0.010119575 -0.0036785873 -0.0605314
000390 4a 32 89 bd b8 a8 25 bb 30 3f 05 3d cc 4f cd bd
       -0.06699045 -0.0025277566 0.032530963 -0.10024986
0003a0 dc bc 62 3d 13 29 fd 3d 98 87 21 bd f2 71 11 be
       0.05535589 0.1236135 -0.039435953 -0.14203623
0003b0 f4 ea d8 3d 36 ac 73 bc 7d b8 ba 3d 9a 5b 9e 3d
       0.10591689 -0.014872601 0.091172196 0.07732315
0003c0 9b dc 5b bd 50 04 ca 3c ec 84 2e 3d 06 d1 e6 3d
       -0.053677183 0.02466026 0.042607233 0.11270337
0003d0 f3 1a e9 bc 08 7e 46 bd ca 4d d7 3c 12 99 6d 3d
       -0.028455233 -0.048460037 0.02628221 0.058007307
0003e0 42 14 0d 3e fa b1 8a bd 09 09 fd 3d f6 0c a6 bc
       0.13777259 -0.067722276 0.12355239 -0.020269852
0003f0 a0 bb 04 3e 26 2d a5 3d c4 76 3f 3d c6 b7 cc bd
       0.12962198 0.08065252 0.046744123 -0.099959895

fc4.bias f4 [14]
000000 20 6d 0d 3d a4 c3 fa 3c c3 b8 1b bc fc 00 82 3d
       0.034527898 0.030610867 -0.0095045 0.06347844
000010 29 21 5e bd 12 da 0e 3e 4f 20 47 3d d0 f8 56 3d
       -0.054230843 0.13950375 0.048614796 0.05248338
000020 d4 5e ef bc 2b fb 8d 3d 66 89 d4 3d 08 31 c2 bb
       -0.029220022 0.06932672 0.10377769 -0.005926255
000030 94 2d 19 be 5f b7 88 3d
       -0.14958793 0.066756
