bc_checkpoint.pth (torch, 18180 bytes, 6 tensors)

fc1.weight f4 [50, 23]
-0.019774467 0.14816378 0.010205805 0.1250319 -0.07039642 0.026889369 0.024597242 -0.07673758
0.049944 -0.11585656 0.1964414 0.030272812 -0.12857215 -0.16378114 0.19035865 -0.035139695
0.0885476 -0.06268568 -0.07638875 0.15843646 -0.062656105 -0.17372692 -0.00053173304 0.19780295
0.007718548 -0.15312761 0.0960374 -0.13764608 -0.016568914 0.081411496 -0.10157396 0.114192024
0.060886428 -0.051477447 0.10511251 -0.07323103 -0.0580886 0.19913934 -0.061468422 -0.016664207
0.19340678 -0.03838761 0.08784686 -0.04616204 0.028209671 -0.17524259 0.17272916 -0.3400698
0.12744536 0.08799372 -0.08881108 -0.028018862 -0.060240585 0.012143597 0.034730077 -0.29857373
-0.030428883 0.11272155 0.097274736 -0.08147414 -0.16538337 0.12191917 -0.10487989 0.041434586
-0.040759627 -0.16363451 0.16891587 -0.032548185 0.013425396 -0.04658639 0.18672043 0.24200791
0.14001428 0.082114846 -0.042366516 0.12605189 -0.11402147 0.08303498 0.17813152 -0.20534645
-0.2318702 -0.11935489 -0.23478739 0.15072408 0.11410831 0.14524253 -0.25848484 -0.0898698
-0.199926 0.12545945 -0.34159052 -0.046351496 0.13919128 0.0684589 0.16344665 -0.1974681
-0.01889579 0.06727429 0.17172976 0.08182643 -0.110045224 -0.0088900775 -0.16505325 0.008777231
-0.18695295 -0.058604687 0.01700084 -0.10792861 -0.13388261 -0.09324696 0.20363437 -0.11914179
-0.0904967 -0.018180028 0.0031879842 0.13779803 -0.089910656 -0.024838455 0.54321724 0.29076335
-0.43054035 0.30634627 -0.03068596 -0.2009677 0.31120542 -0.588367 0.59612304 0.4107298
-0.20529704 0.1695063 -0.038474604 -0.16340685 -0.37598044 0.5800464 0.12560399 -0.07538824
-0.18636884 0.14214522 -0.041257948 -0.00803256 0.15418045 -0.15289958 -0.12300385 0.037026003
0.13809414 -0.06578098 0.18810602 -0.15357889 -0.01783833 -0.05795221 0.19605355 -0.068906784
0.17933042 0.047121033 -0.08234076 -0.030093253 -0.10471571 0.09229313 -0.13624245 0.099522635
0.03902006 0.029061362 0.02286242 -0.06260145 0.19918893 0.12298094 0.115155056 -0.13458197
0.10534383 0.11138825 -0.12836438 -0.09203099 -0.11830973 -0.045149222 -0.11444185 -0.053563043
-0.12208628 -0.20206599 0.09025212 -0.09527754 0.025381982 -0.08395932 -0.14886355 0.11856462
0.1776373 -0.14177768 0.033731043 0.11085038 0.0708781 0.00033812225 0.1901219 0.12468235
0.047454253 -0.07222633 0.17744894 -0.18859571 0.14146976 0.18315105 0.099432126 -0.20515902
0.08394651 -0.03410971 0.087589666 -0.16882157 -0.11779887 0.045721278 -0.16718979 -0.1804115
-0.41149107 0.13015726 -0.33839273 0.1838366 0.022565879 -0.1434768 0.004306156 0.13334094
-0.17899525 -0.16332008 -0.08148789 -0.05740399 -0.052951325 -0.10561742 -0.10496946 -0.04776815
0.096271224 0.012571025 0.101131484 0.14209385 0.23549864 0.14336017 -0.011949251 0.2523869
0.18411191 -0.08827037 -0.11015533 0.05564915 -0.18309323 -0.2110471 0.16843478 -0.27299798
0.143977 -0.35395166 0.03998282 -0.17134908 -0.10833609 -0.15488489 -0.20941818 0.11540132
-0.1448751 0.2734682 0.0841329 -0.17049001 0.16148035 0.14977814 0.18055998 -0.104348354
00000000: 10fe a1bc 3fb8 173e 4036 273c 5d08 003e
00000010: 002c 90bd 1847 dc3c 2880 c93c 9828 9dbd
00000020: 1492 4c3d 3446 edbd ef27 493e b0fe f73c
00000030: 6ba8 03be 3eb6 27be 61ed 423e a4ee 0fbd
00000040: 7258 b53d 5a61 80bd b471 9cbd 2b3d 223e
00000050: d851 80bd 78e5 31be 0064 0bba db8c 4a3e
00000060: e0eb fc3b 7ccd 1cbe 42af c43d 18f3 0cbe
00000070: 88bb 87bc 12bb a63d 0206 d0bd 82dd e93d
00000080: 0c64 793d 04da 52bd 3a45 d73d 26fa 95bd
00000090: 50ee 6dbd 2feb 4b3e 50c6 7bbd 6083 88bc
000000a0: 6d0c 463e 543c 1dbd 0ee9 b33d 6814 3dbd
000000b0: f817 e73c cb72 33be eadf 303e a11d aebe
000000c0: 0981 023e 0d36 b43d 95e2 b5bd d087 e5bc
000000d0: d5be 76bd f0f5 463c 2041 0e3d a8de 98be
000000e0: fe45 f9bc 8eda e63d fa37 c73d eadb a6bd
000000f0: 425a 29be c2b0 f93d 45cb d6bd 50b7 293d
00000100: 91f3 26bd ce8f 27be 48f8 2c3e 3f51 05bd
00000110: 31f6 5b3c 5fd1 3ebd a433 3f3e ecd0 773e
00000120: e75f 0f3e d42b a83d 8388 2dbd bf13 013e
00000130: 1784 e9bd 3e0e aa3d 1c68 363e 5746 52be
00000140: 626f 6dbe 5670 f4bd 1b6c 70be 6a57 1a3e
00000150: 9eb1 e93d 75ba 143e 2058 84be a80d b8bd
00000160: 67b9 4cbe 7178 003e f4e4 aebe 11db 3dbd
00000170: 2988 0e3e 2e34 8c3d 8f5e 273e 1435 4abe
00000180: 58cb 9abc 1ac7 893d edd9 2f3e 9e94 a73d
00000190: 645f e1bd b0a7 11bc b803 29be 60ce 0f3c
000001a0: 9870 3fbe 780b 70bd 5845 8b3c ad09 ddbd
000001b0: 8618 09be 43f8 bebd 8785 503e 9c00 f4bd
000001c0: 5556 b9bd 48ee 94bc 80ed 503b ed1a 0d3e
000001d0: 1423 b8bd 047a cbbc 4910 0b3f efde 943e
000001e0: c96f dcbe 6bd9 9c3e 1f61 fbbc 7aca 4dbe
000001f0: 5156 9f3e 389f 16bf 859b 183f 2d4b d23e
00000200: 6339 52be 0f93 2d3e 8c97 1dbd 2054 27be
00000210: 8280 c0be ec7d 143f 559e 003e 2665 9abd
00000220: 79d7 3ebe 848e 113e 18fe 28bd 009b 03bc
00000230: 7be1 1d3e b591 1cbe 71e9 fbbd 94a8 173d
00000240: 8d68 0d3e 2eb8 86bd dd9e 403e c943 1dbe
00000250: b021 92bc 4c5f 6dbd 43c2 483e 001f 8dbd
00000260: 65a2 373e fc01 413d 46a2 a8bd 2086 f6bc
00000270: 3175 d6bd 2e04 bd3d 2483 0bbe 86d2 cb3d
00000280: 80d3 1f3d 1812 ee3c f849 bb3c 3035 80bd
00000290: 2ff8 4b3e 6edd fb3d 6ad6 eb3d dbcf 09be
000002a0: 82be d73d 861f e43d f471 03be be7a bcbd
000002b0: 5f4c f2bd 64ee 38bd 7d60 eabd ec64 5bbd
000002c0: 5f08 fabd 63ea 4ebe 1ad6 b83d df20 c3bd
000002d0: e0ed cf3c ddf2 abbd b06f 18be 02d2 f23d
000002e0: 8de6 353e 2b2e 11be 9029 0a3d 8605 e33d
000002f0: 8a28 913d 0046 b139 51af 423e 7659 ff3d
00000300: 645f 423d 66eb 93bd 2db5 353e 3c1f 41be
00000310: 73dd 103e f38b 3b3e 12a3 cb3d 3515 52be
00000320: 26ec ab3d a0b6 0bbd 3662 b33d 90df 2cbe
00000330: 8940 f1bd 3c46 3b3d cd33 2bbe cbbd 38be
00000340: f5ae d2be f247 053e d041 adbe a93f 3c3e
00000350: 14dc b83c 95eb 12be a81a 8d3b 878a 083e
00000360: 884a 37be 613d 27be 1fe3 a6bd 7220 6bbd
00000370: 7de3 58bd f24d d8bd 3afa d6bd 89a8 43bd
00000380: d929 c53d b3f6 4d3c 061e cf3d 0d81 113e
00000390: 8e26 713e 02cd 123e cbc6 43bc db38 813e
000003a0: d587 3c3e 19c7 b4bd 1e99 e1bd 5df0 633d
000003b0: cb7c 3bbe bb1c 58be 2b7a 2c3e 64c6 8bbe
000003c0: b56e 133e 2739 b5be 07c5 233d 2276 2fbe
000003d0: 50df ddbd 259a 1ebe b871 56be 8757 ec3d
000003e0: 235a 14be 0604 8c3e df4d ac3d ef94 2ebe
000003f0: 1b5b 253e 715f 193e b7e4 383e 97b4 d5bd

fc1.bias f4 [50]
-0.11661106 -0.12365186 -0.09760142 0.10971618 -0.022217155 0.3188929 -0.0014171898 -0.12707484
-0.09213924 -0.18943734 0.12996586 0.11029939 -0.113668434 0.059991274 -0.10922205 0.0930382
-0.4336392 -0.20464696 -0.071747795 0.120805755 0.05650724 0.1645347 -0.16818641 0.653789
-0.019095415 0.18522109 -0.059638306 -0.18917075 -0.15245044 -0.121304035 0.17720115 0.10152278
0.01595099 0.18792942 -0.22464049 0.0072934492 0.13864024 0.248013 -0.105420604 0.10765759
-0.18247904 0.13160692 0.0076123304 -0.06151129 0.1233015 -0.12141688 -0.10926857 -0.062605366
0.13192223 -0.046591237
00000000: c8d1 eebd 303d fdbd 41e3 c7bd e0b2 e03d
00000010: c000 b6bc ee45 a33e 00c1 b9ba e81f 02be
00000020: 7fb3 bcbd ddfb 41be c515 053e a6e4 e13d
00000030: ffca e8bd 69b9 753d cfaf dfbd d08a be3d
00000040: f505 debe f98e 51be 82f0 92bd 0269 f73d
00000050: 2374 673d c97b 283e 0f39 2cbe b75e 273f
00000060: fd6d 9cbc 99aa 3d3e 4c47 74bd fab5 41be
00000070: f81b 1cbe 406e f8bd 3874 353e 2deb cf3d
00000080: a7ab 823c 9270 403e 2808 66be e3fd ee3b
00000090: b5f7 0d3e 1ff7 7d3e c2e6 d7bd 957b dc3d
000000a0: c9db 3abe f7c3 063e db70 f93b 43f3 7bbd
000000b0: 7f85 fc3d 6aa9 f8bd 33c8 dfbd 3e37 80bd
000000c0: 9f16 073e 74d6 3ebd

fc2.weight f4 [50, 50]
0.049536258 -0.06894021 -0.10671744 0.022269608 0.12194149 0.009344412 0.050691605 0.116967395
-0.049409278 0.046046264 0.094657525 -0.13201684 0.09991568 -0.07988171 0.15045084 -0.22292918
-0.54791003 -0.11643044 0.10962133 0.080001175 -0.061007228 0.01148048 0.062436964 0.30825606
-0.10995586 0.023975082 0.06422284 -0.22027521 -0.028294878 0.008764625 -0.03585322 -0.016225655
-0.02971958 0.094012044 0.09608001 -0.12184653 -0.12008177 0.33909395 0.01709702 0.07157751
0.13402809 0.004232064 -0.15693292 0.09036251 -0.1857256 0.033134893 0.0004492253 -0.047052275
0.07938482 0.105701685 0.06835787 -0.0042006522 -0.0011673594 0.018371558 0.046548843 -0.049686514
-0.017749958 0.07221301 -0.08780807 0.14727359 -0.051773556 0.092047065 0.102350034 0.004688221
-0.012594979 0.1000372 0.4136732 -0.07375083 0.03002727 0.0978577 0.0009865945 -0.030982845
-0.0966284 -0.21040261 0.09180976 0.10263 0.13011898 0.21534938 0.01619028 -0.12849306
0.13875106 0.12653959 -0.10804552 0.05696883 -0.0327182 0.005854045 0.12736632 -0.12850396
-0.121066004 -0.025201898 -0.023661427 -0.059124634 0.12740754 -0.073508054 0.29027048 -0.051533222
-0.02759263 -0.112476215 0.06265961 -0.12301253 -0.11723511 -0.045753777 -0.37444162 -0.027536435
-0.13644072 0.80173385 -0.051060185 -0.11056604 -0.053569622 -0.16791989 -0.46392366 -0.07008047
-0.27169767 -0.16900325 0.14686966 -0.26860186 0.12437113 -0.11835665 0.06306988 0.070427254
-0.79730237 0.016489461 0.070252 0.475441 -0.0862148 0.15488476 0.059057057 -0.4833195
-0.23034473 0.13965128 0.040297043 -0.105323836 -0.1090583 -0.060484182 0.15579028 -0.20179592
-0.0076802373 0.54339683 0.2208443 -0.077435546 0.038014844 -0.103935584 -0.31356096 0.037510335
-0.5001118 -0.026087113 0.08370958 0.4106736 -0.009612814 0.08866368 -0.05718611 0.10754578
-0.025204003 0.081214145 0.101531684 -0.1242228 -0.008703858 -0.12707084 0.12528391 -0.048706703
-0.11847026 0.018336758 0.06692357 0.034696504 -0.0835928 0.022503689 -0.07742329 0.08778639
-0.0682839 0.06195663 0.08164154 0.061674908 -0.06872587 -0.042164385 -0.08894907 -0.076984204
-0.072705 0.06563303 -0.031157225 0.040382072 -0.011103332 -0.048706703 0.12406014 0.1306024
-0.073579535 -0.008791536 0.039063275 -0.008666351 -0.051971972 -0.08136227 -0.072905585 -0.09882723
0.08577773 -0.075734735 0.06092684 -0.105452195 0.1349078 0.025415167 -0.006926626 0.03432527
0.036165 -0.09606838 0.013243465 -0.13079058 0.00085009634 0.034967437 -0.039959952 0.017664015
-0.026820399 0.067322925 -0.083285026 0.06114064 0.013077746 -0.13122855 0.019304408 0.2149952
0.4055075 0.08047426 0.016424507 -0.100976676 0.07219351 0.10445081 -0.02828328 -0.37491676
0.0556191 0.13614099 0.10869934 0.5625587 -0.09905955 -0.12689431 -0.07139186 0.14347012
-0.05845125 0.12018889 0.022738276 0.0345378 -0.0022791177 -0.34628287 0.09704412 0.0037041416
0.09685089 -0.035342664 0.061230574 -0.078839265 0.41218534 0.059523746 0.1368797 0.08306697
-0.051127262 -0.09822571 0.104903564 -0.0831483 -0.052918553 0.049134508 -0.08467855 -0.08706038
00000000: 88e6 4a3d 8630 8dbd ac8e dabd c16e b63c
00000010: 76bc f93d 4e19 193c 00a2 4f3d 9a8c ef3d
00000020: 6261 4abd 029b 3c3d cedb c13d 6c2f 07be
00000030: 98a0 cc3d 0699 a3bd c90f 1a3e 8c47 64be
00000040: d543 0cbf 1573 eebd 2681 e03d a8d7 a33d
00000050: b7e2 79bd a018 3c3c e7bd 7f3d bdd3 9d3e
00000060: 8a30 e1bd 6467 c43c 4487 833d d38f 61be
00000070: a9ca e7bc 8099 0f3c d3da 12bd aaeb 84bc
00000080: 7a76 f3bc 6389 c03d 99c5 c43d ac8a f9bd
00000090: 6eed f5bd b99d ad3e 0d0f 8c3c 3b97 923d
000000a0: a93e 093e 20ad 8a3b 06b3 20be fb0f b93d
000000b0: da2e 3ebe 74b8 073d 0086 eb39 e3b9 40bd
000000c0: 8294 a23d 207a d83d 36ff 8b3d a0a5 89bb
000000d0: 1502 99ba f37f 963c 00aa 3e3d 1684 4bbd
000000e0: 5c68 91bc 6ae4 933d b8d4 b3bd e3ce 163e
000000f0: 8210 54bd 2c83 bc3d e59c d13d a69f 993b
00000100: 2c5b 4ebc 4ee0 cc3d f9cc d33e ad0a 97bd
00000110: c0fb f53c 9e69 c83d 9e50 813a bccf fdbc
00000120: 1ce5 c5bd c873 57be c106 bc3d ad2f d23d
00000130: e93d 053e 8c84 5c3e 7aa1 843c af93 03be
00000140: c214 0e3e 9893 013e f846 ddbd 2658 693d
00000150: 8503 06bd 4ad3 bf3b 516c 023e 8b96 03be
00000160: 74f1 f7bd 3674 cebc 9cd5 c1bc ac2c 72bd
00000170: 1f77 023e 648b 96bd 559e 943e 8014 53bd
00000180: f009 e2bc ee59 e6bd ae53 803d feed fbbd
00000190: f618 f0bd 5068 3bbd d0b6 bfbe 1794 e1bc
000001a0: 1eb7 0bbe 6e3e 4d3f 7c24 51bd 7370 e2bd
000001b0: d26b 5bbd 31f3 2bbe 6787 edbe 5986 8fbd
000001c0: f51b 8bbe 300f 2dbe 0065 163e 2f86 89be
000001d0: 4ab6 fe3d f964 f2bd c82a 813d 2a3c 903d
000001e0: 021c 4cbf e814 873c 48e0 8f3d 016d f33e
000001f0: 6391 b0bd 1c9a 1e3e d0e5 713d a775 f7be
00000200: 7ddf 6bbe bf00 0f3e 830e 253d 06b4 d7bd
00000210: f559 dfbd 43be 77bd 7d87 1f3e 97a3 4ebe
00000220: 80aa fbbb 0e1c 0b3f 0225 623e 8796 9ebd
00000230: 74b5 1b3d 2edc d4bd 108b a0be 70a4 193d
00000240: 5407 00bf a4b4 d5bc ee6f ab3d cf43 d23e
00000250: 107f 1dbc 4e95 b53d fc3b 6abd f640 dc3d
00000260: a078 cebc 9a53 a63d d8ef cf3d 8668 febd
00000270: a09a 0ebc dc1e 02be 6d4a 003e ae80 47bd
00000280: 89a0 f2bd f836 963c 3a0f 893d ec1d 0e3d
00000290: b432 abbd a859 b83c 1a90 9ebd 5ac9 b33d
000002a0: 6ed8 8bbd 3cc6 7d3d ae33 a73d d49e 7c3d
000002b0: 26c0 8cbd 90b4 2cbd ee2a b6bd e5a9 9dbd
000002c0: 5ce6 94bd 9c6a 863d 703d ffbc ac67 253d
000002d0: c0ea 35bc ae80 47bd 3e13 fe3d a3bc 053e
000002e0: deb0 96bd 600a 10bc d000 203d 50fd 0dbc
000002f0: 90e0 54bd 43a1 a6bd 864f 95bd ee65 cabd
00000300: 3cac af3d d01a 9bbd 6c8e 793d 52f7 d7bd
00000310: 4525 0a3e 7833 d03c c0f8 e2bb a898 0c3d
00000320: c021 143d 80bf c4bd 1efb 583c f7ed 05be
00000330: 00d9 5e3a 043a 0f3d 0cad 23bd 20b4 903c
00000340: 74b6 dbbc 9ae0 893d 5791 aabd 9c6e 7a3d
00000350: 0b44 563c c760 06be 4724 9e3c b427 5c3e
00000360: ae9e cf3e b0cf a43d b08c 863c dccc cebd
00000370: 31da 933d 4eea d53d 56b2 e7bc 17f5 bfbe
00000380: dad0 633d 8b68 0b3e c29d de3d d903 103f
00000390: bcdf cabd 95f0 01be e535 92bd d5e9 123e
000003a0: 946a 6fbd 9825 f63d 9f45 ba3c 8277 0d3d
000003b0: 405d 15bb fd4b b1be 11bf c63d 2fc1 723b
000003c0: c259 c63d 78c3 10bd e9cc 7a3d 7b76 a1bd
000003d0: f509 d33e 2ccf 733d 312a 0c3e 041f aa3d
000003e0: d26a 51bd 902a c9bd aed7 d63d a849 aabd
000003f0: 20c1 58bd 4441 493d f36b adbd b64c b2bd

fc2.bias f4 [50]
0.09485083 -0.021416431 0.24969475 0.10751571 0.08153948 -0.059906185 -0.009025275 0.056195345
0.1161883 -0.022979423 -0.122428045 -0.10389796 -0.14137831 0.044028413 -0.09936657 -0.13984348
0.08495586 -0.2034815 0.067298606 0.0907275 -0.13855912 0.12728238 0.024980543 -0.04240416
0.085108995 -0.06965779 -0.05905526 0.10948615 0.13191983 -0.15944633 0.018533617 -0.11820499
0.1369264 -0.077055834 0.038236767 -0.07500675 0.017049406 0.03328307 -0.0143793225 0.09615758
-0.104054004 -0.066992894 0.0016721417 -0.11033532 -0.06575391 0.06433457 -0.13164465 0.052517295
0.042228483 -0.057896808
00000000: 2741 c23d 8371 afbc fbaf 7f3e 3231 dc3d
00000010: 2cfe a63d 3060 75bd bfde 13bc 172d 663d
00000020: 22f4 ed3d 583f bcbc 8ebb fabd 74c8 d4bd
00000030: 7ac5 10be 2357 343d b380 cbbd 2133 0fbe
00000040: 57fd ad3d 745d 50be dad3 893d 57cf b93d
00000050: 71e2 0dbe 5056 023e ffa3 cc3c fcaf 2dbd
00000060: a04d ae3d bea8 8ebd eee3 71bd 463a e03d
00000070: fe15 073e e645 23be d0d3 973c 7515 f2bd
00000080: 6f36 0c3e 73cf 9dbd 289e 1c3d 249d 99bd
00000090: 32ab 8b3c d453 083d 4097 6bbc 44ee c43d
000000a0: 441a d5bd 9233 89bd c42b db3a 7cf7 e1bd
000000b0: fca9 86bd d8c1 833d dbcd 06be 601c 573d
000000c0: c6f7 2c3d 3425 6dbd

fc3.weight f4 [3, 50]
0.006063753 -0.13987531 -0.028044011 -0.09067753 -0.07211752 -0.028687678 -0.084335245 -0.098416016
0.099055 0.056985945 -0.096997306 0.091371 0.06974532 0.12006314 0.11880759 -0.0009985417
0.010632954 0.020452205 0.1389601 0.09305653 -0.08614309 0.116834305 -0.064747125 -0.12157666
0.06799343 -0.011418941 0.058675453 0.08914009 0.0436778 -0.07121565 0.13406591 -0.08426234
-0.09092471 -0.08778153 0.14133756 -0.031568106 -0.09748004 0.042798966 -0.010789037 -0.05658009
0.1261523 0.0400849 0.08895307 -0.09667246 -0.10095759 -0.068945065 0.08280582 -0.04520774
-0.0022439654 0.12260522 0.24383281 -0.07911315 0.7393936 -0.1278115 -0.08934852 0.11542691
0.4796448 -0.0015610725 -0.04082278 -0.09032628 -0.12477226 -0.06425225 0.23906673 -0.39222744
0.25223538 -0.11021199 -0.016534712 -0.33010572 -0.06522449 0.10997614 -0.03688905 0.10664985
0.18936941 -0.18876237 0.18558158 -0.12707308 -0.06828527 -0.06572518 -0.07830996 0.28777924
-0.1282127 -0.022941574 -0.07973921 0.15678236 0.028692812 -0.084571496 -0.09684774 -0.09267553
0.030230194 -0.13217911 -0.09088358 -0.107111335 0.09016159 0.10019829 -0.085829645 -0.13343066
-0.0018047054 -0.008588154 -0.024670644 -0.12167844 -0.11880664 0.029945236 -0.018553728 -0.08738207
-0.07050206 -0.06916652 0.07081495 -0.031694528 0.119476736 0.09268847 0.10283797 -0.02716206
-0.06306986 -0.029332295 0.015705515 0.016982555 0.09267129 0.010446458 0.052735083 -0.047716368
0.002610551 -0.04131929 0.10213413 0.004618484 0.029191937 -0.1307956 -0.07690337 0.02571933
0.08475259 0.11609365 -0.1310409 -0.12182471 -0.021696746 -0.0284732 -0.048773125 -0.06665174
-0.06325391 -0.11040662 -0.016062707 0.019569024 0.106333315 0.058605928 -0.0936026 -0.10178058
0.13287614 -0.10283781 0.079044074 0.052242648 0.04200363 0.039017156
00000000: 72b2 c63b 793b 0fbe 8ebc e5bc 24b5 b9bd
00000010: 5ab2 93bd 6c02 ebbc f5b7 acbd 568e c9bd
00000020: 59dd ca3d 186a 693d 86a6 c6bd b820 bb3d
00000030: a2d6 8e3d aae3 f53d 6551 f33d 80e1 82ba
00000040: d735 2e3c 628b a73c 8e4b 0e3e 6c94 be3d
00000050: ca6b b0bd d346 ef3d 249a 84bd 2ffd f8bd
00000060: 2440 8b3d 8316 3bbc ac55 703d 148f b63d
00000070: 7ee7 323d 83d9 91bd 9348 093e bc91 acbd
00000080: bc36 babd cec6 b3bd cbba 103e 8f4d 01bd
00000090: 9da3 c7bd f84d 2f3d 80c4 30bc 86c0 67bd
000000a0: 122e 013e 1030 243d 072d b63d 36fc c5bd
000000b0: dac2 cebd 1233 8dbd 1996 a93d c02b 39bd
000000c0: 7e0f 13bb 7218 fb3d 4faf 793e 1306 a2bd
000000d0: e648 3d3f 05e1 02be 5bfc b6bd f264 ec3d
000000e0: 0194 f53e e79c ccba ca35 27bd fcfc b8bd
000000f0: 9988 ffbd af96 83bd e9cd 743e 09d2 c8be
00000100: ff24 813e d3b6 e1bd ce73 87bc 9e03 a9be
00000110: 6b94 85bd 2c3b e13d f918 17bd 3d6b da3d
00000120: 0eea 413e ec4a 41be 1909 3e3e 721f 02be
00000130: 26d9 8bbd ec9a 86bd f960 a0bd cd57 933e
00000140: 314a 03be f8ef bbbc 504e a3bd 8e8b 203e
00000150: 300d eb3c d233 adbd 1c58 c6bd abcc bdbd
00000160: 50a5 f73c f659 07be 2c21 babd 305d dbbd
00000170: a4a6 b83d c334 cd3d 74c7 afbd 0ca2 08be
00000180: dd8b ecba 54b5 0cbc 171a cabc 8c32 f9bd
00000190: e550 f3bd b64f f53c fdfd 97bc 5ff5 b2bd
000001a0: 6263 90bd 2da7 8dbd 6e07 913d 1fd2 01bd
000001b0: 38b0 f43d 74d3 bd3d b79c d23d f882 debc
000001c0: c52a 81bd 484a f0bc daa8 803c 001f 8b3c
000001d0: 72ca bd3d 9f27 2b3c be00 583d 3d72 43bd
000001e0: c715 2b3b 6a3e 29bd b32b d13d a756 973b
000001f0: ee23 ef3c 48ef 05be 847f 9dbd 58b1 d23c
00000200: c492 ad3d 82c2 ed3d 962f 06be 3c7f f9bd
00000210: 60bd b1bc a140 e9bc 54c6 47bd b580 88bd
00000220: 448b 81bd de1c e2bd f095 83bc 384f a03c
00000230: 48c5 d93d c50c 703d b8b2 bfbd 5672 d0bd
00000240: af10 083e a19c d2bd dce1 a13d 63fc 553d
00000250: 000c 2c3d 74d0 1f3d

fc3.bias f4 [3]
-0.018690074 -0.109173164 -0.030020691
00000000: ed1b 99bc 2e96 dfbd f4ed f5bc
