bc_checkpoint.pth (torch, 4036 bytes, 6 tensors)

fc1.weight f4 [10, 23]
000000 2b ff e9 bd ab dd f2 bd 2f 06 18 be 53 b1 6d 3f
       -0.114256226 -0.11858686 -0.14846109 0.928487
000010 8e 5f d8 bd 01 97 9e 3f b1 5d 9a bf be 48 b1 3d
       -0.105651006 1.2389833 -1.2059842 0.086564526
000020 c0 5b 22 bd e3 2f 7d 3e 20 8d 6c bd ed 97 96 3e
       -0.03963828 0.24725299 -0.057751775 0.29412785
000030 bb ea 3a 3e 72 cc dd 3e b5 d6 d9 bb 83 04 df 3e
       0.18253605 0.43320042 -0.0066479095 0.4355813
000040 c8 a4 14 bd 85 b5 c8 3e 89 82 81 bd 7f 2b dd 3e
       -0.03628996 0.39200988 -0.06323726 0.43197247
000050 eb 01 99 3e d6 98 58 be c5 c5 f6 3f 1f d5 7e 3f
       0.29884276 -0.21152052 1.9279104 0.99543947
000060 05 0f 13 40 c0 4a 66 be b9 da 31 3f 6e d3 4f be
       2.2977917 -0.22489452 0.6947437 -0.20295498
000070 aa 09 55 3f 96 19 e4 3e cc 1f 54 3f 71 29 14 be
       0.8321787 0.4455077 0.8286102 -0.14468934
000080 bc 67 94 3d 49 59 27 3f 3f b5 bf 3e 02 e3 4a 3f
       0.07246348 0.65370613 0.37442967 0.79252636
000090 0b 4b 01 3f 59 e3 35 3f 35 82 0a 3f ae 70 1a 3f
       0.5050513 0.7105003 0.5410493 0.60328186
0000a0 56 48 d4 3e da 11 31 3f 87 2c 12 3f 76 7a 93 3d
       0.41461438 0.69167864 0.57099193 0.07201092
0000b0 ad 56 3f 3e d8 74 34 c0 a7 62 c5 be b6 59 bb be
       0.18685408 -2.8196316 -0.38551828 -0.36591882
0000c0 5a 52 94 3e 18 7f 9b bf 09 86 6b 3e cf 89 a3 bf
       0.2896908 -1.2148161 0.23000349 -1.2776431
0000d0 10 e9 51 3f 5d d7 40 be 68 df 83 bd 31 e0 aa bd
       0.8199625 -0.18832155 -0.06439096 -0.08343542
0000e0 21 1d a6 be b7 3d a2 be 9d fb 8f bd 85 11 46 be
       -0.324441 -0.3168771 -0.07030413 -0.1934262
0000f0 a8 a8 74 be e9 9c 45 be c5 67 a9 be 52 ce 3d be
       -0.23892462 -0.19298138 -0.33086982 -0.18535736
000100 57 12 b3 be 3a c7 ca be 4c c8 85 3e 16 e9 29 3e
       -0.3497493 -0.39605123 0.26129377 0.16592821
000110 b4 21 63 3f b5 8c 20 3d 1f 51 d8 be f1 56 5d 3e
       0.887233 0.03919669 -0.4224939 0.21615197
000120 3f 96 15 be 72 4c 5d 3e e2 d0 1f be 5d bd 9c 3f
       -0.14608096 0.21611193 -0.15607026 1.2245289
000130 32 66 97 be 3c 89 30 3d 63 8f ef be 69 84 96 be
       -0.29570156 0.043099627 -0.46789083 -0.29397896
000140 a1 11 01 be d7 5b 98 be 13 eb fe bd 7a 86 95 be
       -0.12604381 -0.29757568 -0.124471806 -0.2920416
000150 c8 07 ea bd 62 9a 48 be e7 77 39 b9 6e 94 8a be
       -0.114272654 -0.19590142 -0.00017687642 -0.27066368
000160 25 a0 0d be 47 26 2b 3d 0e 3a 6b 3d 35 56 d1 3e
       -0.13830622 0.04178455 0.057428412 0.40886083
000170 a9 e1 87 3f d4 15 1f bf 3f 23 05 3f 53 6f a0 3f
       1.0615741 -0.6214268 0.52006906 1.2533973
000180 81 30 03 3f fa 6f a2 3f 08 ee 6d bf b7 58 d9 3d
       0.51245886 1.2690423 -0.9294133 0.10612624
000190 b8 9b cc 3c 4f 18 9c bf 37 72 f6 be c9 dc 40 bd
       0.024976596 -1.2194918 -0.48134014 -0.047085557
0001a0 15 1c f5 be 28 b8 12 bd ec 9d f7 be 6b 11 60 bd
       -0.47872987 -0.035820156 -0.48362672 -0.05470411
0001b0 0c 43 01 bf 47 41 0b be 4f 0e ab be 96 9d b7 3d
       -0.5049293 -0.1359912 -0.33409354 0.08965604
0001c0 ba 9f 18 3e a4 8f 7e bf 98 1e fc bf 62 4a 4a bf
       0.14904681 -0.9943793 -1.9696836 -0.7901975
0001d0 d6 ec 12 bf 51 42 0d bf 52 b2 03 3f 20 3b 04 bf
       -0.5739263 -0.55179316 0.5144397 -0.5165272
0001e0 b1 23 15 3f c5 39 d5 bf bd 91 51 bf c4 a7 c6 bd
       0.58257586 -1.6658255 -0.81863004 -0.096999675
0001f0 16 0a 50 3e dc 07 36 bf 9e a1 93 be 78 f0 55 bf
       0.20316347 -0.7110574 -0.28834242 -0.8357005
000200 e0 9f c2 be c5 bb 39 bf 60 e3 8c be f4 b3 37 bf
       -0.380126 -0.7255214 -0.27517223 -0.7175896
000210 0e 08 f7 bd a9 66 13 bf 62 25 96 be 94 42 85 3e
       -0.12062083 -0.5757852 -0.29325396 0.26027358
000220 88 a4 f6 bd 24 8b 18 40 59 ea 7b 3f e4 aa c6 3e
       -0.120431006 2.3834925 0.9840446 0.38802254
000230 43 fa 1d 3f 0c 8c 6e 3f 78 c9 1b 3f a1 72 69 3f
       0.61709994 0.93182445 0.6085429 0.91190535
000240 7b 7a 8a 3f c3 cf 74 be df 71 46 be 64 19 51 bf
       1.0818628 -0.2390738 -0.19379376 -0.8167937
000250 ef 04 43 3e 8c 67 b1 3e 69 4f 39 3e d2 1e c2 3e
       0.19044851 0.34649312 0.18096699 0.3791414
000260 ca ed 4a 3e 07 b3 c0 3e 5c 7e 15 3e 4e 17 60 3e
       0.19817272 0.37636587 0.14598984 0.2188389
000270 dc 05 91 3e 0f 08 0f 3f b0 d7 bf bc bf 53 89 bf
       0.28324783 0.5587167 -0.023418278 -1.0728682
000280 e6 53 a1 be e0 35 76 3f a1 30 ea 3e 16 29 f4 3e
       -0.31509322 0.96175957 0.45740226 0.47687596
000290 0f eb 5f bf 40 e9 01 3f 76 86 46 bf bb 8b e2 3f
       -0.87468046 0.50746536 -0.7754892 1.7698892
0002a0 ce 93 25 3f 48 8f 31 bd 28 a6 cb be c9 73 88 3e
       0.6467866 -0.043349534 -0.39775205 0.26650837
0002b0 d8 cb ea bd d3 04 81 3e 39 e1 52 be 40 bb 88 3e
       -0.11464661 0.25198993 -0.20593728 0.2670536
0002c0 05 c6 7a bd ee c3 9b 3e cd d1 04 bd b9 41 a3 3e
       -0.061224002 0.3042292 -0.032426644 0.3188608
0002d0 c2 e7 1d 3d 34 ac 85 3d 19 02 1a 3f a7 56 e1 bf
       0.0385511 0.06526986 0.6015945 -1.7604569
0002e0 1d ea 50 3e c4 fc b4 bd df 3b c1 3e 9d 1b 8f bf
       0.20401807 -0.08837274 0.3774099 -1.1180302
0002f0 0c da d4 3e cc 10 6b bf 1c ae a2 3f bb 42 de 3e
       0.41572607 -0.91822505 1.2709384 0.43410286
000300 80 1e e2 bb a9 e2 d6 be d0 ef b9 bd 6d 7c 06 bf
       -0.0069006085 -0.41969803 -0.09078944 -0.5253361
000310 4d 34 82 bd 12 3e e3 be 2e 30 cf bd 4c 7d 07 bf
       -0.06357632 -0.44383293 -0.101166114 -0.5292556
000320 53 07 ac bd 68 d6 f5 be 51 d1 91 bd 78 77 0a bf
       -0.083998345 -0.4801514 -0.07120002 -0.54088545
000330 fc 2e 47 3e cb 60 27 3f 10 27 4b bf 0a ac 31 bd
       0.19451517 0.6538207 -0.7935648 -0.04337696
000340 c3 b0 0b 3e 50 4c d2 bc 10 18 8f 3e 6b b2 e4 3d
       0.13641648 -0.025671154 0.27948046 0.11166843
000350 d4 e3 65 3e 4e 64 01 be e8 ce 04 be 76 43 8d bd
       0.22450191 -0.1263592 -0.12969553 -0.06897633
000360 45 8c 2c 3c 12 16 8e bd 1d b8 00 3e b0 8f b1 bd
       0.01053149 -0.06937803 0.12570234 -0.08669984
000370 e7 74 f3 3d 76 65 48 bd 92 91 de 3d cf fa 8c be
       0.11887532 -0.048924886 0.10867609 -0.27535102
000380 d4 18 0d bd 31 44 cb be 80 fc 8c be 19 dc aa be
       -0.034447506 -0.39700463 -0.27536392 -0.33371046
000390 d5 c1 b6 3e 9c b8 cf 3e
       0.35694757 0.40570533

fc1.bias f4 [10]
000000 c0 16 0e be af fa 8a 3f 2d d0 6f be e3 c8 1c 3e
       -0.13875866 1.0857753 -0.23419257 0.15311007
000010 e1 4b a9 3f 10 f5 32 bf 73 37 58 3f 96 ee 2d 3f
       1.3226281 -0.69905186 0.8445961 0.6794218
000020 2a 3d 97 3e cd 1f 8a 3d
       0.29538852 0.06744347

fc2.weight f4 [10, 10]
000000 08 c6 4d 3e 46 8f 4a bd ad ff 68 3e 29 ae a1 3e
       0.20095074 -0.049453042 0.22753783 0.31578186
000010 00 d2 ad 3e 4e 74 9d bd 8d a1 0c be 55 60 a1 3e
       0.3394928 -0.07688199 -0.13733502 0.31518808
000020 0d 74 8a bd 3b 76 05 bf 0c 8a ab 3e ff 9d 9f bd
       -0.06760416 -0.5213353 0.3350376 -0.07793807
000030 a7 e4 70 be ce 91 93 be 13 f9 2d bf 60 cb 64 3e
       -0.23524724 -0.28822178 -0.6795818 0.22343206
000040 de 7c 73 be e1 59 8d be 34 44 08 bf 2d 63 bc bd
       -0.23778102 -0.27607635 -0.5322907 -0.09198604
000050 ad b7 fd 3e 4b 4d c9 3e 1a f6 25 bf 5d 89 c5 be
       0.49554196 0.39316782 -0.64828646 -0.38581362
000060 bd bc c8 bf 6b 0c 2e 3c 87 f1 fe 3e 80 ca 21 bf
       -1.5682598 0.010623078 0.49793646 -0.63199615
000070 50 30 66 bf e1 6d a1 be 3f 45 de 3e fd f3 40 bf
       -0.8991747 -0.31529143 0.43412206 -0.75372297
000080 96 25 a9 3e 51 2a 17 be 7a 90 0a c0 a5 b3 20 3f
       0.33036488 -0.14762236 -2.1650681 0.62774116
000090 e7 7f 12 bc 40 85 1c bf 75 38 f8 bc 13 da d4 3e
       -0.008941627 -0.61140823 -0.030300358 0.41572627
0000a0 82 80 a4 3e 46 a7 c3 be 8c c3 03 3f 35 00 52 be
       0.32129294 -0.38213557 0.51470256 -0.20507891
0000b0 c0 87 70 bf 5a 93 12 3f 68 66 91 3f 2d 3f b3 bd
       -0.9395714 0.5725609 1.1359377 -0.08752284
0000c0 06 6c 1e 3f 1a 2b d4 be 81 ec 3a be aa f8 0c be
       0.6188358 -0.41439134 -0.18254282 -0.13766733
0000d0 10 62 59 3d fe d0 a0 be be 1e 3e be d1 a0 89 be
       0.053072035 -0.31409448 -0.18566415 -0.26880506
0000e0 80 4c 98 3c d9 d3 3f be 48 99 14 3e 5a 0f 02 3e
       0.018591166 -0.18733157 0.14511597 0.12701169
0000f0 92 b8 05 3f da 40 11 be 9b d0 83 be a0 20 f2 bb
       0.52234757 -0.14184895 -0.2574509 -0.007389143
000100 80 91 86 be a4 67 42 3e 9c ed 8e 3d ca cf 91 be
       -0.26282883 0.18984848 0.06978914 -0.28478843
000110 91 47 66 bf e3 c0 3e 3d 68 b4 be be 98 92 2d 3f
       -0.8995295 0.04657067 -0.37247014 0.6780181
000120 38 02 b9 3c a9 2d 6f 3f f3 8a 54 3f c9 67 1a be
       0.022584066 0.93429047 0.8302452 -0.15078653
000130 b5 e1 79 bf 64 07 0a 3d 1e 93 9e 3e b2 e2 b1 be
       -0.97610027 0.033698454 0.30971617 -0.34743267
000140 11 a3 11 be 64 d0 64 be 19 78 a0 be 60 8c e3 3c
       -0.14222361 -0.2234512 -0.31341627 0.027776897
000150 88 76 26 3e b4 e8 07 3e 49 05 31 be 9e e5 39 3e
       0.16256154 0.13272363 -0.17287172 0.18153998
000160 60 f6 b8 bc 95 dd 81 be 2a a0 e6 3e 69 88 ea 3d
       -0.022578418 -0.25364366 0.4504407 0.114517994
000170 ea 1f 82 be 65 a4 de 3c a1 23 5c be 97 64 15 3e
       -0.25414973 0.027177999 -0.21497966 0.14589153
000180 d5 9b 79 be d6 c0 2c bf 53 49 51 bf 64 24 e3 be
       -0.24375851 -0.67481744 -0.8175251 -0.443637

fc2.bias f4 [10]
000000 bb 55 40 bb 02 a5 05 3e ab 9f dc 3d a1 d1 4c bf
       -0.0029347974 0.13051227 0.10772642 -0.8000737
000010 19 eb 18 bf 11 1c 0c be a7 38 40 3e a2 c1 71 be
       -0.5973373 -0.13682581 0.18771611 -0.23609021
000020 90 f2 a3 3d 8d 4b 76 be
       0.080052495 -0.24052258

fc3.weight f4 [3, 10]
000000 1a 94 32 3e 1a e6 96 be 92 c4 29 3d 92 96 8a bb
       0.17439309 -0.2947243 0.04144723 -0.004229375
000010 77 a5 d5 bc 90 1c 46 bd c5 bf fa 3d f0 6b 2a be
       -0.026079876 -0.048367083 0.122436084 -0.16642737
000020 98 7f 6a be f2 d6 29 3d 86 e0 ac bd 2a db 2e 3f
       -0.22900236 0.041464753 -0.08441262 0.6830317
000030 25 cc 7c 3f 82 85 34 3f f5 e5 c3 3e 80 5f b5 bb
       0.98749 0.70516217 0.3826138 -0.005535066
000040 cf f6 05 3f ec 86 26 bf 40 cc 62 bd a6 3e 39 3f
       0.52329725 -0.65049624 -0.05537057 0.7236122
000050 b9 93 8b 3c a9 b5 1b 3c 9c 12 35 ba 72 d4 95 3a
       0.017038213 0.00950376 -0.0006907375 0.0011431111
000060 08 e6 9d bb fa 8e 0e 3e 54 bf 30 3d 78 ea 30 bc
       -0.0048186816 0.13921729 0.043151215 -0.010798089
000070 f2 80 cb bd 56 37 d0 bc
       -0.09936704 -0.025417011

fc3.bias f4 [3]
000000 b4 41 12 3f c6 b2 58 3c d7 6c 75 bd
       0.57131505 0.013226217 -0.05991825
