bc_checkpoint.pth (torch, 4036 bytes, 6 tensors)

fc1.weight f4 [10, 23]
000000 63 64 31 c0 c6 cf d4 be 4a 34 a7 bf d0 29 1b c0
       -2.771752 -0.4156477 -1.3062832 -2.424427
000010 8a 8d d9 3e cd 4b e8 3e d4 81 e0 bf bf 4a a2 bf
       0.42490798 0.4537033 -1.753962 -1.2679061
000020 74 2e 5c bd fd 1c 2c 3e 6b 67 52 bc 1b a2 e5 3e
       -0.05375524 0.16807933 -0.01284204 0.4485024
000030 63 76 ed bb 1e f5 de 3e cd 2e cb bb 58 5a df 3e
       -0.007246779 0.43546385 -0.0062006474 0.43623614
000040 de 91 5f be a0 1b 25 3e 4c 23 d1 3d 81 41 4a 3f
       -0.21832988 0.1612382 0.102118105 0.790062
000050 c9 5f 1d 3d 6d a2 73 be 60 a8 20 40 fb ab 2d be
       0.038421426 -0.2379243 2.5102768 -0.16960137
000060 e0 9d 61 3f 14 dd 36 be a1 d2 1b 3f 1a 08 21 3f
       0.88131523 -0.17857772 0.6086827 0.62902987
000070 ed 83 47 3f 83 cf 1d c0 bf 3d 7a 3e 40 e8 eb bc
       0.7793568 -2.4657905 0.24437617 -0.028797269
000080 7a 26 5d 3e 4c 10 aa 3e a7 07 f6 be bd 07 aa 3e
       0.21596709 0.3321556 -0.48052713 0.3320903
000090 48 66 f9 be 36 99 a9 3e 89 02 f8 be bd c6 b2 3e
       -0.48710847 0.33124703 -0.48439434 0.3491725
0000a0 5e df 02 bf cb 38 8f 3e fb 03 21 bf 3b 9b 0d be
       -0.5112208 0.27973017 -0.628967 -0.13828747
0000b0 35 2e 2e 3e df 3d a3 3c a2 a8 36 bf ae 94 ac be
       0.17009814 0.019926963 -0.71351063 -0.33707184
0000c0 02 0c 02 be 39 ed 54 be f1 02 4c bd 68 68 89 3e
       -0.12699893 -0.20793618 -0.049807493 0.26837468
0000d0 db c9 d2 3d de 69 2e bd 16 a4 22 be 1d de a9 3e
       0.10292407 -0.04258143 -0.15882906 0.3317727
0000e0 bb 5a db 3d 2f ab 3c 3e db 84 e1 3d 23 03 67 bd
       0.10710665 0.18424676 0.11011668 -0.056399476
0000f0 46 fa dd 3c 19 3a b6 3d 8c 1b 60 3d d3 2e f8 3d
       0.027096879 0.088978 0.05471377 0.12118306
000100 09 f4 2b be 88 e0 ee 3d e4 90 0f 3d 3f a2 99 3c
       -0.16792311 0.1166392 0.035050288 0.018754123
000110 f7 82 47 3f 39 07 78 bf c5 3e ed be 66 b8 6e be
       0.7793421 -0.9688602 -0.46336952 -0.2331253
000120 29 f2 ef be 1e 86 03 be 5f 55 4b be d4 20 9a be
       -0.4686444 -0.1284413 -0.19856785 -0.3010317
000130 f5 18 b4 be fc 5e 6f 3d 41 65 ee bb 5d 17 b6 bd
       -0.3517529 0.058440194 -0.007275254 -0.08891175
000140 b4 5c 84 be 33 a4 c7 bc 71 7c 86 3d d5 76 9b 3b
       -0.25851977 -0.024370288 0.06566704 0.0047443905
000150 4e ee dc bc 29 eb 97 bd 4c 94 1f be 2b 94 ca bc
       -0.026969101 -0.074179 -0.15583915 -0.024728855
000160 6c 4d 17 3b bb 7b 26 3e e3 e1 9d 3d 40 91 63 3f
       0.0023086919 0.16258137 0.077091 0.8889351
000170 ac a8 09 3d 71 0f 21 be 55 20 13 bf 44 f4 29 3e
       0.033608124 -0.15728547 -0.5747121 0.16597086
000180 6f 40 5d be 5a 81 45 3f 05 fb 95 bf 2e 3f 31 bf
       -0.2160661 0.771505 -1.171723 -0.6923703
000190 93 21 2d be 1f 3a 9d 3e 75 29 01 bf 22 7a a2 3f
       -0.16907339 0.30708405 -0.50453883 1.2693522
0001a0 94 ba 02 bf d3 72 a2 3f 68 01 03 bf 6d d1 a2 3f
       -0.51065946 1.2691292 -0.5117402 1.2720162
0001b0 66 85 a9 be 1b 46 d4 3f e6 7a 2d bf 9b 3b 47 3f
       -0.33109587 1.6583894 -0.67765653 0.77825326
0001c0 c8 d3 4f 39 e4 24 9d be 97 55 05 bf 71 8f 8a bf
       0.00019819953 -0.30692208 -0.52083725 -1.0825025
0001d0 13 bb b8 be fd 3a c5 3e 9f 1d 67 3e 53 1e 2d 3e
       -0.36080226 0.38521567 0.22569893 0.16906099
0001e0 88 2c 0a 3d b0 9a d4 3e 7a f2 a5 bd d3 17 21 be
       0.033733875 0.41524267 -0.08102889 -0.15731744
0001f0 89 90 90 be a7 d2 b3 3d 63 94 9d 3d 39 b8 18 3e
       -0.28235272 0.08780413 0.07694318 0.14914025
000200 8f 36 28 3e 9c 7e 1e 3e a2 fe fc 3d bb 5d 0b 3e
       0.16427062 0.15477985 0.12353255 0.13609974
000210 f2 af 95 3d fc 9e df 3d 6c 54 ad bd d7 0f ed 3d
       0.073089495 0.10918996 -0.08463368 0.11575287
000220 59 eb a3 3d 2f 53 b9 3f f5 79 14 c0 dc 22 50 bf
       0.080038734 1.4478511 -2.3199437 -0.8130319
000230 87 80 58 bf b5 4f 4c 3e c0 1e c3 3e 3d e2 fa be
       -0.8457112 0.19952281 0.38109398 -0.4900073
000240 ab 7e 1a c0 7f ed 05 bd c1 ff 02 3e 77 e9 d1 3e
       -2.4139812 -0.032697197 0.12792875 0.40998432
000250 f6 1f 66 bd 46 ac 87 be b6 8b 4e bd 20 5f 8d be
       -0.056182824 -0.26498622 -0.050426207 -0.27611637
000260 a7 b8 4e bd 69 a0 8e be 3f b4 72 bd 4c a0 b7 be
       -0.050469067 -0.27856758 -0.059253927 -0.35864484
000270 6a 88 72 bd 48 f3 c8 be bf c0 f4 3c d1 90 58 be
       -0.059212126 -0.3924811 0.029877065 -0.21148993
000280 f8 3b 0c 40 07 6c 1f bf 6d 8d 21 3e 8e 62 fd be
       2.1911602 -0.6227421 0.15776606 -0.49489254
000290 4d 18 ec be 66 75 38 be e1 1b 72 3e 7c 85 65 be
       -0.4611229 -0.18013534 0.23643447 -0.22414201
0002a0 d5 83 77 be d8 e1 a9 bc 3a 13 1c 3e e1 62 3e be
       -0.24171384 -0.020737574 0.1524171 -0.18592407
0002b0 37 92 d4 be 02 3b 89 bd ca f4 6c bd 31 c5 63 bd
       -0.41517803 -0.06700708 -0.057850637 -0.05560798
0002c0 ed 18 4d be a6 20 c5 bd 66 f5 89 be 27 0a 2a be
       -0.2002904 -0.09625368 -0.26945037 -0.16605435
0002d0 3c d1 10 bd 85 2e c9 3e be 01 5d bc 20 c6 08 bf
       -0.03535579 0.39293304 -0.013489185 -0.53427315
0002e0 8a c2 45 bd 0a ce c7 3e be 58 75 3f a1 a8 f1 3e
       -0.04828123 0.39024383 0.95838535 0.47198966
0002f0 bc 19 43 be 51 5d cb 3f 09 e1 a8 bf 99 e4 25 bf
       -0.19052786 1.5887853 -1.3193675 -0.6480194
000300 50 21 f8 bc 07 0c 35 3e 27 bc 2a 3e 85 2f cc 3e
       -0.030289322 0.1768037 0.16673337 0.39880005
000310 bb f2 28 3e b1 79 c6 3e c0 48 29 3e 75 1d c8 3e
       0.16498844 0.38764718 0.16531658 0.39084974
000320 45 7d 41 3e 1d 2a dd 3e 44 ff 1a 3e d2 e4 bb 3e
       0.18895443 0.43196192 0.15136439 0.36698014
000330 a8 6d 18 be 10 91 6a be df 51 ee be 36 c8 75 3f
       -0.1488558 -0.229069 -0.46546838 0.9600862
000340 62 d1 0c 3f f9 f0 db 3c df a0 76 3e 0d 17 77 bd
       0.5500699 0.026848303 0.24084805 -0.060324717
000350 18 5a 66 3e 40 bc 3a be 0d 74 18 be c6 5a d9 3d
       0.22495306 -0.18235874 -0.1488802 0.10613017
000360 b6 e6 e3 bd 28 87 9d 3c 02 b7 42 3c 42 4e 44 3e
       -0.11127989 0.019229487 0.011884453 0.19170478
000370 80 1f f7 3d ea 4c 01 3e 30 0b 05 3e 68 db 15 3e
       0.12066555 0.12626997 0.12992549 0.14634478
000380 2c d7 ce 3d 18 b0 2f bb 98 0f a8 3d 78 ff c3 3e
       0.100996345 -0.002680784 0.08206099 0.38280845
000390 90 94 3e 3e a9 ed ca bf
       0.1861136 -1.5853778

fc1.bias f4 [10]
000000 9d fd 31 c0 04 94 aa 3d fb e9 45 bf 07 e8 8a bf
       -2.7811043 0.08329013 -0.7731015 -1.0852059
000010 6f 9c c6 3e d6 00 93 bf c1 49 09 c0 62 d7 fc be
       0.38791224 -1.148463 -2.1451266 -0.49383074
000020 81 3c 0f bd 37 42 3b 3f
       -0.03496981 0.7314791

fc2.weight f4 [10, 10]
000000 1e ac c8 bc 56 13 30 3f a5 29 22 be c6 0c 69 3c
       -0.024496134 0.68779504 -0.15836199 0.014224237
000010 fd e8 01 bd de a5 67 be 95 69 0f bd 69 02 5a be
       -0.031716336 -0.22621867 -0.0350128 -0.21289982
000020 27 1c 48 be f5 20 96 3d a1 26 19 3e 7a e8 2c 3e
       -0.1954199 0.07330505 0.14956142 0.16885558
000030 77 d3 44 be dd 16 63 3e fa 42 c5 3d 1f f6 0b be
       -0.19221292 0.2217669 0.096319154 -0.13668106
000040 de 25 27 bd 7e 0a 2d be c9 a3 b9 bd 8c 27 a4 bd
       -0.040807597 -0.16898534 -0.09064443 -0.080153555
000050 68 71 70 3f 1a 8e 50 3d 73 0e e6 3e 95 79 fd 3e
       0.93923044 0.05091677 0.449329 0.49506822
000060 51 f4 20 3f ed 2a 46 3f 0e 82 59 3d dd 62 28 3e
       0.628728 0.7740925 0.053102545 0.16443963
000070 3f 12 3d 3f 74 a2 1a bf 31 1e 13 3f a1 39 58 be
       0.73855966 -0.60404134 0.57467943 -0.21115734
000080 06 d7 c5 bd fd b8 cc 3c 4a d8 e0 3e 9b 5d d3 3e
       -0.09660153 0.024990553 0.43915015 0.41282353
000090 87 00 9d 3e 7d 3a 86 3e a2 3e 85 3f c4 e2 33 3e
       0.30664465 0.26216498 1.0409739 0.17566973
0000a0 1f e2 bd bf 8d 5d c2 3e a1 d3 73 be 36 b3 88 3e
       -1.4834632 0.37962 -0.23811199 0.26699227
0000b0 42 39 6e be 04 66 57 be 70 a7 99 be d5 c6 55 be
       -0.2326403 -0.2103501 -0.30010557 -0.2087663
0000c0 68 d9 b6 bf 9a 03 bd 3e c5 19 0f c0 4c 72 cd 3f
       -1.4285097 0.3691681 -2.2359478 1.6050506
0000d0 75 22 d3 be 87 ce 77 be f6 24 9f bf 1d 6a 17 bf
       -0.41237226 -0.24199878 -1.2433155 -0.5914629
0000e0 b8 85 dc bf 56 69 5f 3e a1 28 b8 bf d7 fc 04 3f
       -1.7228308 0.21817526 -1.4387399 0.51948303
0000f0 71 97 73 3f 6a 4e 97 be 10 0f f5 3d d1 2d bb 3d
       0.95152956 -0.29552013 0.119657636 0.09139598
000100 ae 68 65 3e 9e 3b d8 3d 1a 9c 34 3e e6 20 9f 3e
       0.22403213 0.10558246 0.17637673 0.31079787
000110 5b 10 52 3f cc c1 7e 3e 48 ea 85 3e 98 19 dd bd
       0.82056206 0.24878615 0.26155305 -0.10795897
000120 d8 de d2 3d 5f 6d 9f 3e 8e 9b 49 3c d5 74 09 be
       0.1029641 0.3113813 0.0123051535 -0.13423474
000130 3e 75 ed bc de 48 8d bd 88 ed 98 3e 9f e5 3b 3e
       -0.02898657 -0.06898664 0.29868722 0.18349312
000140 d7 9b 92 3e fe c8 7b be 0c 06 ba bd 90 5d 47 be
       0.2863452 -0.24588391 -0.090831846 -0.19469285
000150 c6 c7 1c 3e 4e 5f 43 be de 0e 45 be 84 5a 8b be
       0.15310583 -0.19079325 -0.19243953 -0.27217495
000160 60 3f 31 bc 98 52 50 bd 8d 4e 1c 3e 59 e5 a4 3e
       -0.010818332 -0.050860018 0.1526434 0.32206228
000170 14 23 5a bd 92 04 02 be c0 fd 00 3e 4f b1 21 be
       -0.05325611 -0.12697056 0.12596798 -0.15790294
000180 e7 f0 c6 bd 9e 3d 0c 3a 7c 59 b3 be 77 f3 c1 bd
       -0.09713917 0.0005349758 -0.3502921 -0.09470265

fc2.bias f4 [10]
000000 91 33 bf bd d5 32 5d be e1 46 f0 bf 3d 51 c8 bd
       -0.093360074 -0.21601422 -1.877163 -0.0978112
000010 e7 f8 df be 9f 0a 96 bc 81 dc 1a be ba 3c 05 bf
       -0.43744585 -0.018315611 -0.15123178 -0.52045786
000020 80 dd 00 bc 5b 21 bd bd
       -0.00786531 -0.09234878

fc3.weight f4 [3, 10]
000000 43 6f 43 3d 9c ac ac 3d 49 89 87 bd 73 56 ab 3d
       0.04771353 0.0843136 -0.06617982 0.08366098
000010 c1 c0 19 be 71 72 87 3c 2b 8b bb 3d 8a 33 c4 be
       -0.15014936 0.016534062 0.091574036 -0.3832057
000020 78 2f 32 3d 09 33 2c 3e bf 00 af 3e 04 b1 d8 bd
       0.0435023 0.16816343 0.34180257 -0.10580638
000030 21 e6 05 3f f0 9c 1f 3f 8a b0 2f bf ea 3f c2 bf
       0.52304274 0.6234884 -0.6862875 -1.5175755
000040 1b 09 31 3f 8f ea 9e 3d 1f df 94 3e 20 76 a2 be
       0.6915452 0.07759582 0.29076478 -0.31730747
000050 2f 34 8a 3d 13 d9 9c 3d fa 0e 8c 3b 76 d4 4d 3d
       0.067482345 0.07658591 0.0042742463 0.050251447
000060 e8 b0 41 bb 83 24 ec bb df df b0 bd ce 9e 16 3e
       -0.0029554907 -0.007206501 -0.0863645 0.14709017
000070 b4 91 38 3e 4d 7b 4b be
       0.18024331 -0.19871254

fc3.bias f4 [3]
000000 7a 6d 66 3e 7b 23 12 3e 72 84 ca 3d
       0.225027 0.14271347 0.09888543
