bc_checkpoint.pth (torch, 4036 bytes, 6 tensors)

fc1.weight f4 [10, 23]
0	0xbfb33a91	-1.4002248
1	0x3f0608ea	0.5235735
2	0xbfb8896f	-1.4416941
3	0xbfcc1fbe	-1.5947187
4	0xbe85243e	-0.26004213
5	0x3e95be97	0.2924697
6	0xbeb04433	-0.34427032
7	0xbf416d12	-0.75557053
8	0x3e151f2b	0.14562671
9	0x3e98e47f	0.2986183
10	0xbfbb3569	-1.4625674
11	0x3f20fab1	0.62882525
12	0x3f48851f	0.78328127
13	0xbf989673	-1.1920913
14	0x3edf5ca4	0.43625367
15	0xbfaf99fd	-1.3718868
16	0xbf6ae76f	-0.9175939
17	0x3f7743af	0.9658765
18	0xbf9c8eb7	-1.2231053
19	0xbf625da9	-0.88424164
20	0x3caab10d	0.020836378
21	0x3d814aed	0.06313119
22	0x3feb2b64	1.8372617
23	0x3f50e2ea	0.81596243
24	0xbf016de2	-0.5055829
25	0x3f80a9aa	1.0051777
26	0x3f99401a	1.1972687
27	0x3eb4a897	0.35284874
28	0xbdc083be	-0.09400128
29	0x3e6f1142	0.23346427
30	0x3f1eb7a2	0.6199895
31	0x3d82fa92	0.06395449
32	0xbcd6df7a	-0.026229609
33	0x3fb2bf19	1.3964568
34	0xbeceecf5	-0.4041516
35	0xbf20e181	-0.6284409
36	0x3f79bcc2	0.97553647
37	0xbef1592d	-0.47138348
38	0x3fa67df7	1.3007191
39	0x3f422128	0.7583184
40	0xbf2f6f56	-0.6852926
41	0x3f89d86a	1.0769169
42	0x3f314a1c	0.69253707
43	0x3e3847d3	0.17996149
44	0xbdca397b	-0.09874245
45	0xbf9dff94	-1.2343621
46	0x3c0b19e0	0.008490056
47	0xbdd7f7f6	-0.10545342
48	0x3e2cf181	0.16889001
49	0xbe2141b0	-0.15747714
50	0xbce4c2e0	-0.027924955
51	0xbd742a48	-0.059610635
52	0x3e280d61	0.16411354
53	0xbdb66325	-0.08905629
54	0x3e2f8175	0.17139228
55	0xbd1df0d0	-0.038559735
56	0x3b3ea000	0.0029087067
57	0x3b4ce880	0.003126651
58	0x3e365eb7	0.17809568
59	0x3e3123cd	0.17298813
60	0x3deb283a	0.11482282
61	0x3e033d79	0.12816419
62	0x3d52e2ec	0.05148594
63	0x3c1f7a00	0.009733677
64	0xbe1465a6	-0.14491901
65	0xbd891434	-0.066933066
66	0xbe38d177	-0.18048654
67	0xbc1483e0	-0.009064645
68	0x3e3f7d29	0.18700089
69	0xbf6ea1e8	-0.932158
70	0x3dc6a6a7	0.09699755
71	0xbf35e0b3	-0.7104599
72	0xbfb0020e	-1.3750627
73	0x3e4c586e	0.19955608
74	0xbe9132ce	-0.28359073
75	0x3ee3f988	0.44526315
76	0xbe1cc3cd	-0.15309067
77	0x3da5fa76	0.08104412
78	0x3e7c7815	0.24655183
79	0xbf80b842	-1.0056231
80	0x3f2953b1	0.6614333
81	0x3ee8c5d7	0.4546344
82	0xbf34e36f	-0.70659536
83	0xbe2b727c	-0.16742891
84	0xbf8d853c	-1.1056285
85	0xbd5f7d57	-0.054562893
86	0x3fa275f6	1.2692249
87	0xbea6d62c	-0.32585275
88	0x3e992910	0.2991414
89	0x3e175b5c	0.14780945
90	0xbee2189b	-0.44159397
91	0x3fbd0d2a	1.4769642
92	0x3f8d6f73	1.1049637
93	0xbe6df400	-0.2323761
94	0x3f5b7d9f	0.8573856
95	0x3f9e6713	1.2375206
96	0x3dee624d	0.11639843
97	0x3cf87d15	0.030333081
98	0xbb88178e	-0.0041531986
99	0x3ee8acba	0.4544428
100	0xbe3aa00a	-0.18225113
101	0xbe3faae5	-0.18717535
102	0x3f9c4cac	1.2210898
103	0xbf0c6f7a	-0.548576
104	0xbf079247	-0.52957577
105	0x3f253d7c	0.6454694
106	0xbe9e6f90	-0.3094449
107	0x3f981e61	1.1884271
108	0x3ee5993b	0.44843468
109	0xbf7048de	-0.93861187
110	0x3f3fdc10	0.74945164
111	0x3e84eeaf	0.2596335
112	0xbc4108ec	-0.011781912
113	0xbdb4b807	-0.08824163
114	0xbfab5ea0	-1.3388252
115	0xbd49e440	-0.04928994
116	0xbe3f4e57	-0.18682228
117	0xbe35e8d5	-0.177646
118	0x3daaee3e	0.08346222
119	0x3c698af0	0.014254317
120	0x3e044c11	0.12919642
121	0x3d9b040e	0.07569133
122	0x3d74ad34	0.059735492
123	0xbe289304	-0.16462332
124	0xbdd6e2bd	-0.10492466
125	0xbe46dc90	-0.19420075
126	0xbe4578b9	-0.19284333
127	0xbc2fd0e0	-0.010730952
128	0xbe41d60a	-0.18929306
129	0xbdcfcb45	-0.101461925
130	0xbd4644a0	-0.04840529
131	0xbda82166	-0.08209495
132	0x3e2d5d79	0.16930188
133	0xbc295af0	-0.010336623
134	0xbd8e040c	-0.06934366
135	0xbd9ce862	-0.07661511
136	0x3d2485e8	0.040166765
137	0xbe1dac8c	-0.15397853
138	0xbf5644eb	-0.8369891
139	0x3f49f5af	0.7889051
140	0xbf9213d4	-1.1412301
141	0xbf737527	-0.95100635
142	0xbc89b638	-0.016810521
143	0x3f2199ff	0.63125604
144	0xbecd5cb1	-0.4010978
145	0xbf1a16e9	-0.6019121
146	0x3d7ec05c	0.062195167
147	0x3dc67b38	0.09691471
148	0xbf9dbbdd	-1.2322956
149	0x3f2492f9	0.6428676
150	0x3f440104	0.7656405
151	0xbf1aa0ff	-0.6040191
152	0x3f48bb5d	0.78410894
153	0xbf86a7f5	-1.0520006
154	0xbf230a27	-0.63687366
155	0x3f9a5945	1.2058493
156	0xbf4df204	-0.8044741
157	0xbf34dee6	-0.70652616
158	0x3ed29bbf	0.4113445
159	0xbe3939af	-0.18088411
160	0x3fb129e6	1.3840911
161	0x3f792cba	0.9733387
162	0x3d54dd03	0.051968586
163	0x3f5d43a2	0.86431324
164	0x3faa93a2	1.3326304
165	0x3eaf59b9	0.3424814
166	0xbe0b6c4d	-0.13615532
167	0x3e94feec	0.2910074
168	0x3f37f4c7	0.71857876
169	0x3e036301	0.12830736
170	0xbf248513	-0.64265555
171	0x3fc98702	1.5744326
172	0xbef19e33	-0.4719101
173	0xbf027de8	-0.5097337
174	0x3f571639	0.84018284
175	0xbf0db47e	-0.55353534
176	0x3f8f1357	1.1177777
177	0x3f38c33f	0.7217292
178	0xbe3bb406	-0.18330392
179	0x3f8ca4c7	1.0987786
180	0x3f8d7862	1.1052363
181	0x3e85e995	0.2615477
182	0xbf39fe9a	-0.72654116
183	0xbfc926f2	-1.571501
184	0x3d5fff63	0.054686915
185	0x3cd97af6	0.02654789
186	0xbe3f100e	-0.18658468
187	0xbe6217e7	-0.2207943
188	0xbd88dd21	-0.06682802
189	0xbd2352aa	-0.039873756
190	0xbe18870d	-0.14895268
191	0x3dcfd1ef	0.101474635
192	0xbe07a70d	-0.13247319
193	0x3c3bf486	0.011471873
194	0xbe1beb31	-0.15226437
195	0xbe4b03b6	-0.19825634
196	0x3e0915e1	0.13387252
197	0x3e3c331a	0.18378869
198	0xbe30673e	-0.17226884
199	0xbe15ce94	-0.14629585
200	0x3e3e5981	0.1858883
201	0xbdc52f77	-0.09628194
202	0x3dcdac8c	0.10042676
203	0xbe46560e	-0.19368765
204	0xbc953144	-0.018211968
205	0xbe38a5cb	-0.18031995
206	0x3e158861	0.14602806
207	0xbfd42afd	-1.6575619
208	0xbdd8a119	-0.10577602
209	0xbf974723	-1.1818584
210	0xbfbb98d3	-1.4656013
211	0xbef7183e	-0.48260683
212	0xbedb59ca	-0.4284194
213	0xbf3abb5f	-0.72942156
214	0xbf79c1ea	-0.97561514
215	0xbdffb608	-0.124858916
216	0x3eb87931	0.36029962
217	0xbfc1d7cf	-1.5143985
218	0x3f6c46c3	0.92295474
219	0x3f81d0e4	1.0141873
220	0xbf3af45e	-0.73029125
221	0x3f2a01c9	0.66408974
222	0xbfaf77d7	-1.3708447
223	0xbf12e159	-0.57375103
224	0x3d979a36	0.0740246
225	0xbf916671	-1.1359388
226	0xbf871c18	-1.0555449
227	0x3c5d8cd8	0.013522349
228	0xbe5b0d5d	-0.21391816
229	0x400a7efc	2.1640005

fc1.bias f4 [10]
0	0xbfd1b1c6	-1.6382377
1	0x3f5723c6	0.8403896
2	0x3dc090aa	0.094025925
3	0xbf9839b7	-1.1892613
4	0x3f6412d4	0.8909123
5	0x3e4d5f23	0.20055823
6	0xbf8b76f8	-1.0895681
7	0x3f80f501	1.0074769
8	0x3d194155	0.03741582
9	0xbfc10557	-1.5079755

fc2.weight f4 [10, 10]
0	0x3fbac174	1.4590287
1	0x3ca27cac	0.019834839
2	0x3e93f12b	0.28894934
3	0xbe9e616c	-0.30933702
4	0xbe951538	-0.2911775
5	0x3e8a783f	0.27044865
6	0xbee2e9c0	-0.44318962
7	0xbe9d2521	-0.3069239
8	0xbdba1126	-0.09085302
9	0x3f5cbd55	0.862264
10	0x3fbb3a5a	1.4627182
11	0xbe9068ab	-0.28204855
12	0x3e894ac1	0.26814845
13	0x3f419fdd	0.75634557
14	0x3fd8356f	1.6891307
15	0x3ce9b230	0.02852735
16	0x3eb6d4e2	0.35709292
17	0xbe88942b	-0.26675543
18	0x3e7f5772	0.24935701
19	0x3f981b9a	1.1883423
20	0xbe2be612	-0.16786984
21	0xbd78b9a6	-0.060723923
22	0xbe14d6de	-0.1453509
23	0xbcb33dde	-0.021880087
24	0x3e6da048	0.23205674
25	0xbe85eac5	-0.26155677
26	0xbe02a07f	-0.12756537
27	0xbe9f5d54	-0.3112589
28	0xbe21954f	-0.15779613
29	0x3e80da4b	0.25166544
30	0x3f793585	0.9734729
31	0xbea2be5b	-0.31785855
32	0x3e278ca2	0.16362241
33	0x3f059e9a	0.5219513
34	0x3fdf35e5	1.7438322
35	0xbe46edb2	-0.19426611
36	0x3eef812b	0.46778235
37	0xbe3c15eb	-0.18367736
38	0x3e4616f0	0.19344687
39	0x3f840345	1.0313498
40	0xbfed54ea	-1.8541539
41	0x3eaf8726	0.34282798
42	0x3e8ed153	0.27894077
43	0xbed7bef9	-0.42137888
44	0xbf942298	-1.1573057
45	0x3e8af6d3	0.27141437
46	0x3dc048b4	0.09388867
47	0x3f04e84f	0.51916975
48	0x3d02978d	0.03188281
49	0xbfbd94d3	-1.4811043
50	0x3f8ef2d3	1.1167854
51	0xbfb9d4eb	-1.4518102
52	0x3dc9afe4	0.098480016
53	0x3f89ee1a	1.0775788
54	0x3ef8bc15	0.48580995
55	0x3e6d3562	0.23164895
56	0x3f93854e	1.1525056
57	0xbfa66ff3	-1.3002914
58	0xbe278bca	-0.16361919
59	0x3faf24b2	1.3683074
60	0x3f81b9c7	1.013482
61	0x3eb595a9	0.35465744
62	0x3e7ed60e	0.24886343
63	0xbf472b2f	-0.7780027
64	0x3e3b9cf4	0.18321592
65	0xbe3462d4	-0.17615825
66	0x3df2888d	0.11842451
67	0xbed9a61f	-0.42509553
68	0x3e83cb76	0.25741166
69	0x3e25321c	0.16132396
70	0xbd08bc90	-0.033382952
71	0x3e081362	0.13288644
72	0x3e1ea99e	0.15494391
73	0xbe9f4742	-0.31109053
74	0xbe59771f	-0.21236847
75	0x3d25fba8	0.0405232
76	0xbe4c183a	-0.19931117
77	0xbd92f3de	-0.0717542
78	0xbde801f0	-0.113284945
79	0xbe181b03	-0.14854054
80	0x3fb39798	1.4030638
81	0xbdd83621	-0.10557199
82	0x3e80e4a7	0.25174448
83	0xbdcdf3be	-0.10056256
84	0x3e7f75af	0.24947236
85	0x3d986264	0.074406415
86	0xbe40634c	-0.18787879
87	0xbe6d1ca7	-0.23155461
88	0xbe3c0ce0	-0.18364286
89	0x3eca618f	0.39527556
90	0xbd0b6788	-0.034034282
91	0xbe817ace	-0.25289005
92	0xbcd1ada0	-0.025595486
93	0x3d9ad4b8	0.07560104
94	0xbda7a220	-0.0818522
95	0x3e6afd7e	0.22948262
96	0xbdf0d83c	-0.117599934
97	0xbe58c8ab	-0.21170299
98	0xbd068930	-0.032845676
99	0xbe13e68b	-0.14443414

fc2.bias f4 [10]
0	0x3f94055e	1.1564138
1	0xbf28694c	-0.6578567
2	0x3e4e256f	0.20131467
3	0xbeb55ec5	-0.35423866
4	0x3f0d87e3	0.5528547
5	0xbf8e465d	-1.1115223
6	0x3df4121b	0.11917516
7	0xbe54066e	-0.20705578
8	0x3fb8007f	1.4375151
9	0xbe8d16c0	-0.2755642

fc3.weight f4 [3, 10]
0	0xbda5ff89	-0.0810538
1	0xbc781b87	-0.015143282
2	0xbde193c3	-0.110145114
3	0x3e145b5e	0.14487979
4	0xbdcdd2f3	-0.10050001
5	0xbde369a4	-0.11104134
6	0xbda7c19f	-0.08191227
7	0x3dd939e2	0.106067434
8	0x3e28f3e0	0.16499281
9	0xbe41e4de	-0.18934962
10	0xbfe1cd72	-1.7640822
11	0x3fa6ab1f	1.3020972
12	0xbcf07867	-0.029354287
13	0x3f463efa	0.77439845
14	0xbfb9885e	-1.4494741
15	0x3fe5e758	1.7961226
16	0xbf7a0eb1	-0.9767867
17	0x3e832a12	0.25618035
18	0xbfd13331	-1.6343747
19	0x3e7adb5a	0.24497738
20	0x3e1570d4	0.14593822
21	0x3ccf42d1	0.025300415
22	0xbc8e801c	-0.017395072
23	0xbc6ba546	-0.014382666
24	0xbbb004bf	-0.0053716595
25	0x391da31e	0.00015033453
26	0xbba3ca6f	-0.004998497
27	0x3d20bcd4	0.03924258
28	0xbe3e22bb	-0.18567936
29	0xbcb39b30	-0.021924585

fc3.bias f4 [3]
0	0x3efcaf42	0.4935246
1	0x3e3ef5bd	0.18648429
2	0x3d5ab730	0.053397357
