bc_checkpoint.pth (torch, 4036 bytes, 6 tensors)

fc1.weight f4 [10, 23]
000000 48 83 84 3f 35 8e 03 c0 f5 e1 c0 be 17 e5 f3 bf
       1.0352564 -2.0555546 -0.37672392 -1.9054288
000010 82 b2 33 bd 91 f9 cf 3f 7e 24 d7 c0 dd 09 ea be
       -0.04387141 1.6248037 -6.7232046 -0.4571065
000020 a0 27 9f bc 5d 59 e7 3e 06 c0 f5 bd c5 4a b1 3f
       -0.019428074 0.45185366 -0.11999516 1.3850943
000030 33 c1 f5 bd 9b 4b b1 3f 7b ba f5 bd eb 47 b1 3f
       -0.119997405 1.3851198 -0.11998459 1.3850073
000040 41 c1 e4 bd 0b 9f b4 3f 3e 79 08 be 17 5a b4 3f
       -0.11169673 1.4111036 -0.133275 1.4089993
000050 a6 8c 6f bd e3 82 b9 bd 6f 10 87 c0 53 95 20 3e
       -0.058483742 -0.09058168 -4.220756 0.15681963
000060 8c 89 64 bd c0 e4 00 3d ca 1d a1 bd 6a a3 ad bd
       -0.055795237 0.031468153 -0.0786701 -0.084784344
000070 00 a4 a4 3c 56 97 24 be 56 e7 97 bd c1 30 ea bd
       0.020097733 -0.16073355 -0.07417171 -0.1143508
000080 16 08 bb 3d 28 cf 1f 3d 38 20 02 be c5 f9 27 be
       0.09132402 0.03901592 -0.12707603 -0.16403873
000090 18 aa 3e bd e8 1f cb bc 40 5f 8b 3c a0 4e ff 3c
       -0.046548933 -0.024795488 0.017013192 0.031165421
0000a0 5b 46 31 3e a4 24 49 bd 46 76 c0 3d 2a 16 48 be
       0.17311995 -0.04910721 0.09397559 -0.19539705
0000b0 6a 94 2b be d0 61 03 3c 77 a6 cc 3e 5d 78 a7 3f
       -0.16755834 0.008018926 0.39970753 1.3083607
0000c0 98 46 31 be 64 64 79 3f 16 e0 9e bf 1c cc 94 3f
       -0.17312086 0.9741881 -1.2412136 1.1624789
0000d0 1e 49 9f bf 91 ab 99 bd b6 a5 f8 3d 6b ea 23 3f
       -1.2444189 -0.07503427 0.12140982 0.6402957
0000e0 47 c8 20 3e d5 35 90 3f 53 c5 20 3e 9f 34 90 3f
       0.157014 1.1266428 0.15700273 1.1266059
0000f0 25 b6 20 3e 1b 28 90 3f 86 82 27 3e ce c4 93 3f
       0.15694483 1.1262239 0.16358384 1.1544435
000100 50 2a 21 3e 4f c1 93 3f 21 fa 05 be 34 26 6f bf
       0.15738797 1.1543368 -0.13083698 -0.9341767
000110 bf 08 db 3a 6a af 87 3f d9 e8 a3 3f ed 42 94 3f
       0.001671098 1.0600407 1.2805434 1.1582924
000120 8b 99 a5 3f 4c 5f 90 3f 81 d1 a8 3f 26 66 a7 bf
       1.2937483 1.1279082 1.3188936 -1.3078048
000130 46 20 c3 be fb 51 16 3e 03 f9 a4 bf 9d ed 2e bf
       -0.3811056 0.1467971 -1.2888492 -0.6833132
000140 96 c8 a1 3c aa e5 2e bf 6a b5 9f 3c 08 e6 2e bf
       0.019748967 -0.6831919 0.019495685 -0.6831975
000150 d5 4f a2 3c 61 06 33 bf 29 90 8b bd 57 e1 16 bf
       0.019813458 -0.6993161 -0.06814606 -0.5893759
000160 01 3e 25 be d2 5b 0f 3e 8b 65 89 bf d5 1a c6 be
       -0.16136934 0.1399987 -1.0734113 -0.38692346
000170 ba 90 c9 bf 16 95 2b 40 aa f0 04 3f a1 1d 28 40
       -1.5747292 2.6809745 0.51929724 2.6268084
000180 08 02 24 be fe c9 19 c0 09 96 91 c0 38 d8 b2 3f
       -0.160164 -2.4029536 -4.549565 1.3972235
000190 cc 41 30 be 48 e3 3b 3f d4 62 92 bd 19 d7 11 bf
       -0.172126 0.7339368 -0.07147756 -0.5696884
0001a0 a8 6e 92 bd aa ce 11 bf 33 66 92 bd 4b d3 11 bf
       -0.07150012 -0.5695597 -0.07148399 -0.5696303
0001b0 7b 55 3d bd 21 d6 dd be c7 8e cb bd f2 40 f1 be
       -0.0462241 -0.4332743 -0.09939342 -0.47119862
0001c0 91 d2 8d bd 8f 4c 70 bd 1e d9 7a bf 17 13 38 40
       -0.06924928 -0.058666762 -0.97987545 2.8761652
0001d0 81 16 8f be 9d e1 52 3f a4 20 62 3f e5 a7 89 be
       -0.27946857 0.8237551 0.88331056 -0.26885906
0001e0 d0 4d ab be 7a a4 81 3f 0e c9 ad 3f 65 da 3b be
       -0.33457804 1.0128319 1.3576982 -0.1834503
0001f0 74 f9 8a 3e 98 3b cb 3e 4d 5f 05 3f ee 34 ca 3e
       0.27143443 0.39693904 0.5209854 0.39493507
000200 f1 6c 05 3f 0a 5a c8 3e 25 ce 00 3f 0b ad ed 3e
       0.52119356 0.39131194 0.5031455 0.46421084
000210 c8 1a fe 3e 2e e7 ff 3e 5a d8 0a 3f 51 7c 2c 3e
       0.49629807 0.49981064 0.54236376 0.16844298
000220 db 15 60 3f fd fb c4 bf e6 e9 92 3f 28 01 66 bd
       0.8753335 -1.5389401 1.147763 -0.056153446
000230 6a 89 54 3f 9f d6 0f 3f 94 0c b5 3e 4d 98 3c 3f
       0.8302218 0.5618686 0.3536116 0.7366989
000240 c8 2e e0 3d a4 7d e8 3c fa 90 a5 3d d9 12 17 3e
       0.10946423 0.028380223 0.08084293 0.14753284
000250 77 00 34 3d 66 8e 9e 3e 6a cb 2b 3d c7 a2 9e 3e
       0.043945756 0.30968016 0.041942038 0.30983564
000260 b6 fe 1c 3d 6f 5f 95 3e 08 10 f8 3d bd 9a 96 3e
       0.03832885 0.29174373 0.12112433 0.2941493
000270 06 b5 20 3e a0 87 c3 3e e4 5b ae 3e fc 20 fa bd
       0.15694055 0.3818941 0.34054482 -0.122133225
000280 02 5b 79 bc d8 9e 1c c0 c7 59 08 40 fd 97 32 bf
       -0.015219452 -2.447195 2.1304796 -0.69763166
000290 3e 46 51 be fd 20 c2 3e a7 b9 2c 3f c2 5d 7c bf
       -0.20436952 0.37915793 0.67470783 -0.98580563
0002a0 56 ef 75 bf 40 6e 27 3b 50 13 45 be 9a e6 0b be
       -0.9606832 0.0025547892 -0.19245648 -0.13662186
0002b0 3c 01 21 bf 31 82 0e be 09 fc 20 bf 68 40 13 be
       -0.6289251 -0.13916852 -0.62884575 -0.14380038
0002c0 35 d4 26 bf 1f 93 ae bd 7a a4 4e bf 88 3f 0a 3d
       -0.6516755 -0.08524155 -0.8071972 0.033751994
0002d0 7b 54 31 bf 4d b2 1a 3f 47 bf fd 3c 84 4b 58 bc
       -0.6926953 0.60428315 0.030974997 -0.013201598
0002e0 fc 73 7e c0 7c 2a 85 bf db b9 06 c0 c4 ed 24 c0
       -3.9758291 -1.040359 -2.1050937 -2.577012
0002f0 71 51 81 3f 2d c9 da bf 3b 3d a2 be b7 ef 80 bf
       1.0102979 -1.7092644 -0.3168734 -1.0073155
000300 7d 29 d2 bd 4d d9 3d 3d bf fd 95 be 85 38 19 3d
       -0.102618195 0.046349812 -0.29295155 0.037407417
000310 88 fd 95 be 5c 73 19 3d 72 f7 95 be c4 8e 19 3d
       -0.29294991 0.03746353 -0.29290348 0.037489668
000320 b3 8a 91 be 1e d0 51 3d df b3 98 be 74 5b 65 3d
       -0.28426132 0.051223867 -0.2982473 0.05599542
000330 39 53 0a 3e 0a ff 6d 3e cf 44 5f 3f ce fb 03 c0
       0.1350831 0.23241821 0.8721437 -2.062244
000340 5b 82 3a be 06 51 e8 be 41 f2 13 bf a1 b2 fb 3e
       -0.18213789 -0.45374316 -0.57791525 0.4915972
000350 a8 cb b6 bd 3a 5a ef be 3c 69 f5 be da 32 3e be
       -0.08925563 -0.46748525 -0.4793185 -0.18574086
000360 1a cf 71 3e e7 8a e9 bd 6f 77 25 3e 58 ac ec bd
       0.23614159 -0.11403447 0.16158842 -0.115563095
000370 01 71 25 3e 33 99 f2 bd 55 e6 17 3e a2 d7 c4 bd
       0.16156389 -0.11845627 0.14833958 -0.09611441
000380 9e 1b c6 3b 6d b7 8e 3b ce 25 4d 3d 27 fd 3f 3e
       0.0060457727 0.004355362 0.05008488 0.18748914
000390 96 dd 2f be f0 5e 51 3f
       -0.17174372 0.8178549

fc1.bias f4 [10]
000000 2e f7 87 3f 54 8d 75 bd 11 0f 9a 3e be 04 b9 3f
       1.0622308 -0.059949234 0.3008962 1.4454572
000010 66 c0 c6 bf 2d 0e 43 40 80 90 a5 3f 5d 20 34 c0
       -1.5527465 3.0477402 1.2934723 -2.8144753
000020 26 62 75 c0 74 36 0b c0
       -3.8341155 -2.1751986

fc2.weight f4 [10, 10]
000000 ce 7e a8 bd 62 c8 64 3e 2b f8 f5 be 6e 74 19 be
       -0.08227311 0.22342065 -0.480409 -0.1498582
000010 2c e7 a2 3d 61 40 07 3d 25 80 a2 be bf 5c cb be
       0.07954249 0.03302038 -0.31738392 -0.39719197
000020 e8 3f b2 bc 56 ab 8c be 9e c2 40 be 11 74 91 3e
       -0.021758988 -0.2747447 -0.1882424 0.28408864
000030 77 ee 04 be 98 f1 60 bd db cf 9d bc f9 11 0d 3e
       -0.12981592 -0.0549179 -0.019264152 0.13776387
000040 82 64 a3 be 8e 15 8a be 38 12 8f be 2f 31 8f be
       -0.3191262 -0.2696957 -0.27943587 -0.27967212
000050 c3 35 f0 3e 98 72 77 3d 50 a2 a4 3e cd e4 62 bf
       0.46916017 0.06041202 0.32155085 -0.8863037
000060 b4 46 07 3d ca fa 21 bf a5 0f fa 3e e6 34 3d 3f
       0.033026412 -0.632733 0.4884006 0.7390884
000070 51 7f 80 3f 15 04 ee 3e 5d 5b de ba 4a 52 7d be
       1.0038854 0.4648749 -0.0016964484 -0.24738422
000080 b0 84 c8 bf 92 c7 8e be 7e 33 31 bf 3d 0a b0 3e
       -1.5665493 -0.27886635 -0.69219196 0.3438281
000090 eb 54 c4 be 06 81 f4 bf d9 a5 36 be 96 1b d5 3d
       -0.38346037 -1.9101875 -0.17836703 0.10405652
0000a0 d4 e7 71 bf e0 39 1a bc 3d 08 84 be 23 0d f7 bf
       -0.94494367 -0.009413213 -0.25787535 -1.9300884
0000b0 fb c6 14 c0 8e 80 43 bf ed d7 e9 be 50 53 3a 3f
       -2.3246448 -0.76368034 -0.4567255 0.72783375
0000c0 13 29 1c 40 2d 61 73 3d 83 4b dd 3e a0 33 3e bc
       2.440007 0.059418846 0.43221673 -0.011608988
0000d0 f7 1f b9 3e 4d b2 e3 bf 47 6d e5 3f 66 96 a2 bf
       0.361572 -1.7788788 1.7923974 -1.2702148
0000e0 51 7e 63 bf e2 8f 83 3f bd 2a 27 40 f1 eb ec 3e
       -0.8886462 1.0278285 2.6119835 0.4627376
0000f0 6c 4b 49 c0 29 e4 92 be 05 83 74 c0 71 b5 c8 3f
       -3.1452284 -0.28689697 -3.8204968 1.5680372
000100 12 02 b0 3e f8 5f 23 3f 8c 24 e8 3e ea 63 00 bf
       0.3437658 0.6381831 0.45340383 -0.50152457
000110 3f 77 08 c0 f3 a3 02 bf e7 ef 1e c0 61 8e 71 be
       -2.1322782 -0.51031417 -2.4833925 -0.2358947
000120 2d 3b ba bf 76 d8 d7 3f 04 db aa be dd 28 75 3f
       -1.4549309 1.6862934 -0.3337022 0.9576548
000130 56 62 d6 3d 4f 07 0c be 61 14 fe bf 78 6c 0f bf
       0.10467975 -0.13674663 -1.9849969 -0.56024885
000140 a5 6d 28 bf 08 b4 f5 bd bd 7d d4 be 14 9c 6a be
       -0.65792304 -0.11997229 -0.4150218 -0.22911102
000150 91 b4 3d bf 6c f1 91 3d 32 7f ca 3e da c7 5a bf
       -0.7410365 0.07126126 0.39550167 -0.854612
000160 e2 d3 22 be 81 9e 8d 3f 6a b0 6d 3e 78 c6 2c 3d
       -0.1590114 1.1063997 0.23211828 0.042181462
000170 18 19 80 be c8 32 4e be d2 dc 40 3e fc 2f 6c be
       -0.25019145 -0.20136559 0.18834236 -0.2306518
000180 d8 5d a0 be 3a 88 7b be df e4 4b be 30 9f 79 be
       -0.31321597 -0.24563685 -0.19911526 -0.24377131

fc2.bias f4 [10]
000000 8c 0c 3e be bc 86 70 be cc 27 2c bf 19 77 24 bf
       -0.18559474 -0.23488897 -0.67248225 -0.6424423
000010 6f a6 e1 bf 0d 6d 34 c0 71 16 db 3f 20 c1 81 3f
       -1.7628917 -2.819156 1.7116224 1.0137062
000020 4c 80 ef bd 9e cf 19 3e
       -0.116943926 0.15020606

fc3.weight f4 [3, 10]
000000 6c ac 60 3f 1b e6 82 be 7b e2 c6 3c 8b a9 a1 c0
       0.87763095 -0.25566182 0.024277916 -5.051946
000010 cc 19 40 bd 7c f8 80 bb 68 5e b6 3d 37 1c 91 bd
       -0.0468996 -0.0039358716 0.08904725 -0.0708546
000020 6d fc 6a 3e 20 63 72 3d 3e f2 3e bd 83 36 1e be
       0.22947855 0.059176564 -0.04661774 -0.15450482
000030 01 f1 24 3f 6d 5c ab 3f 92 d1 64 40 86 31 a8 3f
       0.6443024 1.3387581 3.5752912 1.3140113
000040 73 4a 0b 40 5e e9 f3 bf a3 06 1f 40 8e 68 18 3e
       2.176419 -1.9055593 2.48478 0.14883634
000050 5c fc d1 3e c3 f3 cb 3d 4b 97 0d 3b ea 2f f4 3f
       0.41012847 0.09958603 0.002160507 1.9077122
000060 b7 fc 0f 3c 3e a0 ba 3b bb 3d d7 3b 55 e8 b3 bb
       0.008788279 0.005695372 0.006568638 -0.0054903426
000070 07 3b 2c 3c b0 ab e4 bd
       0.01051212 -0.11165559

fc3.bias f4 [3]
000000 37 31 f4 3e 11 1d 0b bf bd 57 45 bd
       0.47693798 -0.54341227 -0.048179377
