bc_checkpoint.pth (torch, 3524 bytes, 6 tensors)

fc1.weight f4 [10, 11]
000000 93 21 b4 3e 62 6b c5 3e 0c d2 aa 3f 9f cc 51 3f
       0.35181865 0.3855849 1.3345351 0.8195285
000010 19 95 bf be 6b a6 08 3e 55 1d 39 3f 5a 62 fe bd
       -0.3741844 0.13344733 0.7231038 -0.12421103
000020 32 05 c6 be cd 78 fa 3d 9c a2 77 be ad 74 54 3d
       -0.3867584 0.12230072 -0.24183124 0.051869083
000030 17 87 91 be ea 2f 88 3e e7 b6 4e be 31 df 44 bd
       -0.28423378 0.26599056 -0.20186959 -0.048064414
000040 e5 01 c0 be 20 05 9c 3d 85 68 84 be 3c 30 44 bd
       -0.37501445 0.07618165 -0.25860992 -0.047897562
000050 e6 7a f5 bd a5 2d b5 be 9f de a4 bf b2 32 76 bf
       -0.11986332 -0.35386387 -1.2880439 -0.96171105
000060 d2 38 98 3e fa 3e c5 bf 6e 76 3f 3f 08 bf 1a bb
       0.2973085 -1.5409844 0.74790084 -0.0023612399
000070 fe be 98 3e 39 2d 63 3d 30 dc c7 bd 25 af 36 bd
       0.29833215 0.05546305 -0.09758794 -0.044600625
000080 f5 22 b7 bf 9e 87 83 3e 8c 1b d0 3d 4c 87 5e bd
       -1.4307543 0.25689405 0.10161504 -0.054328248
000090 80 2f 5a bd 80 24 a3 bd 3c cb 1c be 11 8d 2a be
       -0.053267956 -0.07965946 -0.15311903 -0.16655375
0000a0 f0 48 c8 bc 7e e1 8f 3e 42 ad f0 bd 3c 2b 59 be
       -0.024448842 0.28101724 -0.11751796 -0.21207899
0000b0 33 bb 88 bf 82 cf b8 bf d5 bb 07 c0 6b 3d 02 c0
       -1.0682129 -1.4438326 -2.1208394 -2.0349987
0000c0 52 e4 74 3e d6 61 df 3d 44 18 10 bf b4 b9 c9 be
       0.23915222 0.109073326 -0.56287026 -0.39399493
0000d0 e9 e6 13 bf 64 af 4b be b9 5d 49 3e e1 ed 53 3a
       -0.57774216 -0.19891125 0.19664659 0.0008084458
0000e0 60 a7 07 3f f6 9c f0 3e dd ba e8 3e d9 5e 01 bf
       0.5298977 0.46994752 0.45455065 -0.5053535
0000f0 91 cf 4c 3e 15 8b 4d 3f c1 33 28 be e6 13 ae bd
       0.20001055 0.8029035 -0.16425993 -0.08499889
000100 8c 72 23 be ff 24 c4 3c ba b8 8d bf d6 72 84 3f
       -0.15961665 0.023943422 -1.1071999 1.0347545
000110 ee 51 49 3f 94 58 a2 bf 76 c0 40 3f 99 c1 54 bb
       0.7864064 -1.2683282 0.7529367 -0.0032464026
000120 c0 58 aa 3e 60 ae a0 bd 27 59 de bd 32 8b 7d 3b
       0.33270836 -0.078457594 -0.10856848 0.0038687703
000130 77 35 98 bf cf 6e 25 bf 3c 0d c3 3e 3b cd 6a bf
       -1.1891316 -0.64622205 0.38096035 -0.91719407
000140 bf a0 c0 bf 35 d9 ba 3e 4e 3d 23 3e b2 1f 7c 3d
       -1.5049056 0.3649384 0.15941355 0.061553665
000150 57 57 4d 3b 9f 76 00 3f 04 6d 00 3e e6 9d 5c bd
       0.0031332576 0.50181 0.12541586 -0.05386152
000160 39 f6 9c 3e 15 0b ef bf 0a b1 9e 3f 11 1a 41 3e
       0.30656603 -1.8675257 1.2397778 0.188576
000170 7f fb dc be 16 8f dc 3d a3 b5 77 3f 11 f4 e1 3d
       -0.43160626 0.10769479 0.9676153 0.1103288
000180 e9 2c 9f 3d 8d 51 c5 3a 7c 2f ed 3d 2e ef 8b bf
       0.07772238 0.0015054211 0.115813226 -1.0932367
000190 a6 1b 37 c0 c6 b2 db bf ec dd c4 bf 15 d2 88 be
       -2.8610625 -1.7163932 -1.5380225 -0.2672278
0001a0 c8 32 31 3e 90 68 ad 3e d2 35 db be 2c 4c 80 bf
       0.17304528 0.33868837 -0.428145 -1.0023246
0001b0 35 16 02 3e bb ae 7d 3e
       0.12703784 0.24773686

fc1.bias f4 [10]
000000 7c d1 f9 3d 34 88 ff 3d c8 e6 9b bf 3c 19 4d 3e
       0.12198159 0.124771506 -1.2179804 0.20029157
000010 00 a1 80 bf 7e 96 73 be ba 57 67 bf 34 d2 02 bf
       -1.0049133 -0.23787877 -0.90368235 -0.51101995
000020 30 b0 a3 3e fe 16 93 bf
       0.31970358 -1.1491392

fc2.weight f4 [10, 10]
000000 0e d1 7e bf c3 31 eb 3d 93 eb d7 3e 90 df cc bc
       -0.9953774 0.11484101 0.42171916 -0.025008947
000010 e0 df 02 3f b9 78 29 bf a1 8b 5f bd bd 89 be 3e
       0.51122856 -0.66199833 -0.05457652 0.3721446
000020 60 d8 69 bf 10 1f f8 bd 80 8d f8 3d f7 54 51 be
       -0.9134579 -0.121153 0.12136364 -0.20442568
000030 9a d3 0b 3e 9d 22 57 be b8 cf bc 3d e0 ea 53 be
       0.13654938 -0.21009298 0.09219307 -0.20695066
000040 e4 24 08 3d be 80 4f 3e b3 e6 b5 3d 2e 21 d7 bc
       0.033238307 0.20263955 0.08881893 -0.026260938
000050 d0 be a5 3d 3b dc 30 bc 58 21 98 bf 39 12 9a 3e
       0.08093035 -0.010794695 -1.1885176 0.30092028
000060 57 c8 29 3f 1c a7 90 3e 03 f7 8e bf 57 58 7e bc
       0.6632132 0.28252494 -1.1169132 -0.015523992
000070 fc f4 98 be 97 9b 83 3e fc d0 be bd 70 8c af 3d
       -0.29874408 0.25704643 -0.09317204 0.08571708
000080 80 a9 81 be 79 71 88 be c8 b9 34 3d 96 52 2b be
       -0.2532463 -0.26649073 0.044122487 -0.16730723
000090 80 a6 f9 bc fc ad 69 be 4d 66 8d be 40 f9 e2 3b
       -0.030474901 -0.22820276 -0.27617112 0.0069266856
0000a0 f7 09 80 be 88 46 2e be a9 54 1a 3f 40 2d 8b 3d
       -0.25007603 -0.17019093 0.6028543 0.0679574
0000b0 86 18 33 3f 39 3c 13 be 5f 06 f3 3e 0a 97 01 3f
       0.69959295 -0.14378442 0.47465798 0.5062109
0000c0 d9 d9 73 3e 5e 4f 52 3f d9 69 84 bf 6c ff 3c 3e
       0.23813571 0.82152355 -1.0344802 0.1845681
0000d0 b8 52 06 3b 5d d7 a1 3e 09 e6 ca 3e 9a 89 1f bf
       0.0020496082 0.31609622 0.39628628 -0.6231934
0000e0 2a 2f b6 3e 75 13 d9 3e 98 c1 94 bf 29 f8 b5 be
       0.35582858 0.42397657 -1.162158 -0.35540894
0000f0 98 be 94 3d e0 40 e3 3c 12 3c c8 3c 3e e4 73 3e
       0.072629154 0.027740896 0.024442706 0.23817536
000100 08 bd 84 be 18 e5 08 bd 81 46 b1 3b ad a4 7b be
       -0.2592547 -0.033421606 0.005410016 -0.24574538
000110 d0 ca 6a bc e7 17 df bd 85 1c a8 3e a7 19 b5 bd
       -0.014330581 -0.10893231 0.3283426 -0.088427834
000120 2a d6 0c 3e 7c 52 b3 3d 7f 96 de be 20 ee 82 3e
       0.13753572 0.08755967 -0.43474194 0.255723
000130 ec 22 02 3f 52 99 bf 3d 67 2f 40 bf a3 85 46 be
       0.50834537 0.093554154 -0.7507233 -0.19386916
000140 1b 41 9b 3d 0a 53 33 3e 74 0d 2c 3e 70 f4 fb bc
       0.07580777 0.17512146 0.16802007 -0.030756205
000150 42 8e 13 bf 0f 4a b3 3c f3 fd bc 3e a8 b6 a3 3e
       -0.57638943 0.0218859 0.36912498 0.31975293
000160 11 a7 48 be 8e 9f 9d be d4 05 c5 3d 5c 9c 79 be
       -0.19594981 -0.30785793 0.09620252 -0.24376053
000170 30 0a 69 be dc 60 ad 3d f8 95 9f be fd 56 64 be
       -0.22757792 0.0846574 -0.31169105 -0.22298808
000180 28 b9 11 3d c4 c6 3c be 00 4c e7 3b 9c a7 5e be
       0.03557697 -0.18435198 0.0070586205 -0.21743625

fc2.bias f4 [10]
000000 7e ea 11 be 16 5b b1 3c ea 3a b0 3e e7 98 7c be
       -0.14249608 0.021649878 0.34419948 -0.24667703
000010 9c 66 e0 be 8c e3 26 bd b4 af 74 be 1c 58 81 bd
       -0.43828285 -0.04074435 -0.2389515 -0.06315634
000020 5a c0 13 be 28 f0 73 bd
       -0.14428845 -0.059555203

fc3.weight f4 [3, 10]
000000 b1 32 f4 3c dd 4c 78 3e 9a 26 0f 3c d0 cf f3 bd
       0.029809328 0.24248071 0.008737231 -0.119048715
000010 9e e4 93 bc 5b ba d3 bc 83 b2 78 be 66 50 05 3e
       -0.01805335 -0.025845697 -0.24286847 0.13018951
000020 f2 ed 3d be d3 dc 90 3e fe 82 1d 3f 51 6b 16 3d
       -0.185478 0.28293476 0.61528003 0.03672344
000030 c9 14 6c bf 16 8a 82 be 61 38 0d 3f 3b 5c 42 3f
       -0.92219216 -0.25495976 0.5516415 0.7592198
000040 78 6a ff bd e2 29 33 bf a5 2f fc be 10 4e 94 be
       -0.12471479 -0.69985783 -0.492551 -0.28965807
000050 3e cb fb 3d 46 c6 97 3e fa 65 9c 3c 9c 54 81 3d
       0.12294625 0.29643458 0.019091595 0.06314966
000060 79 9e 32 bd 3c c3 e1 bd 17 cc 9b 3e 37 4f 28 bd
       -0.043608163 -0.11023566 0.30429146 -0.04109117
000070 e0 23 1b bc dd c1 88 be
       -0.0094690025 -0.26710406

fc3.bias f4 [3]
000000 7f 09 fe 3e 87 6a 22 be 53 b8 2b be
       0.4961662 -0.1586095 -0.16769533
