calling_checkpoint.pth (torch, 4150 bytes, 6 tensors)

fc1.weight f4 [10, 23]
0	0xbf280818	-0.6563735
1	0xbdf10aff	-0.117696755
2	0xbd21fb35	-0.03954621
3	0x3dca8410	0.0988847
4	0x3ca18f76	0.019721728
5	0xbd47226a	-0.048616804
6	0x3d49cb8e	0.04926639
7	0x3a93c873	0.0011274948
8	0xbda4992e	-0.08037029
9	0x3dd689d1	0.10475505
10	0x3d4c6611	0.049902026
11	0x3cc4b87c	0.02401375
12	0x3c563f59	0.013076627
13	0x3d8415a4	0.0644944
14	0xbc913ef9	-0.017730223
15	0xbd0fd168	-0.035111815
16	0xbda8e0c8	-0.082459986
17	0xbd5b6c9b	-0.05357037
18	0x3d41ce34	0.04731579
19	0x3dea08c1	0.11427451
20	0x3d1deda5	0.038556714
21	0x3d9d8cb6	0.07692854
22	0xbd7bf4d0	-0.06151277
23	0xbe3c4ed6	-0.18389449
24	0x3e2155e5	0.15755422
25	0xbdb0b2ac	-0.08627829
26	0x3e34d687	0.1765996
27	0x3da5be32	0.080929175
28	0xbdb92f2c	-0.090422004
29	0xbdbee586	-0.09321122
30	0xbe3260d2	-0.17419747
31	0xbc563670	-0.013074502
32	0x3da0ef22	0.07858111
33	0x3da2c5a6	0.07947855
34	0x3e435e27	0.19078885
35	0x3d8037ba	0.06260629
36	0xbe1c7e31	-0.15282513
37	0xbc866fc8	-0.016410723
38	0xbd2f4680	-0.042791843
39	0xbd7a3860	-0.06108892
40	0xbd80631c	-0.062689036
41	0xbd8eeb9c	-0.06978533
42	0x3e3c2189	0.18372168
43	0xbe287f97	-0.16454922
44	0x3e06ce0b	0.13164537
45	0xbd41c42c	-0.047306225
46	0xbe4b02e3	-0.1982532
47	0x3db29062	0.08718945
48	0xbe18e9a4	-0.14932877
49	0x3c2781a0	0.010223776
50	0xbe2deeee	-0.16985676
51	0xbd84d7b8	-0.064864576
52	0xbcadec98	-0.02123098
53	0x3df7a8ee	0.12092768
54	0x3d14c8ac	0.036324188
55	0x3d061120	0.032731175
56	0xbe1258eb	-0.14291732
57	0x3dbfe666	0.09370117
58	0xbe4aac04	-0.19792181
59	0x3d8c7de6	0.06859951
60	0x3e3c13a9	0.18366875
61	0xbb01c280	-0.001979977
62	0xbd83498a	-0.06410511
63	0xbcd63220	-0.026146948
64	0x3e349e29	0.17638458
65	0x3d2cd6b4	0.042196944
66	0xbdb60a58	-0.08888692
67	0x3d021a08	0.031763107
68	0xbd5d4dc8	-0.054029256
69	0xbd7f5bec	-0.062343523
70	0x3e1c217d	0.1524715
71	0x3dfca472	0.12336053
72	0xbdbf0ed9	-0.09329004
73	0xbe4b5e05	-0.19860084
74	0x3d6c2934	0.05765648
75	0xbe3dba6d	-0.18528147
76	0xbe0fc4f6	-0.14039978
77	0x3e3713bf	0.17878626
78	0x3cbed388	0.023294225
79	0xbdd2b538	-0.10288471
80	0x3e1536eb	0.14571731
81	0xbcf48370	-0.02984783
82	0xbb0624c0	-0.0020468682
83	0xbe014605	-0.12624367
84	0xbe0c9b8c	-0.13731211
85	0xbda51fd6	-0.08062713
86	0xbc84db30	-0.016217798
87	0x3e1e9133	0.15485077
88	0x3b9b0940	0.0047313273
89	0xbe3bbdf4	-0.1833418
90	0xbc8cf418	-0.017206237
91	0x3e256b85	0.16154297
92	0xbd885617	-0.06657045
93	0xbe487492	-0.19575718
94	0xbd80d0c6	-0.062898204
95	0xbd55451a	-0.052067854
96	0x3d626d6c	0.055280134
97	0x3ccd4a15	0.02505974
98	0x3d2378d2	0.039910145
99	0xbdc3c0b0	-0.095582366
100	0x3d9600d2	0.07324375
101	0xbe578a5b	-0.21048872
102	0xbbe36618	-0.0069396608
103	0xbd760e1e	-0.060072057
104	0xbbb065f2	-0.0053832466
105	0xbd442ccb	-0.04789428
106	0x3b0a2959	0.0021081774
107	0xbda43996	-0.08018796
108	0xbbdd367f	-0.006750881
109	0x3d0600ba	0.032715537
110	0x3db43811	0.08799756
111	0x3e0dd6e3	0.13851504
112	0xbddc0540	-0.10743189
113	0x3bf7c2e3	0.007561074
114	0x3e52b021	0.20575
115	0xbd99c69c	-0.07508585
116	0x3dbfbbc8	0.09361988
117	0xbc9833c9	-0.01857938
118	0x3d3ac012	0.04559333
119	0xbc1f74e6	-0.009732461
120	0xba9a6ce2	-0.0011781717
121	0x3d9336c8	0.07188183
122	0xbd56d534	-0.05244942
123	0x3dc61f6e	0.096739635
124	0xbcfa0b1a	-0.030522872
125	0xbcc6d01a	-0.024269152
126	0xbde03b1a	-0.10948773
127	0xbd29b4d4	-0.041432217
128	0x3c4aa940	0.012369454
129	0xbc9548d1	-0.018223198
130	0xbd71e2fe	-0.059054367
131	0xbd5d980d	-0.054100085
132	0x3cb22e9a	0.021750737
133	0x3d17a917	0.03702649
134	0xbd394e16	-0.045240484
135	0xbde0df63	-0.10980108
136	0xbd9739a9	-0.07384045
137	0x3cba3c89	0.022733944
138	0x3d407adc	0.046992168
139	0x3e1101f9	0.14160909
140	0x3e117803	0.14205937
141	0x3e5434d7	0.20723282
142	0xbe1eb5fa	-0.15499106
143	0xbdf46f22	-0.119352594
144	0x3cba3ec0	0.022735
145	0x3e22c9f3	0.1589735
146	0x3d4c426c	0.049868032
147	0xbe3edb69	-0.18638386
148	0xbe2d707c	-0.1693744
149	0xbd060074	-0.032715276
150	0xbe211262	-0.15729669
151	0x3e203acb	0.15647428
152	0x3de7b8f2	0.113145724
153	0x3e05d4db	0.13069479
154	0xbe4f159c	-0.20223087
155	0xbdd4ff6e	-0.10400282
156	0x3db2fb86	0.087393805
157	0xbdc37ab7	-0.095448904
158	0xbdec2d9f	-0.11532139
159	0xbcaef448	-0.021356717
160	0xbe481430	-0.19538951
161	0x3d5a0ccc	0.05323486
162	0xbdc30430	-0.09522283
163	0x3deb4362	0.114874616
164	0xbe34c89a	-0.17654648
165	0x3d807de2	0.0627401
166	0xbe54e6f1	-0.20791222
167	0xbd0d2988	-0.034463435
168	0xbb875e80	-0.0041311383
169	0x3e4ba47b	0.19886963
170	0x3e3f82ef	0.18702291
171	0x3de761c2	0.11297943
172	0x3dc28a32	0.09499015
173	0x3dc8325e	0.09775232
174	0xbe4767aa	-0.19473138
175	0x3dfb79a6	0.12279062
176	0x3ce49de0	0.027907312
177	0x3cc5ece8	0.024160817
178	0xbe2c7fda	-0.16845647
179	0x3d9d12ea	0.07669623
180	0xbd2e0d5c	-0.04249321
181	0xbe14848b	-0.14503686
182	0x3e3a05af	0.1816623
183	0x3e3ffecf	0.18749546
184	0x3e3c1454	0.1836713
185	0xbe728ff1	-0.23687722
186	0xbda2c4d8	-0.07947701
187	0x3e4b8716	0.1987575
188	0x3d225d40	0.03963971
189	0xbdc82920	-0.09773469
190	0x3dcacab6	0.09901945
191	0x3b309e7a	0.0026949928
192	0xbc8ecf28	-0.017432764
193	0x3e579759	0.21053828
194	0x3dcd646e	0.10028921
195	0x3d4589c0	0.04822707
196	0x3cd73323	0.026269501
197	0x3e04b620	0.129601
198	0xbd11fdaf	-0.035642322
199	0xbd9092c8	-0.07059246
200	0xbe29bebd	-0.16576667
201	0xbddc9be2	-0.1077192
202	0x3dc2addc	0.09505817
203	0x3e6b29de	0.2296519
204	0x3d9eb670	0.07749641
205	0x3e1e5547	0.15462218
206	0xbdfd2657	-0.12360828
207	0xbe69c64c	-0.2282955
208	0xbc92bce7	-0.017912341
209	0xbd1ba7bb	-0.038001757
210	0x3dc20825	0.0947421
211	0xbca1d312	-0.019753966
212	0xbae0ea0b	-0.0017159594
213	0x3e18b5f4	0.1491316
214	0xbde97fa8	-0.114013016
215	0x3c99b4d0	0.018762976
216	0xbd815d6d	-0.06316648
217	0xbd4d53ea	-0.050128855
218	0xbe67f7c5	-0.2265311
219	0xbdaf5492	-0.085610524
220	0x3ce2df1b	0.027694276
221	0xbd18c2c0	-0.037295103
222	0xbdf9534d	-0.121740915
223	0xbde40b55	-0.11134974
224	0x3d3aaaff	0.04557323
225	0x3d9e0cc2	0.07717277
226	0xbdbcc74e	-0.09217702
227	0xbe68632d	-0.22694083
228	0xbe1c506b	-0.15265052
229	0x3d46d636	0.04854413

fc1.bias f4 [10]
0	0xbf225d3f	-0.6342353
1	0xbe3a7b3b	-0.18211071
2	0xbd00a180	-0.03140402
3	0xbd6a6d08	-0.057232887
4	0xbb8334bd	-0.0040040896
5	0xbd6b5f81	-0.057464126
6	0xbe08ac61	-0.13347007
7	0x3e2e1a61	0.1700225
8	0x3e47e247	0.19519912
9	0xbdc14ad7	-0.09438103

fc2.weight f4 [10, 10]
0	0x3c8316cb	0.01600208
1	0x3e0e7606	0.1391221
2	0xbd9d082e	-0.07667576
3	0xbdca7958	-0.09886426
4	0x3d960c13	0.07326522
5	0xbe73c15e	-0.23804232
6	0x3e42264a	0.18959919
7	0x3e768c1e	0.24076888
8	0xbd15ad61	-0.0365423
9	0xbe9f304b	-0.31091532
10	0x3dfee5a8	0.12446147
11	0xbe0edaf8	-0.13950717
12	0xbd97bb4e	-0.074087724
13	0x3e279456	0.1636518
14	0xbd8fa722	-0.070143
15	0xbe9a76d2	-0.30168778
16	0x3caa20f0	0.020767659
17	0xbe80aa6d	-0.25130025
18	0xbe6ba93e	-0.2301378
19	0x3e30539e	0.17219397
20	0x3e39a383	0.18128781
21	0x3e0ba11c	0.13635677
22	0xbe33a061	-0.17541648
23	0x3e89d7e7	0.26922533
24	0x3df1c220	0.118046045
25	0x3d7e41d8	0.062074512
26	0xbe3e56d1	-0.18587805
27	0xbe4e536c	-0.2014901
28	0xbea7ba0d	-0.32759133
29	0x3de87e14	0.113521725
30	0x3e2ca7c0	0.16860867
31	0x3dfd5f9c	0.12371752
32	0x3e81212b	0.25220618
33	0x3cb271b0	0.021782726
34	0x3e424249	0.18970598
35	0xbd8245c0	-0.0636096
36	0x3e758366	0.23975906
37	0xbcd03640	-0.025416493
38	0x3d6dd92f	0.05806845
39	0xbe2dc20b	-0.16968553
40	0x3e26e487	0.16298114
41	0x3df2af38	0.118498266
42	0xbdde8234	-0.10864678
43	0x3df28eb4	0.11843625
44	0xbe11fa2c	-0.14255589
45	0xbe606dec	-0.21916932
46	0xbe0eeabe	-0.13956735
47	0x3cec20f0	0.0288243
48	0x3e1a8920	0.15091372
49	0xbe6f3daa	-0.23363367
50	0xbec22c68	-0.37924504
51	0xbdb2e47a	-0.08734985
52	0x3e894717	0.2681205
53	0xbe106727	-0.1410185
54	0xbc87e92b	-0.016590675
55	0x3db15c0e	0.08660136
56	0xbe05e4db	-0.13075583
57	0xbd9759e8	-0.07390195
58	0x3e8e7336	0.27822274
59	0xbe6d2538	-0.23158729
60	0xbe9560d2	-0.2917543
61	0xbe6833ec	-0.22676057
62	0x3e4d8272	0.20069292
63	0xbd4ea788	-0.05045274
64	0xbdabb616	-0.083843395
65	0xbe99661e	-0.29960722
66	0x3e0910ca	0.13385311
67	0x3e5efbfa	0.21775809
68	0xbc6e1979	-0.01453244
69	0x3e4d0e77	0.20025049
70	0x3d5a2f28	0.053267628
71	0xbc9e4480	-0.019319773
72	0x3d69f258	0.057115883
73	0xbc937180	-0.017998457
74	0xbe307633	-0.1723259
75	0x3e82dbaa	0.25558215
76	0xbe82d0d9	-0.25549963
77	0xbe3d332c	-0.18476552
78	0xbcd914c0	-0.026499152
79	0xbd0732d1	-0.033007447
80	0xbe57dad9	-0.21079578
81	0xbd5e3ed8	-0.05425915
82	0x3e22c3ca	0.15895
83	0xbe840849	-0.2578757
84	0x3e048829	0.12942566
85	0xbdc901bc	-0.09814784
86	0xbcafa840	-0.021442533
87	0xbe319fdf	-0.17346142
88	0x3e43df29	0.19128098
89	0x3e927372	0.28603703
90	0xbd91593f	-0.070971005
91	0x3e9add2b	0.30246863
92	0xbdfb6e5c	-0.12276909
93	0xbdaf0b18	-0.08547038
94	0xbd64e5b7	-0.055883136
95	0xbe75dd24	-0.2401014
96	0xbe9ee364	-0.3103286
97	0xba979900	-0.0011565983
98	0x3cac7204	0.02105046
99	0x3e728a8a	0.23685661

fc2.bias f4 [10]
0	0x3e035681	0.12825967
1	0xbe3ab166	-0.18231735
2	0xbe1c5ded	-0.15270205
3	0x3eb1cd9b	0.34727177
4	0xbebc62a0	-0.36793995
5	0x3f5d57f8	0.86462355
6	0x3d4ce14b	0.050019544
7	0x3df28f64	0.11843756
8	0xbe1716c4	-0.14754778
9	0x3fbbaa9d	1.4661442

fc3.weight f4 [3, 10]
0	0xbe89f009	-0.26940945
1	0x3d3cb1d8	0.046068043
2	0x3e5f6da3	0.21819167
3	0x3d16f5f2	0.036855645
4	0xbdb4eea2	-0.08834578
5	0x3e62f50d	0.22163792
6	0xbdd63e8f	-0.10461151
7	0x3daf580b	0.08561715
8	0xbce4b7e2	-0.027919713
9	0x3e1b9588	0.1519376
10	0x3e263c59	0.16233958
11	0x3e136a74	0.14396077
12	0x3e694eb4	0.22783929
13	0x3e473e4c	0.19457358
14	0x3cd2b106	0.025719177
15	0xbe63970e	-0.22225592
16	0xbe89009a	-0.2675827
17	0x3e8be27b	0.27321228
18	0xbe0e9308	-0.13923275
19	0x3dee49e4	0.11635187
20	0x3e3da0fe	0.18518445
21	0x3e64cca6	0.22343692
22	0x3e2fe8f5	0.1717871
23	0xbe82466f	-0.25444362
24	0x3e5a86ae	0.21340439
25	0xbd9d0c11	-0.07668317
26	0x3e09b5b4	0.1344822
27	0x3e74b7f0	0.23898292
28	0xbd93ac2e	-0.07210575
29	0x3ca91e78	0.020644411

fc3.bias f4 [3]
0	0x3ea3c2ef	0.3198466
1	0x3e852026	0.2600109
2	0x3e8a0110	0.26953936
