folding_checkpoint.pth (torch, 4150 bytes, 6 tensors)

fc1.weight f4 [10, 23]
0	0x3d1f9507	0.038960483
1	0xbde3f3df	-0.11130499
2	0x3cca9c5b	0.02473276
3	0x3d8ac6d8	0.06776208
4	0xbd43814c	-0.04773073
5	0xbe420fde	-0.18951365
6	0xbdc9c3b5	-0.09851781
7	0xbdfca634	-0.12336388
8	0xbe0b3422	-0.13594106
9	0x3dd7c0c5	0.10534815
10	0xbc1af6fa	-0.009458298
11	0xbde74874	-0.11293116
12	0x3dea9c5e	0.11455606
13	0xbd32a252	-0.043611832
14	0xbe35999b	-0.17734377
15	0x3cf126db	0.029437473
16	0x3e1455ff	0.1448593
17	0xbe05b564	-0.13057476
18	0x3bcfab4d	0.0063375593
19	0xbe6381c3	-0.22217469
20	0x3e163182	0.14667323
21	0x3d872ca7	0.06600314
22	0x3d5805bf	0.052739855
23	0x3d250c30	0.040294826
24	0xbd2aac28	-0.041668087
25	0xbd996340	-0.074896336
26	0x3df8ddca	0.12151678
27	0x3d144480	0.03619814
28	0xbd076b14	-0.033061102
29	0xbe2bf3b8	-0.1679219
30	0x3a976180	0.0011549443
31	0xbcdc6250	-0.026902348
32	0x3e2134d1	0.15742804
33	0xbbb31560	-0.0054651946
34	0x3e2dc025	0.16967829
35	0xbca47198	-0.020073697
36	0x3de9cf46	0.114164874
37	0xbc3ba9c0	-0.011454046
38	0x3dbfe202	0.093692794
39	0xbe1acdaa	-0.15117517
40	0x3ddd14b6	0.10794966
41	0xbe37a649	-0.17934527
42	0x3d72b934	0.059258655
43	0xbd97d734	-0.074140936
44	0x3e069213	0.1314166
45	0xbdd40f53	-0.10354485
46	0xbd1d80f2	-0.03845305
47	0xbcc9aa03	-0.0246172
48	0x3d611df0	0.05496019
49	0xbe08eaf7	-0.13370882
50	0x3e025a63	0.12729792
51	0x3c7487dc	0.0149249695
52	0xbe613a4e	-0.21994898
53	0xbe72a18b	-0.23694436
54	0xbd25a3cc	-0.040439412
55	0x3d59e300	0.053195
56	0xbd2724bf	-0.04080653
57	0xbdf95cea	-0.12175925
58	0xbe45b55e	-0.19307467
59	0xbd84a632	-0.06477012
60	0x3df2bc5b	0.11852332
61	0x3dc2e36e	0.09516035
62	0xbd82371f	-0.0635817
63	0xbce6db49	-0.028180735
64	0xbd729bb8	-0.059230536
65	0xbb8c4340	-0.0042804778
66	0x3cf97ba4	0.030454464
67	0xbcb55993	-0.022137439
68	0x3d5c1ada	0.053736545
69	0xbd85f2f7	-0.065404825
70	0xbd69fe34	-0.057127193
71	0xbe5abbe2	-0.21360734
72	0xbdf27bd9	-0.11840028
73	0xbe7e8706	-0.24856195
74	0x3d52355f	0.05132043
75	0xbd65d207	-0.0561085
76	0x3d26c1a5	0.040712018
77	0xbe169f0d	-0.1470911
78	0xbc80f3b8	-0.015741214
79	0xbb87d4aa	-0.0041452246
80	0xbdbe6b3b	-0.09297796
81	0xbe4c1526	-0.19929942
82	0xbd74607e	-0.059662335
83	0x3d634b8d	0.055491973
84	0xbe0f0a17	-0.13968693
85	0x3db7bd57	0.089716606
86	0xbdcd1a07	-0.1001473
87	0x3c5ef297	0.013607643
88	0xbe79ca2e	-0.24393532
89	0x3c3438da	0.010999883
90	0x3d45802a	0.04821793
91	0xbd854d1a	-0.065088466
92	0x3dc4c28c	0.09607419
93	0xbd6d843b	-0.057987433
94	0x3d9a3118	0.07528895
95	0x3d0e824c	0.03479223
96	0x3df6ba1d	0.12047217
97	0xbbbeec79	-0.0058265296
98	0xbe6eea0b	-0.23331468
99	0xbe80cc85	-0.25156036
100	0x3cacb418	0.02108197
101	0xbe3fe19f	-0.18738411
102	0xbd7b45ad	-0.061345745
103	0xbe469d94	-0.19396049
104	0x3d996f67	0.074919514
105	0xbd39c975	-0.04535814
106	0x3d856463	0.06513288
107	0x3b59241a	0.003313309
108	0xbdd63bbc	-0.10460612
109	0xbea3e47e	-0.32010263
110	0x3c809031	0.015693756
111	0xbe2a1dc2	-0.16612914
112	0x3d55b8a2	0.052178033
113	0x3d85a0d1	0.06524814
114	0x3d450385	0.04809906
115	0xbdb40a95	-0.08791081
116	0x3da9cc05	0.08290867
117	0xbe53970c	-0.20663089
118	0xbe4d7c32	-0.20066908
119	0xbdf0affc	-0.11752316
120	0xbd92685c	-0.07148811
121	0x3d0e49a1	0.034738187
122	0xbe49f92e	-0.19723961
123	0xbd536464	-0.05160941
124	0x3cfa8916	0.030582946
125	0xbd15680b	-0.036476176
126	0x3db06d88	0.086146414
127	0x3cc5ddbf	0.024153588
128	0x3ddd6818	0.1081087
129	0x3d15a276	0.036531888
130	0x3c9f8273	0.019471383
131	0xbdffa613	-0.12482848
132	0x3e3ee6cb	0.18642728
133	0x3d346196	0.044038378
134	0x3e19f76b	0.15035789
135	0x3cc9a683	0.024615532
136	0xbe447ddb	-0.19188635
137	0xbe0f5f78	-0.14001262
138	0xbdb0156f	-0.08597838
139	0x3cf56d28	0.029959276
140	0x3cecb1f1	0.028893443
141	0xbdb15bba	-0.086600736
142	0x3d36da35	0.044641692
143	0xbce0cbc6	-0.027440917
144	0x3ccaf084	0.02477289
145	0xbd19c18c	-0.037538096
146	0xbd9b9024	-0.07595852
147	0x3e373ca5	0.17894228
148	0x3a28c2a9	0.0006437698
149	0xbd2e068c	-0.042486712
150	0xbc81ff7a	-0.015868891
151	0xbd15975f	-0.03652131
152	0x3c3b5ba3	0.011435422
153	0xbdb53e31	-0.08849753
154	0x3e01e66d	0.12685557
155	0x3cc6968c	0.024241708
156	0x3ced2224	0.028946944
157	0x3d844c14	0.06459823
158	0x3dabda87	0.0839129
159	0xbccd1348	-0.025033608
160	0x3d622e22	0.055219777
161	0xbe05abc7	-0.13053809
162	0xbe50a753	-0.20376329
163	0xbe0c8a44	-0.13724619
164	0xbe27e080	-0.16394234
165	0x3da46b4c	0.08028278
166	0xbd869c53	-0.06572785
167	0xbe062fc0	-0.13104153
168	0x3d73776a	0.059440054
169	0xbe13f01d	-0.14447065
170	0xbe2ab02c	-0.16668767
171	0x3da7be3d	0.08190582
172	0xbd3d3641	-0.04619432
173	0xbd89cf7e	-0.06729029
174	0xbe256059	-0.16150035
175	0x3dffcbd3	0.12490048
176	0xbe413557	-0.18868004
177	0xbdc1cb1d	-0.09462569
178	0xbe2e412a	-0.17017046
179	0xbe256ef8	-0.16155612
180	0xbce9a936	-0.028523069
181	0x3c0b52db	0.008503641
182	0xbd96b000	-0.07357788
183	0xbe2272a8	-0.1586405
184	0xbe4b1d97	-0.19835506
185	0x3d934719	0.07191295
186	0xbd7f74bb	-0.062367182
187	0x3dad3913	0.08458152
188	0x3dfaf8da	0.12254496
189	0xbd11e04f	-0.035614308
190	0xbda83f1e	-0.08215164
191	0x39a8a4b9	0.00032166185
192	0x3dcccace	0.099996194
193	0xbba2f702	-0.0049732933
194	0xbe2cdb10	-0.1688044
195	0xbdd96ce8	-0.10616475
196	0xbcea016c	-0.028565131
197	0x3e10fe8f	0.14159606
198	0x3e4823e5	0.19544943
199	0x3dc4de09	0.09612662
200	0x3dd3c75f	0.103407614
201	0xbe1dd35e	-0.15412661
202	0x3cc54f38	0.024085626
203	0x3d9bd954	0.076098114
204	0xbc9b7e9a	-0.018981267
205	0x3d47566f	0.048666414
206	0x3e0aa5b0	0.13539767
207	0x3e8f0654	0.27934515
208	0x3dbad249	0.0912214
209	0x3dace858	0.084427536
210	0xbe38a29d	-0.18030782
211	0x3e051d05	0.12999351
212	0x3c80691b	0.015675118
213	0x3da7dd78	0.08196539
214	0xbc188304	-0.00930858
215	0xbd516bd0	-0.05112821
216	0x3eb0e52c	0.34549844
217	0x3c23a91a	0.009989047
218	0xbd87062d	-0.06592975
219	0xbd9d659e	-0.076853976
220	0xbda29e27	-0.079403214
221	0x3da35fb2	0.07977237
222	0xbe51001b	-0.20410196
223	0x3e7859a4	0.24252945
224	0x3d8ea483	0.06964972
225	0x3d5b5ed0	0.053557217
226	0x3e45fb8e	0.19334242
227	0x3e025ebc	0.12731451
228	0xbd467494	-0.04845102
229	0x3df90050	0.12158263

fc1.bias f4 [10]
0	0xbe26f758	-0.16305292
1	0xbc53af00	-0.012920141
2	0xbdca92e9	-0.09891302
3	0xbd2b6035	-0.041839797
4	0xbe50b055	-0.20379765
5	0x3d806afe	0.06270407
6	0xbdc057b9	-0.09391732
7	0xbe05212a	-0.13000932
8	0xbe22e1ae	-0.15906402
9	0x3ec647a5	0.38726535

fc2.weight f4 [10, 10]
0	0x3e1a361b	0.15059702
1	0x3e94288b	0.28937182
2	0x3e8b5c72	0.27218968
3	0xbda709f7	-0.081561975
4	0x3d08c041	0.033386473
5	0xbe1d2a44	-0.15348154
6	0xbd9fb374	-0.077979
7	0xbe9dd647	-0.30827543
8	0x3e82e35f	0.25564095
9	0x3e1274c4	0.14302355
10	0xbddff4d4	-0.10935369
11	0x3e60d16e	0.21954891
12	0x3e3974af	0.18110918
13	0x3d1268c5	0.035744447
14	0x3e3a09df	0.18167828
15	0x3ca76ef0	0.020438641
16	0x3e05be7c	0.13060945
17	0x3d7bbcc0	0.061459303
18	0x3e78768d	0.24263974
19	0xbe5a3cca	-0.21312252
20	0xbe191c02	-0.1495209
21	0x3e54bbaa	0.20774713
22	0xbe3069d5	-0.17227872
23	0x3e9572f9	0.2918928
24	0xbe8f3948	-0.2797339
25	0x3dffa90c	0.12483415
26	0xbe88724d	-0.26649705
27	0xbc6feb80	-0.01464355
28	0x3e8480d7	0.25879547
29	0xbe529e08	-0.20568097
30	0xbe277b5a	-0.16355649
31	0xbdd7a4fc	-0.10529515
32	0xbe4f47a6	-0.20242175
33	0xbdb628b1	-0.0889448
34	0x3e3eb696	0.18624339
35	0x3e2c5690	0.16829896
36	0x3e68fbe0	0.22752333
37	0x3e6a37ea	0.22872892
38	0x3dab6bac	0.08370146
39	0xbe64189f	-0.22275017
40	0x3da4ae81	0.080410965
41	0xbe4f16e0	-0.2022357
42	0x3e7859bd	0.24252982
43	0x3d875270	0.066075206
44	0xbc7f6a2f	-0.015589281
45	0xbe7d7b73	-0.24754123
46	0x3de8b4b6	0.11362593
47	0xbe80b6a4	-0.25139344
48	0xbe39a7d4	-0.18130428
49	0xbe98f4fb	-0.29874405
50	0xbcac23d0	-0.02101317
51	0x3d87301c	0.06600973
52	0x3d87762c	0.06614336
53	0xbe3e8434	-0.18605119
54	0xbd8bd636	-0.06827967
55	0xbe25d24e	-0.16193506
56	0x3e282834	0.16421586
57	0x3c182a80	0.009287477
58	0xbe8ce8e6	-0.27521437
59	0xbe4ca743	-0.1998568
60	0x3e0864ad	0.13319655
61	0xbe631088	-0.22174275
62	0x3e8c7d1f	0.2743921
63	0x3d486739	0.048926566
64	0x3d09ec67	0.033672716
65	0xbe26c037	-0.16284262
66	0x3d1fcc11	0.039012972
67	0x3e0dd705	0.13851555
68	0x3e8dffab	0.27734122
69	0x3db7a3d3	0.08966794
70	0x3cd21340	0.025643945
71	0x3d9a4120	0.07531953
72	0xbd102158	-0.03518805
73	0x3e8e32db	0.27773175
74	0xbe8940b7	-0.26807186
75	0xbe983ca2	-0.2973376
76	0xbe486c5e	-0.19572589
77	0xbd0ed7e8	-0.034873873
78	0x3e5def42	0.21673301
79	0xbe88a03d	-0.26684752
80	0x3e25ced2	0.16192177
81	0xbe9c4245	-0.3051931
82	0xbe0fcdcf	-0.14043353
83	0x3e62bb0d	0.22141667
84	0x3e6496d6	0.22323164
85	0x3e5ddc83	0.2166615
86	0xbe2c73c4	-0.16841036
87	0x3e29b632	0.16573408
88	0xbe28f360	-0.1649909
89	0xbe275114	-0.16339523
90	0x3df84bf9	0.12123866
91	0xbb97e740	-0.0046357214
92	0x3e492cfa	0.19646063
93	0x3d15b8dc	0.03655325
94	0xbe13d48a	-0.14436546
95	0x3dd52b7e	0.10408686
96	0xbe2de758	-0.16982782
97	0x3e7f2bea	0.24919096
98	0x3e835157	0.25647995
99	0xbc61d2ef	-0.013783201

fc2.bias f4 [10]
0	0x3e975855	0.2955958
1	0xbcd260ad	-0.025680864
2	0xb9f63000	-0.0004695654
3	0xbd70854a	-0.058720864
4	0xbcdd0eb9	-0.02698456
5	0x3df75f4c	0.12078723
6	0xbe45fd7e	-0.19334981
7	0xbe8b09d1	-0.27155927
8	0xbdf250f6	-0.11831848
9	0xbe358c63	-0.17729335

fc3.weight f4 [3, 10]
0	0x3d67c227	0.056581642
1	0x3d2c9124	0.042130604
2	0x3e887f27	0.2665951
3	0xbe8e50e7	-0.277961
4	0xbd377539	-0.044789527
5	0xbe91ef1c	-0.28502738
6	0xbd65e0b3	-0.056122493
7	0x3df804b0	0.12110269
8	0x3e1a066f	0.15041517
9	0x3d814eb4	0.063138396
10	0x3e1e11de	0.15436503
11	0xbeb0f78f	-0.34563872
12	0xbe78ecce	-0.24309084
13	0x3e5bd5aa	0.21468225
14	0xbe5d1946	-0.21591672
15	0xbd5713c0	-0.05250907
16	0xbe1cc92d	-0.15311117
17	0xbc45a960	-0.012064308
18	0x3e447a99	0.19187392
19	0x3e13224d	0.14368553
20	0x3e68a738	0.22720039
21	0x3e100438	0.1406411
22	0xbdbe04d2	-0.09278263
23	0xbd9c0664	-0.076184064
24	0xbdebc017	-0.115112476
25	0x3e3ebdd2	0.18627098
26	0xbe66c24d	-0.22535057
27	0xbd744220	-0.059633374
28	0x3e70fc9c	0.23533863
29	0x3deb3687	0.1148501

fc3.bias f4 [3]
0	0xbd0396cc	-0.032126233
1	0xbdb3833b	-0.087652646
2	0xbe042125	-0.12903269
