raising_checkpoint.pth (torch, 4150 bytes, 6 tensors)

fc1.weight f4 [10, 23]
000000 58 89 7a 3e 6c a5 9f 3e 1a 37 06 3e ed e0 92 3d
       0.24466455 0.31180894 0.13106957 0.071718074
000010 33 60 8e 3c 27 f2 64 3e 32 4c 2b bd b2 06 e4 3d
       0.017379856 0.22357999 -0.041820712 0.111340895
000020 0a 16 2b be 74 59 d9 3d 61 ce 61 3e 59 50 e6 bd
       -0.16707626 0.10612765 0.22051384 -0.11245794
000030 2b 53 d8 3d 8c 05 30 3e 1d e3 82 3d 37 53 cb 3d
       0.10562738 0.17189616 0.06390975 0.09927981
000040 ad e8 96 3d e5 58 94 3c 99 8e 73 bd 98 58 aa bd
       0.07368598 0.018108794 -0.059462164 -0.08317679
000050 4d 3b fe 3d 26 71 ec 3d df 49 38 3e 5e c2 99 3d
       0.124136545 0.11545019 0.1799693 0.07507776
000060 f8 23 a1 3d 27 1e 3e 3e b5 7d 84 bd 03 42 08 3e
       0.078681886 0.1856619 -0.06469289 0.13306431
000070 a4 34 a5 3d 26 1a 60 3e 82 69 46 3d 2a 31 8e 3d
       0.08066681 0.21884975 0.048440464 0.06942971
000080 e5 c3 49 3e 0f 8c d0 3d 23 07 b1 bb 3d 8d aa 3d
       0.19703634 0.10182964 -0.005402462 0.0832772
000090 e6 ef 25 3e b4 e1 ad bd 97 fe ec 3d 28 3c 1b be
       0.16204795 -0.08490315 0.11571997 -0.15159667
0000a0 af 00 00 be eb 03 46 3e 99 d1 a4 3d 40 df 0a be
       -0.12500261 0.19337432 0.0804779 -0.13561726
0000b0 40 24 63 3e ff d0 f9 3d f4 77 46 be d2 2a dd 3d
       0.22181797 0.12198066 -0.19381696 0.10799183
0000c0 74 80 7c bd 59 04 bc 3d 05 d7 42 3e b6 12 43 be
       -0.06164594 0.09180517 0.19027336 -0.19050106
0000d0 42 71 eb 3c 69 7b 9c bd a0 44 4d 3c 05 2a ca bd
       0.028740529 -0.07640726 0.0125285685 -0.09871296
0000e0 74 08 56 3c 0d ea 23 3e 68 e3 8d 3c c1 a1 01 3e
       0.013063539 0.16007252 0.01732035 0.1265936
0000f0 c5 c1 40 3e eb bb 01 be c9 c2 f0 bd 14 40 2c 3e
       0.18823917 -0.12669341 -0.11755902 0.16821319
000100 85 71 51 bc 2a 66 a5 3d 96 d5 29 be 53 1e b5 3d
       -0.012783413 0.08076127 -0.16585383 0.088436745
000110 4e c9 be 3b 41 5e 86 3e a2 9d ff bc 21 18 fa bd
       0.005822337 0.26243785 -0.031203095 -0.122116335
000120 87 0f d8 bd 23 23 66 3e d7 50 df 3d 98 dc 86 bd
       -0.105498366 0.22474341 0.10904091 -0.06585044
000130 0a ff f1 bc 2c 5f 8f bd 03 76 7f 3e b9 59 04 3e
       -0.029540557 -0.070005745 0.24947362 0.12924851
000140 50 db 57 3e f8 40 1d be c3 90 05 bd 4c 85 a5 3d
       0.21079755 -0.15356815 -0.03260876 0.08082065
000150 3c 79 16 3c 0c cf d4 3d e1 d4 3e 3e df a8 95 3d
       0.009184178 0.103910536 0.18635894 0.073076
000160 96 c0 24 be 02 13 b4 3d 6a 0e 2b 3e 51 a0 c2 bd
       -0.1608909 0.08792688 0.16704717 -0.09503234
000170 55 15 98 bd 45 6c ec 3d 18 d9 ec bd c6 4a ca bd
       -0.07425944 0.11544088 -0.11564845 -0.09877543
000180 9f 49 83 3c bd a1 0d be b5 0d f9 bc da ca b4 3d
       0.016026316 -0.1383123 -0.030402044 0.08827753
000190 48 00 c1 3c 5e 22 21 3e 02 a9 4c 3e 14 eb 0e 3e
       0.023559704 0.15735766 0.19986346 0.13956863
0001a0 94 78 0b be 68 a1 90 3a 53 ed 7d 3d d5 c4 03 3e
       -0.13620216 0.0011034431 0.061993908 0.12868054
0001b0 f3 12 f3 bd ad 7a 01 be 33 17 0b be 82 f6 6a 3d
       -0.11868849 -0.12644453 -0.13583069 0.057363994
0001c0 01 0b 8f 3d 5b e0 d8 3d 7a 4c 4e bd d0 e4 10 be
       0.06984521 0.105896674 -0.050365902 -0.14149785
0001d0 a7 13 30 be a3 4f 04 be a2 11 84 bd b9 de ee 3d
       -0.17194997 -0.12921004 -0.06448676 0.11663575
0001e0 d4 a7 94 bd 5d 6c 0c 3e 13 6b f1 3c aa 00 f1 bd
       -0.07258573 0.13713212 0.029470002 -0.11767705
0001f0 21 63 20 3e 09 e3 18 3e ca 2d b4 bd 1a b7 29 be
       0.15662815 0.14930357 -0.08797796 -0.16573754
000200 f1 10 ff 3d 78 d7 99 bd 9b 8d 69 be de ee 1a 3e
       0.12454403 -0.075118005 -0.22807924 0.15130183
000210 74 ad 15 3e fd d4 23 bd 4e 10 62 be 11 42 d8 3d
       0.14616948 -0.039998043 -0.22076532 0.10559476
000220 2a ba 0f bd 9e 8f 45 be de 6a 13 be 23 23 65 be
       -0.03508965 -0.19293067 -0.14396235 -0.22376685
000230 af 38 d7 bd b6 77 01 3c 9d f4 b8 3d 07 d5 41 be
       -0.105088584 0.0079020765 0.09031031 -0.1892892
000240 d5 80 0c 3d b3 4d 2e be c7 27 3d be 4b 5c 23 3e
       0.03430255 -0.17021827 -0.18472205 0.15953176
000250 e1 c0 bc bd e5 37 30 be 25 46 98 bd d3 56 8c bd
       -0.09216476 -0.17208822 -0.07435254 -0.06852498
000260 f8 23 5c be 1d 5c 1f bd 27 0a 0f 3c 00 e5 73 be
       -0.21498096 -0.038906205 0.008730448 -0.23817825
000270 b2 8c 4f bd 65 aa 1f 3d 8c 00 87 3d 85 ac bc bd
       -0.050671287 0.03898086 0.06591901 -0.09212593
000280 09 3e 63 3c be 5c e0 3d 9e a5 96 3d dd 4c cd bd
       0.013869771 0.10955189 0.07355808 -0.10024426
000290 e7 94 18 3e f6 bb a6 3d 18 cf df bd 15 67 41 be
       0.14900552 0.081413195 -0.10928172 -0.18886979
0002a0 0c 6b 50 3d a4 35 2a 3d 75 9c da bd 2b ab 3c 3e
       0.050883338 0.041555062 -0.10674373 0.1842467
0002b0 a8 61 02 be 63 ac 10 3e 56 f1 fb 3d 06 f5 17 be
       -0.12732565 0.1412826 0.123018906 -0.14839563
0002c0 c6 0f ea 3d 84 92 55 3d c6 2c c0 3d 89 46 d9 bd
       0.1142879 0.05214168 0.0938354 -0.10609157
0002d0 4e 42 e1 3d ac 36 35 bd d0 c8 e1 3c 35 8f 2b be
       0.10998975 -0.044241592 0.027561575 -0.16753848
0002e0 63 17 72 be d6 a3 08 3e c9 f2 13 3e b7 a1 2e be
       -0.23641734 0.13343748 0.14448084 -0.17053877
0002f0 2c 72 37 be 0a a4 ed 3c d7 82 2a bd 55 36 58 3e
       -0.17914647 0.029008884 -0.041628685 0.21114476
000300 9b 7b 10 3e b0 e0 f7 bd ab a4 86 3d 96 b8 21 3d
       0.14109652 -0.121034026 0.06574377 0.039482675
000310 da d0 ee bb 37 b2 a5 3d ab 3a 14 3d 49 dc 58 bd
       -0.0072880806 0.080906324 0.036188763 -0.052944455
000320 26 24 0d 3e d2 a2 51 3e 7e 71 37 3e f9 3e 81 bd
       0.13783321 0.20472267 0.17914388 -0.06310839
000330 47 bc 29 3d 6c 25 35 3e 88 6c 13 be 89 04 1a bd
       0.04143932 0.17690057 -0.1439687 -0.03760198
000340 86 7f 04 3e d9 f7 ac bd ce 9e 98 3c 72 17 b6 3d
       0.12939271 -0.08445711 0.018630411 0.088911906
000350 b6 f6 8d bd ee b7 fd 3d e3 1c f3 3d 04 ea 3b be
       -0.06931822 0.123885974 0.11870744 -0.18350989
000360 10 76 b4 bd 06 f4 09 be 46 77 b0 bd 23 a5 3d be
       -0.08811581 -0.13471994 -0.086164996 -0.18520026
000370 7b 9e 1f 3d 1f 3a 42 bd 8b b9 13 be 92 8d b6 bd
       0.038969498 -0.04741871 -0.14426248 -0.08913721
000380 4b 9e 7f 3e 3d 15 d3 3c 25 c9 2e be a8 6f 00 3b
       0.24962728 0.025766963 -0.17068918 0.0019597802
000390 d7 02 98 bd 8f e0 ae bc
       -0.07422417 -0.021347312

fc1.bias f4 [10]
000000 a4 53 4c 3a 39 cf c5 bd 70 de 81 3d 38 68 f4 3d
       0.0007794446 -0.09658665 0.06341255 0.11933941
000010 e8 d9 e3 3d ce fe bb 3d 60 c1 90 3d 0e f3 b6 3d
       0.11125547 0.091794595 0.07068133 0.08933078
000020 15 12 54 be 2e 42 6a 3e
       -0.20710023 0.22876808

fc2.weight f4 [10, 10]
000000 f2 01 68 3e 38 82 03 3e d7 17 e6 3d 3d 4f 15 be
       0.22656992 0.12842643 0.11235016 -0.14581008
000010 ba 89 b3 3d 2d 46 7c 3e 71 83 72 bb b0 04 63 3d
       0.08766504 0.24636145 -0.0037004615 0.055424392
000020 4d b0 0e be ac dd bb be c8 9f d2 bd 1c 0c 00 be
       -0.13934441 -0.3669256 -0.10284382 -0.1250462
000030 8f 97 4c be 25 df 96 be d8 58 fc bd 59 71 5b be
       -0.1997969 -0.2946712 -0.12321633 -0.21429957
000040 ea 68 99 be 1a 53 1e be 22 15 8b bd 10 32 a1 be
       -0.29962856 -0.15461388 -0.0679114 -0.31483507
000050 48 c0 bd 3d 8c f7 c1 3d c4 8f d8 3d b8 cf 96 be
       0.0926519 0.09471044 0.10574296 -0.29455352
000060 5e 71 95 be fe 4b a1 be 00 5a 68 3a ec 1c 93 be
       -0.29188055 -0.3150329 0.00088635087 -0.28733003
000070 16 b3 26 3e fe 12 60 3e 21 95 6f bd 63 d5 10 3d
       0.16279253 0.21882245 -0.05849183 0.03535975
000080 92 14 59 3e 6b eb c0 3d 00 a6 a7 3d fe 1b 85 be
       0.21199253 0.094199024 0.08185959 -0.2599792
000090 e0 19 41 3e 9e 46 66 be e2 48 a3 be 0a 7e 01 3d
       0.18857527 -0.22487876 -0.31891543 0.03161434
0000a0 7c 09 8a 3d c4 b7 16 be 96 ac c3 3d 26 c7 39 be
       0.0674009 -0.14718539 0.095544025 -0.18142375
0000b0 d8 c5 ab be 67 21 c2 3d 60 52 34 3e 63 e1 9f 3e
       -0.3354938 0.09479027 0.17609549 0.31226644
0000c0 c1 99 a7 be 84 e6 ee bd cb 20 3b bc 1d b9 bd ba
       -0.32734492 -0.11665061 -0.011421393 -0.0014474724
0000d0 2b bf 52 3e 13 ac 94 be 94 14 6d 3d b7 a0 0e 3e
       0.20580737 -0.29037532 0.057880953 0.13928495
0000e0 02 58 03 be 50 6b 43 3d c0 6a 4b bd 9e 3e 62 be
       -0.12826541 0.047709763 -0.04966235 -0.22094199
0000f0 38 a9 b5 bc 93 04 4e bc 34 e9 5a 3e 10 09 6a 3c
       -0.022175416 -0.012574333 0.21378022 0.014284387
000100 d0 c9 0c bc e9 b0 c5 bc 7a d6 bd 39 fc e6 91 bd
       -0.008593038 -0.024132209 0.00036208687 -0.07124135
000110 c0 7d 5f 3c 30 39 13 3d 48 ec 0d be fd 58 40 bd
       0.013640821 0.03594321 -0.13859665 -0.046959866
000120 69 bc 1a be cb d7 57 3e 15 d1 06 be b4 8c 0d be
       -0.15110935 0.21078412 -0.13165696 -0.13823205
000130 0d 76 8a 3e 31 51 95 3e be 10 8b 3d b3 f3 ab bd
       0.2704319 0.29163507 0.06790303 -0.08396091
000140 96 c3 76 be a3 9e 38 be 3e 03 86 3e 91 2f 59 be
       -0.24098048 -0.18029265 0.2617435 -0.21209551
000150 0c 7c 69 3d 9e 5b c5 3d 3b 60 fd 3d c1 30 9f 3e
       0.057003066 0.09636615 0.1237187 0.31091884
000160 1c c4 74 bc f1 ad 87 3d d9 62 4b bc 60 09 5d be
       -0.014939334 0.066249736 -0.012413704 -0.21585608
000170 dd 19 47 be f4 ec e3 bd 18 a6 01 be 14 97 68 3e
       -0.1944346 -0.111291796 -0.12661016 0.22713882
000180 4e fd 37 be 7c 42 47 be 00 51 7f bd cb fa ac be
       -0.17967722 -0.19458956 -0.062333107 -0.3378509

fc2.bias f4 [10]
000000 a4 e7 75 bd b4 c3 76 be cb b0 21 be ef 45 95 bd
       -0.060035363 -0.24098092 -0.15790097 -0.072887294
000010 f2 f3 87 be dc 3c e8 3c 7e e2 d8 3f 8e 8c de bd
       -0.26553303 0.028349333 1.694412 -0.108666524
000020 b7 f6 2a bd 4e 78 ae be
       -0.04173919 -0.3407616

fc3.weight f4 [3, 10]
000000 47 52 f1 3d d8 29 1c bd 62 db cb bd 7a 49 9d 3d
       0.11783271 -0.038125843 -0.09953953 0.0768003
000010 4e db 2f 3d ab 4e c2 bd 3b 04 9a 3f 22 39 d7 bd
       0.042933755 -0.09487661 1.2032541 -0.10508944
000020 51 4b 4f 3e cc 35 89 be d3 be 95 bb de 54 5d 3e
       0.20243575 -0.26798856 -0.004569867 0.21614406
000030 42 c6 7b 3e 54 7d b4 bc e6 69 42 3e 62 a0 6f be
       0.24587348 -0.022032417 0.1898571 -0.23401025
000040 26 20 3f bd 7f 1d 82 3d cf 64 89 3e f4 17 c8 bd
       -0.04666152 0.06353282 0.26834723 -0.09770194
000050 f2 b1 e1 3b 1f 0a 82 be 06 33 44 3e b4 ca 75 bd
       0.006887668 -0.25398347 0.19160089 -0.060007766
000060 05 f5 84 be 1e dc 85 be 40 0a 90 3d f8 d0 d4 bd
       -0.25968185 -0.261445 0.07033205 -0.1039142
000070 24 41 37 be 6a ed 2c be
       -0.17895943 -0.16887441

fc3.bias f4 [3]
000000 6d 51 02 bd ff 5c a1 3d 5b 38 f3 bd
       -0.031815935 0.07879066 -0.11875983
