smart_bc_checkpoint.pth (torch, 3712 bytes, 6 tensors)

fc1.weight f4 [10, 11]
0	0xc07315b6	-3.7982001
1	0x3d98262f	0.07429158
2	0x3f623f4d	0.8837784
3	0xbf763818	-0.9617934
4	0x3edc7bb6	0.43063134
5	0x3ed5a58f	0.41727874
6	0xbeaaedbc	-0.33384502
7	0x3e4df4ee	0.20112965
8	0xbe6ddfc6	-0.23229894
9	0x3d7b6463	0.061375033
10	0xc00a9b42	-2.1657262
11	0xbdb6e9a2	-0.08931281
12	0xbe858d9a	-0.26084596
13	0x3e88d808	0.2672732
14	0xbe1f4910	-0.15555215
15	0xbdb08d4e	-0.08620702
16	0xbe9a1d9f	-0.30100724
17	0x3de3eee8	0.11129552
18	0x3da4bb74	0.08043566
19	0xbc2fed60	-0.010737747
20	0xbe8b7d4a	-0.27244025
21	0x3e86d18e	0.26331753
22	0xbcb50da2	-0.022101227
23	0xbe4677d2	-0.19381645
24	0xbe68a182	-0.2271786
25	0xbe27e337	-0.1639527
26	0xbd2ce0a7	-0.042206433
27	0xbc7dbb8d	-0.01548661
28	0x3d26a67b	0.040686112
29	0xbd8fa6e7	-0.07014256
30	0x3dc8924f	0.09793531
31	0x3e4bdc13	0.1990817
32	0xbe3d4907	-0.18484889
33	0xbe169ce7	-0.14708291
34	0xbe91a786	-0.28448123
35	0x3dd47908	0.103746474
36	0x3e5201d8	0.20508516
37	0xbe38f186	-0.18060884
38	0xbe4a0dd4	-0.19731838
39	0x3deae950	0.11470282
40	0x3d05c3a0	0.032657266
41	0xbe7bf35b	-0.24604551
42	0x3e82a204	0.25514233
43	0x3d887d64	0.06664541
44	0x40440a98	3.0631466
45	0x40939168	4.6115
46	0x3d8a9569	0.06766779
47	0x3f658ade	0.8966502
48	0x3fa23cd5	1.2674814
49	0xbe1bd861	-0.15219261
50	0x3eeebba5	0.46627536
51	0x3eaa3fdf	0.33251855
52	0x3d8a100e	0.067413434
53	0x3e23a150	0.15979505
54	0xc02ebfa8	-2.7304478
55	0xbd3c8340	-0.046023607
56	0x3de9ef6c	0.11422619
57	0x3deebc10	0.11656964
58	0x3e2d7e82	0.1694279
59	0xbd89e606	-0.067333266
60	0xbd879e26	-0.06621961
61	0x3c05ce40	0.00816685
62	0xbe80e892	-0.25177437
63	0x3d4e3620	0.050344586
64	0xbe4e5aa5	-0.20151766
65	0xbe2a5fc6	-0.16638097
66	0xc03f9f8e	-2.9941134
67	0x3fcb0e9b	1.5863832
68	0x3fa234e4	1.2672391
69	0x3f320b99	0.69548947
70	0xbe27726d	-0.16352244
71	0x3e6e5155	0.23273213
72	0x3fada12a	1.3564808
73	0x3e7bdfd2	0.245971
74	0xbee741b9	-0.4516733
75	0x3eae927b	0.3409613
76	0xbfdc2427	-1.7198533
77	0xc08802a8	-4.2503242
78	0xc02159bd	-2.5211022
79	0xbecf0ae8	-0.40438008
80	0xbfc1ba04	-1.5134892
81	0x3f4bd0b7	0.7961535
82	0x3d172d3e	0.03690838
83	0x3ddd64e1	0.10810257
84	0x3e80e5b0	0.25175238
85	0x3d920f36	0.071318075
86	0x3df932b2	0.121678725
87	0xc002a682	-2.0414128
88	0xbe4b2008	-0.19836438
89	0xbe4f4512	-0.20241192
90	0xbe8df42c	-0.2772535
91	0xbe46ccec	-0.19414109
92	0x3dacdd88	0.08440691
93	0xbee2d18a	-0.4430049
94	0x3f1b5ce9	0.60688645
95	0xbd5cba8b	-0.05388884
96	0x3ecdf2e9	0.40224388
97	0xbde0bacf	-0.10973131
98	0x3edb385b	0.42816433
99	0x40a38cb7	5.110927
100	0x3f829999	1.0203124
101	0x3d8de414	0.06928268
102	0x3fb63228	1.4234056
103	0xbf4cf61b	-0.8006303
104	0x3e679270	0.22614455
105	0x3f6440d4	0.8916142
106	0x3dbbd627	0.09171706
107	0x3a8a245e	0.0010539403
108	0x3ba08b77	0.004899438
109	0xbf8bb612	-1.0914938

fc1.bias f4 [10]
0	0xc086ee67	-4.216602
1	0xbe807851	-0.25091794
2	0x3e33f05f	0.17572163
3	0x3dacd064	0.08438185
4	0x403471f2	2.8194547
5	0x3df66584	0.12031081
6	0xc04f0176	-3.2344642
7	0xc0808fba	-4.0175447
8	0x3e1ec712	0.15505627
9	0x40a3f685	5.1238427

fc2.weight f4 [10, 10]
0	0x3f683801	0.90710455
1	0x3e0c0b3a	0.13676158
2	0x3e01dfbf	0.12683009
3	0xbea0fcef	-0.31442973
4	0xbf8e7819	-1.1130401
5	0xbcce2c90	-0.025167733
6	0x3ef6ef67	0.48229524
7	0x3f985651	1.1901342
8	0xbf049406	-0.51788366
9	0xbfff453e	-1.9943006
10	0xbe6d6366	-0.23182449
11	0x3e228878	0.15872371
12	0x3e3ed81a	0.18637124
13	0x3e7bc3b6	0.24586377
14	0xbe2b82f6	-0.16749176
15	0xbd9e2468	-0.07721788
16	0x3da6b480	0.081398964
17	0xbe88fc36	-0.26754922
18	0xbe046a20	-0.12931108
19	0xbe68aa6b	-0.2272126
20	0xbe9b4a8b	-0.3033031
21	0xbe93f343	-0.2889653
22	0xbea6a4a8	-0.32547498
23	0x3e929d63	0.28635702
24	0xbe56e784	-0.20986754
25	0xbe81e903	-0.25373086
26	0x3e332e62	0.17498162
27	0xbf038635	-0.5137666
28	0x3f6abc0d	0.9169319
29	0x3eb444b8	0.35208678
30	0x3e085987	0.13315402
31	0x3d0c9300	0.034319878
32	0x3c60ac21	0.013712914
33	0xbe1da66c	-0.15395516
34	0x3f3f44c3	0.747143
35	0x3e9a2205	0.3010408
36	0xbfd1e16d	-1.639692
37	0x3f381501	0.7190705
38	0xbf147a41	-0.57999045
39	0xbf788a22	-0.97085774
40	0x3e35ca6b	0.17752998
41	0x3d517b90	0.05114323
42	0x3e73ece4	0.23820835
43	0x3e6c8656	0.2309812
44	0xc076ce9f	-3.8563612
45	0xbdd6258a	-0.10456379
46	0x3e875f40	0.26439857
47	0x407bee0c	3.9364042
48	0xbdefe41c	-0.1171343
49	0xbf38820f	-0.72073454
50	0xbf699725	-0.91246253
51	0xbe3376e0	-0.17525816
52	0x3e70eb61	0.2352729
53	0x3e838a9d	0.2569169
54	0x3f4935da	0.78597796
55	0xbd334cb0	-0.043774307
56	0xbf13dd0c	-0.57759166
57	0x3ecf6117	0.4050376
58	0xbec5b817	-0.38617012
59	0xbe747000	-0.2387085
60	0x3efe47fd	0.49664298
61	0xbe824f3a	-0.2545107
62	0xbe938844	-0.288149
63	0x3d78bac8	0.060725003
64	0x3f2ebb77	0.682548
65	0x3e6585ee	0.22414371
66	0xbf0ead07	-0.5573277
67	0x3ec68026	0.38769644
68	0x3ea9be59	0.33153036
69	0xc054cdc8	-3.32506
70	0xbe1c0987	-0.1523801
71	0xbe9de671	-0.30839875
72	0x3e6d702e	0.23187324
73	0xbde9c078	-0.114136636
74	0x3b4fc600	0.003170371
75	0x3e6292de	0.22126338
76	0xbe72a84c	-0.23697013
77	0xbe93137c	-0.28725803
78	0xbe8d29f0	-0.27571058
79	0xbe86538a	-0.2623561
80	0x3f033627	0.51254505
81	0x3e5f24d6	0.21791396
82	0x3e36f096	0.17865214
83	0x3e7756c2	0.24154189
84	0xbf547bc0	-0.8300133
85	0x3e8f5d2b	0.2800077
86	0xbf12b3ea	-0.5730578
87	0x3f8371d9	1.0269119
88	0xbeddb72f	-0.4330382
89	0xbec481a4	-0.38380158
90	0xbf881a46	-1.0633018
91	0x3e6bf046	0.23040876
92	0xbd180778	-0.037116498
93	0x3e8fe9d9	0.281081
94	0x3eb23aa6	0.3481037
95	0xbe46e9df	-0.19425152
96	0xbc0cd33f	-0.008595287
97	0x3ebf5757	0.37371323
98	0xbf630765	-0.8868316
99	0x3cc283a3	0.02374441

fc2.bias f4 [10]
0	0xc06a2f4f	-3.6591375
1	0x3e84d05f	0.25940225
2	0xbfb465a4	-1.4093518
3	0x3f4fa29d	0.81107503
4	0xc0056837	-2.0844858
5	0x4036fe7a	2.859282
6	0x3fe04cd1	1.7523443
7	0x3d6975d0	0.05699712
8	0xc029d07c	-2.6533499
9	0x400a9e80	2.165924

fc3.weight f4 [3, 10]
0	0x3e137c02	0.14402774
1	0xbe9a443c	-0.30130184
2	0xbb2d9ea9	-0.0026492274
3	0x3d45dfcf	0.048309144
4	0xbc22f1aa	-0.0099453125
5	0x3db859cf	0.09001505
6	0xbdb181bd	-0.08667324
7	0xbe01c614	-0.12673217
8	0x3d926f6e	0.0715016
9	0x3d76dc3a	0.06026862
10	0x4083ea4f	4.122352
11	0xbe37c447	-0.17945968
12	0xbf198bd2	-0.59978974
13	0x3fd1f40d	1.6402603
14	0x40b1b28d	5.5530457
15	0x4002f26a	2.0460458
16	0xc0051200	-2.0792236
17	0x3a703400	0.0009163022
18	0x4019c151	2.402424
19	0x400f59b7	2.2398508
20	0x3c95c8b0	0.018284172
21	0xbd2fc890	-0.04291588
22	0x3a9049f3	0.0011008367
23	0x3bbc8567	0.0057532075
24	0x3c9211f9	0.017830836
25	0x3ce60936	0.028080564
26	0xbc65ff81	-0.014037968
27	0xbd6a28d8	-0.057167858
28	0xbccef22f	-0.025261967
29	0xbcc4f8b6	-0.024044376

fc3.bias f4 [3]
0	0x3f821365	1.0162169
1	0x407956f5	3.8959324
2	0xbba979d2	-0.005171993
