ai_models/calling_checkpoint.pth (torch, 4150 bytes, 6 tensors)

fc1.weight f4 [10, 23]
000000 3b 6b 83 3d 0e 19 cd bd 03 2e ea bd 69 ed fb bc
       0.06416937 -0.100145444 -0.11434557 -0.030752854
000010 67 4a c1 3d a2 c5 39 be 04 03 3c 3d a2 a1 12 3e
       0.09438019 -0.18141797 0.045901313 0.1431947
000020 00 f4 52 bb dd d1 e5 ba ca cd 70 bc e5 51 9a 3d
       -0.0032188892 -0.0017533858 -0.014697501 0.075351514
000030 6c 6e 69 3d 21 d5 21 3d 1a 1c bf 3b 83 90 94 bd
       0.056990072 0.039509896 0.0058322074 -0.07254126
000040 2a 25 a4 bd 9c ef be 3d 1c 99 b4 bd c2 91 41 3e
       -0.08014901 0.093230456 -0.08818266 0.18903258
000050 87 8f cf 3c 7f bb a5 bd b6 00 15 3e 14 5e 4c 3e
       0.025336994 -0.08092403 0.14551052 0.19957763
000060 1b c6 99 3d 1f 39 d9 3c bc 51 cd 3c 30 f0 e7 3b
       0.07508489 0.026516495 0.025063388 0.007078193
000070 b3 fc a7 3d 17 27 95 3a 23 c5 80 bd 00 a1 a7 bc
       0.082024954 0.0011379448 -0.06287601 -0.020462513
000080 6b ac f9 3d fa aa f9 3d 20 e0 00 be 86 0e 46 bb
       0.12191089 0.12190814 -0.12585497 -0.003022106
000090 a2 9e e7 bd 3f de 8f 3d 9d fc 6e bc d2 54 82 3d
       -0.11309554 0.07024812 -0.014586595 0.063638344
0000a0 12 7b 89 bd 43 cf 9f 3a dc f0 2c be 35 e7 15 3e
       -0.06712927 0.0012192506 -0.16888756 0.1463898
0000b0 6b 6a d0 bd dc e5 bc bd 43 8e a0 bb f4 9c 97 3d
       -0.101765476 -0.0922353 -0.0048997714 0.07402983
0000c0 6d 33 bb 3d 0b ca 3a bd 67 ac a0 bd b8 2a 17 3e
       0.09140668 -0.04560284 -0.07845383 0.1476239
0000d0 6c 73 b3 3c 17 70 82 bc 86 6d 9b 3d e3 93 9d 3d
       0.021905623 -0.01592259 0.07589249 0.07694223
0000e0 d4 85 c9 3d f0 05 06 3e 27 33 ce 3c 8d b0 ab bd
       0.09839979 0.13088202 0.025170876 -0.08383284
0000f0 00 d0 35 be 32 0d e1 bb 0d 83 49 be b5 cf 33 be
       -0.17755127 -0.006868028 -0.19678898 -0.17559703
000100 f9 d9 60 be bb 82 ff bd 49 91 9f bd ba 2d 55 be
       -0.2195815 -0.12476107 -0.07791383 -0.20818225
000110 25 71 55 be 04 de 66 be af 4c 83 3d 75 6c c0 3c
       -0.20843942 -0.2254563 0.064111106 0.023489216
000120 7c a7 91 3d 7a 76 10 3e 57 cd c0 bc 0f 49 51 bd
       0.07112023 0.14107695 -0.023535414 -0.051095065
000130 17 c2 0e 3e d6 90 cc 3d 07 21 bf 3d 1d 6e 02 3e
       0.13941227 0.09988563 0.09332471 0.12737317
000140 28 2c 20 bd ea bb 58 bd c0 be d9 bd a2 10 5b 3e
       -0.03910461 -0.052913584 -0.10632086 0.21393064
000150 d9 a7 76 be 74 25 ca 3c 28 57 ad bd ee cc d3 bd
       -0.24087466 0.024676062 -0.08463889 -0.103418216
000160 6d 6c 04 bd ac 41 14 3e a8 d5 43 be f6 b7 88 3d
       -0.032329965 0.14478177 -0.19124472 0.06675713
000170 54 b0 68 be 32 8b 2f be c7 eb 7d 3d 9f 06 0e be
       -0.22723514 -0.17142943 0.061992433 -0.13869713
000180 83 66 1d 3d c2 b4 bc 3d 8b a4 92 3d 0e 0e d1 bd
       0.03842784 0.09214164 0.0716029 -0.10207759
000190 1e f9 46 be de 63 e5 bd c7 30 6e bd 26 fb e3 3d
       -0.19430968 -0.11200689 -0.058151986 0.11131887
0001a0 85 de e4 3d f4 35 37 be c8 84 7e be fc 6c 77 3d
       0.11175255 -0.17891675 -0.2485534 0.06040667
0001b0 4c b0 e0 3d ae 57 ac 3c 07 52 ec 3d 9c 78 42 be
       0.10971126 0.021037903 0.11539083 -0.18991321
0001c0 c0 76 52 be b2 36 56 bc 8a 25 62 bd bb d1 0a 3e
       -0.20553112 -0.013074564 -0.05521158 0.13556568
0001d0 2d 78 35 3e b8 71 3d be 98 bf d4 bc f6 5f 14 be
       0.17721625 -0.18500412 -0.025970265 -0.14489731
0001e0 e4 a5 3c 3d 16 cb 87 3d 49 85 13 3e c4 99 26 3d
       0.046056643 0.066305324 0.14406313 0.040673986
0001f0 7e d8 c4 3d 68 82 06 bd 32 1e a9 bd 74 6c ee bd
       0.09611605 -0.03283921 -0.082577124 -0.116417795
000200 04 95 46 3d 2b 0e e0 bd 8f 0e 4c 3e c5 6b 18 be
       0.048481956 -0.10940202 0.19927429 -0.14884861
000210 7d 1f 47 3e ee 23 f3 3d 5c 92 51 3d da b4 4c be
       0.19445606 0.118720874 0.05116497 -0.19990864
000220 b8 67 f8 3c 9e bb d3 3d 3a 10 56 3e d3 9c 9d bd
       0.030322894 0.103385195 0.20904627 -0.076959275
000230 b4 05 19 be 36 e1 3a bd 9e c5 b3 3d bd e2 19 be
       -0.14943582 -0.045624934 0.08777927 -0.150279
000240 3a a5 c6 3d a8 e2 81 3d a0 96 19 bd 92 13 03 3e
       0.09699483 0.063420594 -0.037497163 0.12800434
000250 39 ab bb 3d 4b bd 3d bd 62 27 df 3d ab 44 50 bd
       0.091635175 -0.046323102 0.108961836 -0.050846737
000260 a1 21 ed 3b a3 dc 8a bc b9 55 33 bd 98 b6 b3 3d
       0.007236675 -0.01695091 -0.043782923 0.08775061
000270 37 f7 ac bd b8 85 82 3d 97 99 38 3e 82 aa 37 be
       -0.0844559 0.06373161 0.1802734 -0.17936137
000280 d1 37 73 3d 60 c7 03 be 14 92 c3 bd 5a a2 2d be
       0.059379403 -0.12869024 -0.095493466 -0.16956463
000290 c1 0f af bd 1c 65 2d 3c eb d6 f2 bd ed 69 0f 3e
       -0.08547927 0.010583188 -0.118573986 0.14005251
0002a0 e4 a0 30 bd 5d fc 4c 3e 05 3c 06 3e e9 f1 8d 3d
       -0.043122187 0.20018144 0.13108833 0.06930906
0002b0 1f fe 9c bd e5 71 1c 3e 0b 66 0b bd 9a 8f cb bd
       -0.07665657 0.15277822 -0.034032863 -0.09939499
0002c0 e2 f4 02 3e 9d 56 1e bd 1c 96 fd 3d da d2 e0 bc
       0.12788728 -0.03865682 0.12382147 -0.027444292
0002d0 8d 24 c1 3c db 0f 2a 3e d3 6a f1 bd 4f 09 5b bc
       0.023577 0.16607611 -0.11787953 -0.013368919
0002e0 f5 a6 38 be 22 d9 80 3d 23 5b 8f 3d 13 d0 e1 bd
       -0.18032439 0.06291415 0.06999805 -0.11026015
0002f0 47 9f 16 be 9b d2 1d 3d 57 46 08 bc 33 da 22 3e
       -0.14709197 0.038530927 -0.008317552 0.15903549
000300 60 aa 99 bb ce 71 1b 3e f3 ee f8 ba 83 65 28 bd
       -0.0046894997 0.15180132 -0.0018992111 -0.041112434
000310 df eb e2 bd de 60 6d bb 81 82 33 3e c5 a5 42 be
       -0.11080145 -0.0036221067 0.17530252 -0.19008549
000320 46 f1 28 3e 28 55 dd 3c 29 66 f4 bc de 09 23 3e
       0.16498289 0.027018145 -0.02983387 0.15921733
000330 ad 20 9d bd 6b 0e 0d be 4b fd a4 3d f3 d9 b7 bd
       -0.07672248 -0.13775031 0.08056124 -0.089771174
000340 4e 01 d7 3d a8 60 a7 bd 5b 42 de bd 24 cd 25 3d
       0.10498296 -0.081727326 -0.108525 0.04047884
000350 52 d9 32 be a8 cf 21 bd 02 41 05 be 26 ab 8c 3d
       -0.17465714 -0.039504677 -0.1301308 0.068685815
000360 41 4d 3c be 76 e5 a5 bd ef 75 47 3e 84 93 6d 3d
       -0.18388845 -0.08100407 0.19478582 0.05800201
000370 48 01 35 be 98 86 ae 3c 28 2e 89 bd 3e 17 4f be
       -0.1767627 0.021304414 -0.06698257 -0.2022371
000380 af db 46 3e 92 90 9a 3d 45 a5 4a be 9d 0b 34 be
       0.1941974 0.07547106 -0.19789608 -0.17582555
000390 d4 2d 45 3d 4f 74 13 be
       0.04813941 -0.14399837

fc1.bias f4 [10]
000000 b6 a7 22 3e 24 7d 81 3e 16 d0 4c bd c8 da 1d bf
       0.15884289 0.25290787 -0.050003134 -0.6166196
000010 1e a3 d1 3d 00 96 46 bd 36 cf 94 3c 6e 86 03 be
       0.1023619 -0.048482895 0.018165212 -0.1284425
000020 2b 07 01 be 00 b0 4f 39
       -0.1260039 0.00019806623

fc2.weight f4 [10, 10]
000000 e4 8b d8 bd 6d b3 6e 3e 7e 5b 0d 3e 82 c7 c6 bd
       -0.10573557 0.23310633 0.13804433 -0.09706022
000010 5a 27 0e 3e 42 ca 0a 3e 34 c8 9b 3e 77 ab e0 bd
       0.13882199 0.13553718 0.3042618 -0.10970204
000020 27 03 85 3e 17 a1 9d 3e 6b 2c 49 3e 13 f7 53 3e
       0.25978968 0.30786964 0.1964585 0.2069972
000030 45 9c 3d be a1 a9 9c be 53 60 b0 bd c6 8c 64 3e
       -0.18516643 -0.30598167 -0.086121224 0.22319326
000040 5a e6 29 3e 03 82 0b 3e 02 98 4c 3e 60 9e 9a 3c
       0.16591778 0.13623814 0.19979861 0.018874347
000050 02 30 0d 3d 67 5c 76 be ba bd cf bc 98 6e d6 bd
       0.034469612 -0.24058686 -0.025359023 -0.10470313
000060 07 80 a0 be 6c 78 8e 3d a0 d8 3f 3d 99 5b ee 3c
       -0.31347677 0.069565624 0.04683745 0.029096412
000070 c0 b0 b0 3d aa 6f 07 3e 5e e2 b3 3d ea 75 75 3d
       0.086274624 0.1322619 0.087834105 0.059926905
000080 ee 13 39 be 83 14 13 3e 3a b1 41 be ba f0 84 be
       -0.18074009 0.14363293 -0.18915263 -0.2596491
000090 f6 43 f1 bd 0d 83 8d 3e 00 67 8f bd 1e 5a 7c 3e
       -0.11780541 0.27639046 -0.070020676 0.24643752
0000a0 77 09 8b be 0d f3 82 be 5f 0d 3f 3e 36 e0 9c bd
       -0.2715566 -0.25576058 0.18657444 -0.07659952
0000b0 94 32 4f 3d 50 90 72 3d a7 80 c7 3d 71 74 90 3e
       0.050585344 0.05921966 0.09741335 0.28213838
0000c0 5e ec 61 3d a2 6c 51 3e ce bb 92 3a eb cb 3a bd
       0.055157058 0.20451596 0.0011194886 -0.045604628
0000d0 6e 0d 17 3e 36 91 c5 bd 4b 69 20 3e 2e f4 ad bd
       0.14751217 -0.096468374 0.15665166 -0.08493839
0000e0 4b 6a 8c 3e 69 d2 32 3e b0 15 25 3e 46 a8 55 be
       0.27424845 0.17463078 0.16121554 -0.20864972
0000f0 96 48 99 be d1 c2 03 be a6 be 46 3e 2a 95 84 3e
       -0.2993819 -0.12867285 0.19408664 0.25895053
000100 a7 29 ef bc 5b 38 95 3e cf b0 6e be e3 1d 3d 3e
       -0.029194666 0.29144558 -0.23309635 0.18468432
000110 9b 4c 15 3e 45 06 a1 3e e2 84 54 3e a3 19 55 3e
       0.14580004 0.31450096 0.20753816 0.20810561
000120 26 cb 8c 3d 87 7b 44 be 2b e2 c1 3a 20 83 23 bc
       0.06874685 -0.19187747 0.0014792135 -0.009979993
000130 0b db cb bc d3 7c 5a 3e fd 98 94 3e ea 6f 6a 3e
       -0.024884721 0.21336679 0.2902297 0.22894254
000140 ac 6d 77 3e 9c 3b 43 be fb 48 1b be ed 24 03 be
       0.2416293 -0.19065708 -0.15164559 -0.12807055
000150 0e 97 98 be 80 9f 6d 3d 44 4b b0 3d 94 12 4c 3e
       -0.29802746 0.05801344 0.08608106 0.19928962
000160 1e 7b 00 be 3e 42 20 3e 65 d1 af 3d 53 d2 2e be
       -0.12546965 0.1565027 0.08584861 -0.1707242
000170 f0 b3 a7 3e 98 1f 14 3e 88 3b 21 bc 08 db 82 bd
       0.3275447 0.14465177 -0.0098408535 -0.06389433
000180 f6 c8 24 bd d2 0c 31 3d f0 49 35 be f1 94 71 be
       -0.040230714 0.043225117 -0.17703986 -0.23591973

fc2.bias f4 [10]
000000 ea 11 a3 be 7c cd a8 3d 6f 8e 4c be 56 4b 81 be
       -0.31849605 0.08242318 -0.19976209 -0.2525279
000010 6e a6 09 bf d2 6f 1e 3e 65 fc 56 3d c4 34 73 be
       -0.53769577 0.15472344 0.052486796 -0.23750597
000020 ce 78 73 be 4c 65 74 be
       -0.23776552 -0.23866767

fc3.weight f4 [3, 10]
000000 78 61 10 be 31 bc 24 3e d6 6b 6c 3e f8 5b 81 be
       -0.14099681 0.16087414 0.23088011 -0.2526548
000010 a4 e9 86 be 1c fe 83 3e fb ed 7d 3d 97 d4 cd 3d
       -0.2635013 0.25779808 0.061994534 0.10050314
000020 8a 3f 41 be 54 18 72 3e 03 5a 98 3d 5b 91 92 3e
       -0.18871894 0.23642093 0.074390434 0.28626522
000030 ed e6 9e 3e 75 5a 95 bb 7b 3f bf bd 74 bc 2d be
       0.31035557 -0.0045579025 -0.0933828 -0.1696642
000040 e3 57 ef 3d bb a3 1b be 82 2e 2a 3d 6d ff 86 3e
       0.11686685 -0.15199177 0.04154826 0.2636675
000050 1d 2e 15 3e b3 7d 96 be 76 ac 8a 3e f4 09 23 be
       0.14568372 -0.29392776 0.27084702 -0.15921766
000060 5b 7d c9 3d 69 7d 5e 3e 20 1f dd 3b 64 aa b1 ba
       0.09838363 0.21727528 0.006748095 -0.0013554809
000070 54 49 7d 3d 38 5b 09 3d
       0.06183751 0.03353426

fc3.bias f4 [3]
000000 ab 27 ef 3e db 0a 44 be 8a f3 f0 3d
       0.46709952 -0.19144766 0.117652014
