ai_models/folding_checkpoint.pth (torch, 4150 bytes, 6 tensors)

fc1.weight f4 [10, 23]
0.16577016 0.03709182 0.090992644 0.20212887 -0.022786006 0.14526398 -0.09467859 0.09688087
0.08800556 -0.18632081 0.0057527423 0.08551781 0.08925374 0.104520515 -0.15805832 0.16982768
0.031159759 0.024329439 0.18373798 0.050880924 -0.06194569 0.040042803 0.16026269 -0.12644275
-0.13438776 -0.05990216 -0.06582352 0.0500803 -0.06962342 0.008823827 0.060282804 -0.089216694
-0.09657759 -0.06035346 -0.04816409 0.025022969 -0.092284024 0.11205128 0.091927975 -0.007833222
-0.059323218 0.09343116 0.088582255 0.17038369 0.069127955 0.06959328 -0.15981384 0.07823445
0.13011585 -0.2038622 -0.08099124 0.028343678 0.1202036 0.01472871 -0.04868056 -0.039509803
0.0061799586 -0.056320116 0.16245963 0.16584556 0.07421811 0.08708836 -0.022459492 -0.024552688
-0.002675593 -0.18735301 -0.19885547 -0.023579389 0.086406335 0.031972766 -0.1424909 -0.08336008
-0.017401049 0.03909677 0.09273256 0.09310069 0.078776315 0.13964607 -0.02772948 -0.066346414
0.0067267036 0.036666032 -0.107661925 0.055231646 -0.012411072 0.0013871841 0.080843404 0.096078716
0.12861687 0.12600031 -0.08162605 0.0004421044 0.041163478 -0.027166924 0.0003401446 0.052807234
-0.06313852 -0.16020046 0.18040308 -0.04207099 0.031602725 -0.064571016 0.020199033 0.06460465
0.00801704 -0.01823987 0.1741395 0.085935235 -0.20776765 0.44119164 0.10403211 -0.106903814
0.048351634 -0.14438887 0.0013727385 -0.19783898 -0.040947754 -0.09526671 -0.1599187 -0.18650082
-0.04507805 0.12711468 0.10974459 -0.08005898 -0.08007133 -0.08032405 -0.16352521 -0.021167489
0.09148126 0.0012607087 -0.052277297 -0.036088653 -0.046853773 0.054908343 -0.17440456 -0.1573379
0.100201614 0.11462327 0.12715982 -0.12345172 0.061398227 0.019011736 0.056234226 0.12099473
0.011131788 0.114366814 0.07514523 0.092357494 -0.08752217 -0.012990388 -0.03926965 -0.059081238
-0.044248667 -0.134122 0.1311146 -0.19229463 0.101403356 0.079726465 0.15336823 0.03802088
0.091402054 0.22943962 -0.13484229 -0.08063494 -0.09216112 0.05232505 -0.13019435 -0.0098410975
0.047348052 0.15485911 -0.14423287 -0.054510538 -0.065872826 0.035925686 -0.09614789 0.14842372
0.1522846 -0.032020383 -0.06640597 0.08889409 0.086815946 0.17999004 0.10351832 0.07642074
-0.13011959 0.056366686 0.24480596 0.117421776 -0.03831574 -0.05738046 0.00383142 0.0015994224
0.20150496 0.16812105 0.0039158645 0.033468295 -0.119988814 0.09389366 -0.05980669 -0.15187395
0.04598869 -0.07229383 0.05357211 -0.18784773 0.020094462 0.055920985 0.118746266 -0.1259318
-0.07756401 0.08041308 0.013720008 -0.0061629154 -0.20540662 0.05647773 0.017865755 0.124645784
-0.043361094 -0.02976936 -0.010123439 -0.03893544 -0.023864713 0.1484654 0.07000637 -0.07865218
0.06703074 0.13569903 -0.0863526 0.16716392 0.06648185 0.13029301
00000000: a7bf 293e 98ed 173d 5a5a ba3d dffa 4e3e
00000010: b8a9 babc 15c0 143e d9e6 c1bd 7a69 c63d
00000020: 423c b43d e2ca 3ebe 8081 bc3b f623 af3d
00000030: aaca b63d da0e d63d 0ada 21be 4fe7 2d3e
00000040: c042 ff3c 884e c73c cf25 3c3e 8468 503d
00000050: c4ba 7dbd ec03 243d e71b 243e 357a 01be
00000060: f29c 09be f85b 75bd 7bce 86bd 0021 4d3d
00000070: b996 8ebd d091 103c 1aeb 763d 3eb7 b6bd
00000080: 79ca c5bd 3135 77bd b547 45bd f8fc cc3c
00000090: 68ff bcbd 247b e53d bc44 bc3d ea56 00bc
000000a0: e7fc 72bd d658 bf3d 9d6a b53d 1079 2e3e
000000b0: f592 8d3d ec86 8e3d 3da6 23be 6239 a03d
000000c0: 173d 053e 41c1 50be bcde a5bd 0031 e83c
000000d0: 4e2d f63d b050 713c 4465 47bd 08d5 21bd
000000e0: 4081 ca3b ecaf 66bd d15b 263e 6bd3 293e
000000f0: aaff 973d 625b b23d f8fc b7bc b822 c9bc
00000100: 0059 2fbb 78d9 3fbe c5a0 4bbe 9029 c1bc
00000110: cef5 b03d e0f5 023d 22e9 11be b1b8 aabd
00000120: a58c 8ebc ef23 203d 92ea bd3d 93ab be3d
00000130: 7a55 a13d 61ff 0e3e ef28 e3bc a1e0 87bd
00000140: ae6b dc3b 1f2f 163d db7d dcbd 943a 623d
00000150: cf57 4bbc 2dd2 b53a 3a91 a53d ebc4 c43d
00000160: 24b4 033e 3a06 013e 8f2b a7bd 40ca e739
00000170: 099b 283d 2b8d debc 6f55 b239 664c 583d
00000180: c54e 81bd 970b 24be 96bb 383e a152 2cbd
00000190: dc71 013d cf3d 84bd 7178 a53c 714f 843d
000001a0: e759 033c c86b 95bc a051 323e d0fe af3d
000001b0: 0bc1 54be dfe3 e13e c90e d53d 63f0 dabd
000001c0: 5d0c 463d adda 13be 76ed b33a 4d96 4abe
000001d0: d5b8 27bd 311b c3bd bac1 23be 12fa 3ebe
000001e0: c3a3 38bd 5a2a 023e c6c1 e03d f6f5 a3bd
000001f0: 70fc a3bd ef80 a4bd 2773 27be 7167 adbc
00000200: 875a bb3d 5d3e a53a b820 56bd b2d1 13bd
00000210: bee9 3fbd 92e7 603d 1c97 32be 301d 21be
00000220: 8136 cd3d 9bbf ea3d 2f36 023e 41d4 fcbd
00000230: b57c 7b3d 80be 9b3c dc55 663d 16cc f73d
00000240: 1a62 363c 2639 ea3d bee5 993d ed25 bd3d
00000250: d33e b3bd a3d5 54bc 36d9 20bd 2bff 71bd
00000260: 173e 35bd 4757 09be e842 063e e2e8 44be
00000270: 90ac cf3d a147 a33d 900c 1d3e c8bb 1b3d
00000280: 0031 bb3d 38f2 6a3e 1914 0abe ee23 a5bd
00000290: f8be bcbd cb52 563d ab51 05be 8e3c 21bc
000002a0: 08f0 413d 6393 1e3e c8b1 13be 7146 5fbd
000002b0: 55e8 86bd d026 133d 2fe9 c4bd 63fc 173e
000002c0: 7ff0 1b3e ce27 03bd daff 87bd 1b0e b63d
000002d0: 8fcc b13d 4f4f 383e 6a01 d43d 7a82 9c3d
000002e0: 123e 05be c1e0 663d 6aae 7a3e d47a f03d
000002f0: f7f0 1cbd c607 6bbd 9018 7b3b b6a3 d13a
00000300: 5157 4e3e ed27 2c3e a750 803b 0d16 093d
00000310: b2bc f5bd 524b c03d dcf7 74bd d884 1bbe
00000320: a35e 3c3d ca0e 94bd 6e6e 5b3d 285b 40be
00000330: 249d a43c 670d 653d 3e31 f33d 44f4 00be
00000340: e1d9 9ebd 9daf a43d e2c9 603c 48f2 c9bb
00000350: 1d56 52be 3155 673d 345b 923c 4a46 ff3d
00000360: 679b 31bd dfde f3bc c8dc 25bc c57a 1fbd
00000370: ee7f c3bc 5007 183e 805f 8f3d 6514 a1bd
00000380: 6a47 893d b0f4 0a3e a2d9 b0bd 052d 2b3e
00000390: a327 883d 886b 053e

fc1.bias f4 [10]
0.03300622 -0.012293989 -0.055539757 0.086355425 0.11996683 0.17858237 -0.18578728 0.15800978
0.12756757 -0.061149362
00000000: 8831 073d ba6c 49bc a87d 63bd 1ddb b03d
00000010: 2bb1 f53d 4cde 363e 053f 3ebe 51cd 213e
00000020: 13a1 023e c177 7abd

fc2.weight f4 [10, 10]
0.24628535 -0.127577 -0.2527632 0.08908252 -0.11134373 -0.14631124 0.12836644 -0.012290276
0.003994491 0.21884456 -0.30860898 -0.32441488 -0.030789912 -0.0152495215 0.0017399207 -0.24937257
-0.18500689 0.1923473 -0.12953004 0.22376165 0.026555777 -0.28455162 0.11065751 0.11400034
0.21255143 -0.039635375 0.00635343 0.19888987 -0.15512684 -0.010298433 -0.0125982165 -0.11278844
0.21314391 -0.2688067 -0.26702186 -0.09228198 0.20536694 -0.2556128 -0.14026207 0.18312287
-0.29485878 0.1548915 0.23207602 0.2949448 0.17782803 0.27326345 -0.07385462 0.26333255
0.22485943 -0.25302845 -0.29961556 -0.25185606 -0.30746478 0.112990014 0.21928348 -0.17702071
0.28172484 -0.219518 -0.21931778 0.1144609 -0.100138396 0.058782253 0.005892962 0.098798536
0.18640529 0.22486731 0.25379038 -0.0139641315 -0.2971562 0.084713995 0.21394178 0.010709531
-0.25661585 -0.056783263 -0.0053060804 0.2549367 0.21633261 -0.2431847 0.07212089 -0.09986999
-0.13109714 -0.22355498 -0.31438777 0.29987037 0.08033316 0.22746359 0.108545154 0.25926295
-0.01361021 -0.16448124 -0.08976282 0.2048128 -0.045187145 0.2684057 -0.09040941 0.19205369
-0.23153803 -0.17161775 -0.09547813 0.2504611
00000000: 3a32 7c3e 8ca3 02be 2e6a 81be e570 b63d
00000010: 2e08 e4bd 9dd2 15be 7e72 033e 275d 49bc
00000020: 38e4 823b ca18 603e ff01 9ebe b519 a6be
00000030: 203b fcbc 21d9 79bc 0d0e e43a 865b 7fbe
00000040: 7272 3dbe b1f6 443e 86a3 04be c621 653e
00000050: 808b d93c c0b0 91be 68a0 e23d 0379 e93d
00000060: 15a7 593e b458 22bd 6f30 d03b c9a9 4b3e
00000070: 92d9 1ebe c2ba 28bc c068 4ebc a0fd e6bd
00000080: 6642 5a3e 08a1 89be 17b7 88be 56fe bcbd
00000090: b64b 523e aedf 82be dca0 0fbe 9084 3b3e
000000a0: bbf7 96be e19b 1e3e 56a5 6d3e 0103 973e
000000b0: 8d18 363e 30e9 8b3e 1741 97bd 86d3 863e
000000c0: 8d41 663e f28c 81be 3667 99be 47f3 80be
000000d0: 066c 9dbe 4f67 e73d d98b 603e eb44 35be
000000e0: 3d3e 903e 54c9 60be d794 60be 7a6a ea3d
000000f0: 5c15 cdbd a9c5 703d c019 c13b e356 ca3d
00000100: 07e1 3e3e 9e43 663e d0f0 813e d0c9 64bc
00000110: dc24 98be 887e ad3d 8e13 5b3e 0777 2f3c
00000120: 2763 83be 9195 68bd a1de adbb 1087 823e
00000130: 4c86 5d3e 6905 79be 1eb4 933d a388 ccbd
00000140: 543e 06be 99eb 64be 6ff7 a0be 9c88 993e
00000150: b685 a43d 37ec 683e ec4c de3d 1dbe 843e
00000160: 5cfd 5ebc c56d 28be 92d5 b7bd 72ba 513e
00000170: 2816 39bd 796c 893e 9228 b9bd b9a9 443e
00000180: 4e18 6dbe 90bc 2fbe 0a8a c3bd 703c 803e

fc2.bias f4 [10]
0.034317475 -0.10095835 -0.21711549 0.2819859 0.04091319 0.012127256 -0.14969982 -0.13519606
-0.24397561 -0.1613756
00000000: 7b90 0c3d 40c3 cebd 8653 5ebe 7560 903e
00000010: 9794 273d 66b1 463c e94a 19be d670 0abe
00000020: bed4 79be a53f 25be

fc3.weight f4 [3, 10]
0.041407153 0.13018978 0.2576916 -0.30084634 0.25338218 -0.16463286 -0.2745808 0.23810047
0.24153191 -0.26437268 0.10229857 0.20307338 0.1372692 -0.17824091 -0.14264362 -0.04756865
0.28185087 0.1285019 -0.16703719 -0.26036683 -0.28020164 -0.2560173 -0.18615554 0.11957064
0.24601515 0.013489016 -0.0019580384 -0.04428763 -0.020538718 -0.10976966
00000000: 8c9a 293d 7850 053e 27f0 833e 8808 9abe
00000010: 4fbb 813e 8495 28be db95 8cbe 9cd0 733e
00000020: 2454 773e db5b 87be ea81 d13d 78f2 4f3e
00000030: 4c90 0c3e c984 36be 2b11 12be 58d7 42bd
00000040: c24e 903e 0196 033e cc0b 2bbe cd4e 85be
00000050: 9776 8fbe b314 83be 8f9f 3ebe 74e1 f43d
00000060: 65eb 7b3e 0901 5d3c 6f52 00bb f266 35bd
00000070: d040 a8bc eace e0bd

fc3.bias f4 [3]
-0.23600896 -0.023468267 -0.1013325
00000000: 55ac 71be 8640 c0bc 6a87 cfbd
