ai_models/raising_checkpoint.pth (torch, 4150 bytes, 6 tensors)

fc1.weight f4 [10, 23]
00000000: 7b83 e6bd ca4f 4bbe f772 b6bd 3bd6 4a3e
00000010: 7a26 ab3d 2e80 9a3d 83fa 2abe 78ca 99bd
00000020: 109e aebc 674c 533e faba c83d ea15 d83d
00000030: d889 98bc a437 363d 146b 583d 4efb 3ebe
00000040: 409e c8bc 5058 aebc 7073 56bc 254b 483e
00000050: 97cc 05be 98d2 0abe fe87 1ebe d3ee 623e
00000060: e6fa 0f3e b258 ce3b 7d51 173e 4b65 4ebd
00000070: f836 8a3d 96ba b6bc b7fd 0ebd 64a4 46bd
00000080: 7271 0c3e 08a7 bf3d 27ed 1f3e 7e38 b03c
00000090: e424 14be 2927 d9bd 3d42 e2bd 35fb 6abd
000000a0: 77fa 49be 6896 df3d 4d15 21be 4071 d83d
000000b0: afb3 1bbe f384 093e 88cb 34be 793e 383e
000000c0: 6c43 533d edd4 54be 9699 b83d 9055 58bd
000000d0: 70d8 a9bd 5dca 4c3e 6e40 0bbe 7af6 9abd
000000e0: ce06 ec3d 7a2a ce3d 1470 73bd 0ede 893d
000000f0: 84b2 0dbe 408c 5cbb 90f2 28be b013 46bd
00000100: e5f0 103e 068f ecbd 6ab6 27be 3076 ccbc
00000110: 1755 543e c42f 2e3d cbac c7bc 76a9 123e
00000120: 675c 54be ba23 babd aecb 7e3d 0fa9 933c
00000130: 0331 92bc 1c08 07be b3cb eb3d 1c94 603d
00000140: ec09 ddbd ce01 f2bc f681 01be 2018 9bba
00000150: 8b8e 8b3d d124 12be c01f dc3d 8c26 0a3e
00000160: 33cc 283d 3cc7 163e 17e2 53bd a1f9 b33d
00000170: 7cf7 bd3e fd3d 57be ea8b 513d 8e1b 19bd
00000180: e50a 103d a269 38be 0181 313e e657 813d
00000190: 94f1 323d 572f e7bd 2e25 403d 1bc4 dbbc
000001a0: 6698 d0bd 9639 a13e e221 7cbd 2522 1b3e
000001b0: 5481 293e 91d9 bc3d 2b04 a0bd d95b cd3b
000001c0: a3e4 8bba 3e0b 173e f3fb 023b a0fc 33bd
000001d0: 4270 05be 40d4 82bd f2a5 b03d 2099 263c
000001e0: 80b7 dfbc 0051 22be f022 29bc ecd1 77bd
000001f0: f293 c93d 96b7 87bd 30c8 dbbc fc05 68bd
00000200: 86d7 ccbd b026 fb3c 488d 31bd 3fc2 1a3e
00000210: 1185 1f3e d88b 913c 109b 31be ac93 28bd
00000220: f1b3 503e 6cfd b7bd 388b 8a3f 252b a6bc
00000230: dbfe 35bb 92e2 6abb 9c8c 0d3c f136 8dbc
00000240: d8fa 333c 8c70 d93b ee1c dd3d 724f a0bc
00000250: 5436 a7bb ca06 ecbb 2b94 cdbb 4dc1 043d
00000260: be5b 423b 3041 593c fdba 993c 8492 5f3c
00000270: 6451 87bc 8cfe 0b3c 14c4 47bc aaf4 a43c
00000280: 481d 3dbc ccbd 79bd 05b7 f8bd d408 70bd
00000290: b07f 5a3c b0d7 c3bd b662 05be 97e8 c0bd
000002a0: e48f 24bd ecd1 6abd b899 3bbd e97e 553e
000002b0: bce5 e7bd a088 98bd 8eb7 ef3d b070 8abd
000002c0: b09a d5bc d749 3a3e 26c0 f33d 4b63 223e
000002d0: 76a0 b6bd f940 37be 4e8e 2cbe 4781 283e
000002e0: 4064 6ebe 04f1 05be e9b1 8fbc 77fa 243e
000002f0: f638 77be d10f 63be 2448 33be 4795 6bbd
00000300: 22e6 38be e7d6 57be eb9d 2ebc 0e79 aebc
00000310: d0ba 1b3e ffea 113e 345f 8e3d 9010 063c
00000320: 94ff 173e f382 aabd deba 68be a031 94bd
00000330: bc79 bd3b ef0d 03be 8e47 60be 0555 5a3d
00000340: 6607 69bd d3e3 b23d 8263 b63d d430 24bd
00000350: dd3b bdbd b5a7 1c3e 7af1 a43c e535 2a3e
00000360: 2a9c 853d c0b1 283e 3e51 043e ca77 acbd
00000370: 1f76 023e e077 3bbe ece1 253d 049a 953d
00000380: cdb4 e1bd 7365 943d 3bdc 28be 6c30 183e
00000390: 0d64 0ebd 929b 303e
-0.11255547 -0.19854656 -0.089086466 0.19808285 0.08356948 0.075439796 -0.16697125 -0.07509321
-0.021315604 0.20634614 0.09801288 0.10551055 -0.018620417 0.044486657 0.052836493 -0.18650553
-0.024489522 -0.021282345 -0.013089046 0.19559915 -0.13066326 -0.13556898 -0.15481564 0.22161417
0.14060554 0.0062971944 0.14777179 -0.05038957 0.06748766 -0.022305768 -0.03490993 -0.04849662
0.13715151 0.093580306 0.1561781 0.021511313 -0.14467198 -0.10603172 -0.1104779 -0.057368476
-0.19724451 0.109173596 -0.15730782 0.10568476 -0.15205263 0.13429622 -0.17655766 0.17992581
0.05157797 -0.2078435 0.09013669 -0.052815974 -0.08293235 0.1999907 -0.13598797 -0.07566543
0.115247354 0.100666955 -0.059433058 0.06731807 -0.1383763 -0.0033652931 -0.1649878 -0.04835862
0.14154394 -0.11550717 -0.16378179 -0.0249587 0.20735584 0.04252602 -0.024374386 0.14322457
-0.20738374 -0.090888456 0.062205963 0.01802495 -0.017845636 -0.13186687 0.11513462 0.054828748
-0.10792908 -0.029541876 -0.12647232 -0.0011832751 0.06814297 -0.14271857 0.10748243 0.13491267
0.041210365 0.1472444 -0.051729288 0.08787847 0.37102878 -0.2101974 0.051158823 -0.037379794
0.03516664 -0.18009046 0.17334367 0.063155934 0.043687418 -0.11288326 0.046910457 -0.026826909
-0.10185318 0.31489247 -0.06155575 0.15149744 0.16553241 0.09221185 -0.07813295 0.0062670526
-0.0010672997 0.14750382 0.00199866 -0.043942094 -0.13031104 -0.0638814 0.086254016 0.010168344
-0.02730918 -0.15851212 -0.010323271 -0.06050293 0.098426715 -0.06626813 -0.026828855 -0.056646332
-0.10002045 0.030658096 -0.043347627 0.15113162 0.15578105 0.017766878 -0.17344308 -0.041156456
0.20381142 -0.08983883 1.0823736 -0.020284245 -0.0027770314 -0.0035840613 0.008639481 -0.017238112
0.010985099 0.006635731 0.107965335 -0.019569132 -0.005102912 -0.0072029578 -0.0062737665 0.03241091
0.0029656733 0.013260171 0.01876592 0.013645772 -0.016518302 0.008544575 -0.012192745 0.020136196
-0.011542626 -0.06097202 -0.12144283 -0.05860217 0.013336107 -0.095626235 -0.13025936 -0.09419363
-0.040176287 -0.057329103 -0.045800894 0.20849194 -0.11323115 -0.07447934 0.11704932 -0.06759775
-0.026074737 0.1819223 0.11901884 0.1585819 -0.08917324 -0.17895879 -0.1685116 0.16455565
-0.2328043 -0.13080221 -0.017540889 0.1611117 -0.24142823 -0.22174002 -0.17507988 -0.05751541
-0.18056539 -0.21078072 -0.010657768 -0.021297958 0.15207982 0.142498 0.06951752 0.00818266
0.14843589 -0.08325758 -0.22727534 -0.07236028 0.005782334 -0.12798284 -0.21902296 0.053303737
-0.05689182 0.0873486 0.08905698 -0.04008563 -0.09239934 0.1529835 0.020134676 0.16622122
0.065239266 0.16474056 0.12921616 -0.084212855 0.12740372 -0.18307447 0.04049866 0.07304767
-0.11020813 0.072459124 -0.16490261 0.14862221 -0.034763385 0.17246845

fc1.bias f4 [10]
00000000: 09cd d4bd e284 7b3e 39f5 d7bd 0fcd 6fbd
00000010: 091d 953e f574 503e a430 743f c92a 18be
00000020: 5a30 f73d a2c0 42bc
-0.1039067 0.2456241 -0.105448194 -0.05854517 0.29123715 0.20357116 0.9538672 -0.14860071
0.12069769 -0.011886748

fc2.weight f4 [10, 10]
00000000: 8eca 763e d735 23bd e917 a03e 719e 3d3e
00000010: 451c f0bd 60f6 7fbe aee6 623c ae3a bebd
00000020: 234e 433e f585 0b3e 585c df3d 3f35 123e
00000030: 5b5d 8cbe 9fe6 91be 1b84 97be b9b9 843e
00000040: 2003 40be 82f8 1b3e f653 18be ea1e 0c3e
00000050: 30a8 18bd e1ac 03be 35e9 19be 08b0 153c
00000060: 94b2 bbbd 70fe 163e ad74 173e 6d37 91be
00000070: 8b8f 16be 3114 363e c8b1 2ebe 8f9f a0be
00000080: 5820 71bd f5b8 23be 34e0 633e 5802 7fbd
00000090: f405 1c3e c68c 5bbe 8054 7e3d ef2e 37be
000000a0: 2caa 303e 0bd6 54be 4019 b5bb fea7 12be
000000b0: 008e ac3d b0a4 c0bc 5bb3 7cbe de2d 72be
000000c0: 50a2 723d 3edc 4bbe 6863 b9bd a5f6 b13d
000000d0: 2a00 513e fff6 9a3e 993c 80bd b51e 9b3e
000000e0: ceb8 083f 1749 863e b014 bf3b 8d76 4e3c
000000f0: 1907 5dbe f6da 8d3e 84db ba3d f168 9e3e
00000100: 8e70 3e3d 7282 133e 4206 5f3f 4083 19bc
00000110: cf63 8cbd 3477 79be 8fa1 8f3e a942 03bc
00000120: c209 3dbe 02a2 083d d8fd b33d 4084 46be
00000130: ee00 61bf ed0e 9fbe c7e8 423e c637 e33c
00000140: d026 9c3d 5133 903e 800c 47bd 067c 88bd
00000150: aa86 1d3e 60df 09be 5144 4c3f 4a3a 253e
00000160: b08c 1d3e 6c06 3abc a003 02bc b896 87be
00000170: ca25 2ebe 508b 75be f220 85be 303a 303e
00000180: 670c 6bbe dad6 2dbe b635 713e 064f 76be
0.24100706 -0.039846268 0.31268242 0.18517472 -0.11724142 -0.24996328 0.013848944 -0.09288536
0.19072776 0.1362532 0.10906285 0.14278124 -0.27414975 -0.28496262 -0.29592976 0.25922945
-0.18751192 0.15231517 -0.14875779 0.13683668 -0.03726977 -0.12858917 -0.15030368 0.009136207
-0.091649204 0.14745498 0.14790602 -0.283626 -0.14703195 0.1778114 -0.17060006 -0.31371734
-0.058868736 -0.15988524 0.22253495 -0.062258095 0.15236646 -0.2144042 0.062092304 -0.17888997
0.17252415 -0.20784776 -0.0055266917 -0.14321896 0.08425522 -0.02351603 -0.24677794 -0.2365031
0.059236825 -0.19908234 -0.09052163 0.08689622 0.20410219 0.30266568 -0.06261558 0.30296865
0.5340699 0.26227638 0.0058313236 0.012601507 -0.21584739 0.27706116 0.091239005 0.3093944
0.04649406 0.1440523 0.87118924 -0.009369671 -0.068549745 -0.24361879 0.28052947 -0.0080114985
-0.18460754 0.033357628 0.08788651 -0.19386387 -0.87892044 -0.31066075 0.1903411 0.027736556
0.076245904 0.2816415 -0.048595905 -0.066642806 0.15383402 -0.13464117 0.7979174 0.16135517
0.153857 -0.01135407 -0.007935435 -0.26482177 -0.17006603 -0.23978925 -0.26001698 0.17209697
-0.2295395 -0.1697649 0.23555645 -0.24053583

fc2.bias f4 [10]
00000000: d4b0 b4be 41e8 f2bd 1b83 b1bc 7498 7dbe
00000010: 9e84 673e 31c8 933e 5327 8d3d c150 d13d
00000020: fc38 983e 624d 173e
-0.3529116 -0.11860705 -0.021668961 -0.24765188 0.22609183 0.2886367 0.06892266 0.10220481
0.29730976 0.14775613

fc3.weight f4 [3, 10]
00000000: d882 78be ce31 363d 2a1e 083e 9345 8fbe
00000010: 10a3 27bd c536 223e d3d5 033e 391a 4bbe
00000020: 1aaf 103e e2f3 3ebe 8501 8f3e 0c9c aa3d
00000030: edc5 0f3e e923 903e 8cf5 373e 7bba f4bd
00000040: 624b 5ebd 72ff a4be aed7 43bd 6253 94bd
00000050: 13de 893d a5a9 8dbe b0cf 9f3d 8f9e 7c3e
00000060: 951f 8ebe 4100 d2bc 83a4 3dba 3efe 0bbe
00000070: 4d5c a8bb 643d b8bd
-0.24268663 0.04448109 0.13292757 -0.27982768 -0.040926993 0.15841205 0.12874536 -0.19834222
0.14129296 -0.18647721 0.27930847 0.08330545 0.14040346 0.28152397 0.17964762 -0.11949631
-0.05427111 -0.3222614 -0.04781311 -0.072424665 0.067318104 -0.2766849 0.07803285 0.2466986
-0.2775847 -0.025634887 -0.0007234292 -0.13671204 -0.0051379562 -0.08996084

fc3.bias f4 [3]
00000000: 3460 573e 8ec6 42be ea51 8bbe
0.21032792 -0.19021055 -0.27210933
