ai_models/smart_bc_checkpoint.pth (torch, 3712 bytes, 6 tensors)

fc1.weight f4 [10, 11]
00000000: 2bcf 8f40 d7f3 1cbc 3a12 0c40 ae5b 0640
00000010: 88eb a9be ab4b d03d 8ce6 c93e ab55 923c
00000020: 8ec1 7ebc 5561 083c 67c4 2cbf 00f2 d83b
00000030: 0c59 0dbe 25d8 85be ee8e 1a3e e473 89be
00000040: 7031 4bbe 3a5b 8abe 39ac 98be 53dc 93be
00000050: 29ee 29be ff8c 07be b6ca 1d3e c007 413e
00000060: 4efe 0b3e 9063 ca3c b242 c1bd a1a1 96be
00000070: 3a03 7bbe a804 e6bd a09e 8abe f8be 273e
00000080: fcda f6bd 7af8 c6c0 fc16 a6bf 6dcc e9bf
00000090: 6c82 a9c0 f64f 36be a713 263e 7087 af3e
000000a0: a145 a1bd f3be 16bb 912c 04be 09ed 8e3f
000000b0: ed54 fbbd 26fc 8dbe c082 663e 7dcd 89be
000000c0: 50ab d5bc 2540 a5be 0f99 ee3e 4d2a f23e
000000d0: 235f d03d 65a2 57be a8f4 c8be bf2a 72c0
000000e0: 737f d9bf 9a57 9cbf 5aad 42c0 da46 40bc
000000f0: 83e9 5d3e 85bb 1bbe 2fd1 77bd d9bd 81bc
00000100: 474a d03c 45dc 13bf ab7b e140 7417 2bbe
00000110: 4aa9 c140 d9f6 2640 47e4 9ebf a806 623d
00000120: af68 803f 8cae 683e c6d8 dd3e 592c 2a3f
00000130: dcd4 e0bf 2650 8b40 0f5c ae3f a408 75bf
00000140: a7ae 8b40 44c3 71bf 13cf b83b 275b e63f
00000150: a4a3 e9bf ca83 303e a7e2 f8bf 3253 d03f
00000160: 68ab 64c0 b0c9 9ebf bc9c adbf 77ed 68bf
00000170: 4b05 f93d 4ce0 963e b793 91be c809 d43d
00000180: f4f4 50bd 2aad d3bd daeb 22be 3bbd 03c0
00000190: c4a7 883f d58c d33f 6f0c fabf 41ea 813d
000001a0: 41cf e93d f687 a53d 4d1f eb3e 3331 4c3e
000001b0: a5fe 8e3d 2824 e2be
4.494039 -0.00957962 2.1886125 2.0993457 -0.3318751 0.101706825 0.39433706 0.017863115
-0.015549077 0.008323987 -0.67487186 0.0066206455 -0.138035 -0.26141468 0.15093586 -0.2684623
-0.19843078 -0.27022725 -0.29818895 -0.28879032 -0.16594757 -0.1323738 0.1540936 0.18850613
0.13671228 0.024705678 -0.09436549 -0.29420188 -0.2451295 -0.11231357 -0.27074146 0.16381443
-0.12053487 -6.2178316 -1.2975764 -1.8265511 -5.2971706 -0.1780394 0.16218434 0.34283018
-0.07874609 -0.0023001998 -0.12907626 1.1166087 -0.12272058 -0.27731436 0.22510815 -0.26914588
-0.026082665 -0.322755 0.4660115 0.47297898 0.10174396 -0.21058042 -0.39249158 -3.783859
-1.699202 -1.2214234 -3.0418305 -0.011735642 0.21671109 -0.15208252 -0.060502227 -0.015837597
0.025426043 -0.5775798 7.046346 -0.16708165 6.051915 2.6088164 -1.2413415 0.05518213
1.0031947 0.22722834 0.43329448 0.6647392 -1.756496 4.3535337 1.3621844 -0.9571631
4.36507 -0.94438577 0.0056399195 1.7996567 -1.8253064 0.17237774 -1.9444169 1.6275389
-3.5729618 -1.24053 -1.3563457 -0.9098734 0.12159213 0.29468 -0.2843301 0.10353428
-0.051014856 -0.10335763 -0.15910283 -2.0584247 1.0676198 1.6527354 -1.9535044 0.063435085
0.11416484 0.08082573 0.45922318 0.19940643 0.06982163 -0.4416821

fc1.bias f4 [10]
00000000: c2e4 8c40 73fb 80be c6bc 3abe 28d8 ccc0
00000010: 27fe b43d 7e1f 87c0 f99f e540 d88c 9440
00000020: 794d 5bc0 1e25 f6bf
4.4029245 -0.2519184 -0.18236074 -6.4013863 0.08837538 -4.2225943 7.175778 4.642193
-3.4266036 -1.9230077

fc2.weight f4 [10, 10]
00000000: 0282 033f f8f3 803d 5080 be3c 9416 3cbf
00000010: e174 90be eadc 0dc0 bc62 bbbe 0d25 bebd
00000020: a031 08c0 cdf0 813f cd1c 19bf 5705 923e
00000030: fc0e 1bbe 2447 f7bf e63b 01bf 0cd5 153f
00000040: 9ff1 e6bf f998 4ebf 251e 673e 5500 38be
00000050: 3f59 9fbe 5367 17be 40ab bf3c bdfe 9abe
00000060: 9d00 8cbe 2eb2 1a3e 9109 7bbc e07a 82bd
00000070: 01b9 493d 5c8c 34be 0c9f 04be e072 a43d
00000080: 0013 09bb 7fdc 2a3f 7b4c 8fbd 989d 69bd
00000090: be94 82bd 5ea3 5c3e d7b6 67be 104b 20be
000000a0: 6f68 5b3f 20bc 65bd 563e 79be 0017 42bf
000000b0: d976 f83c 6672 913f 6935 cbbe 2c11 eebf
000000c0: 209c 7bbf a1d8 2e3e 995a e8bd 50fb 0a3d
000000d0: 93ea 50be 627b 3e3f 5373 2d3e c6ec ecbd
000000e0: 8c62 99be 671b 223e 12e3 94be 8551 ebbe
000000f0: 890f 2abe 2c29 bb3d 107e 213e 8e7e b8bc
00000100: 58ce f6bd 8053 adbc f034 41bd 2418 b23d
00000110: 3b71 7fbe f227 7dbd fcb6 efbe 6844 913d
00000120: 4edc 383e 8e77 0abf 7876 01bf b201 f53e
00000130: 1c2f 75bf 26ac 2bbf 8b60 103e 0ae5 e3bd
00000140: bbd5 b0be 0c0f d93d 7fa8 8d3e 2d69 443e
00000150: 1d25 82be ca2a 98bd 9519 cb3d cade 32be
00000160: 05e5 4c3d 2fea 8abe ee72 08c0 d431 4abe
00000170: cec0 703e c03a af40 d253 aabe 0470 fb3f
00000180: fce5 adc0 8580 c4c0 2021 053f abf3 783e
0.5137025 0.06296533 0.023254544 -0.7347195 -0.28214172 -2.2166085 -0.36598766 -0.092844106
-2.1280289 1.0151612 -0.5980957 0.285197 -0.15142435 -1.9318585 -0.5048202 0.5852821
-1.8042487 -0.8070217 0.22570093 -0.17968877 -0.31122777 -0.14785509 0.023397088 -0.30272475
-0.27344218 0.15107033 -0.015322105 -0.06371093 0.0492487 -0.17631668 -0.12951297 0.08029723
-0.0020915866 0.667427 -0.06997009 -0.05703506 -0.063760266 0.21546695 -0.22628342 -0.15653634
0.8570623 -0.056087613 -0.24340186 -0.75816345 0.030330108 1.1363037 -0.39689186 -1.859899
-0.982851 0.17074825 -0.11345405 0.033931077 -0.20401983 0.7440702 0.16938524 -0.115685984
-0.29957998 0.15830766 -0.2907949 -0.45960632 -0.16607489 0.09138712 0.15770745 -0.022521283
-0.12051076 -0.02115798 -0.047169626 0.08696011 -0.24945538 -0.061805673 -0.46819293 0.070931256
0.1805279 -0.54088676 -0.50571394 0.47852856 -0.9577501 -0.6705955 0.14099328 -0.1112767
-0.34538063 0.10598573 0.27667615 0.19180746 -0.2541894 -0.07430036 0.09916989 -0.174678
0.050023098 -0.27131793 -2.1320148 -0.1974557 0.23511049 5.4759216 -0.33267075 1.964356
-5.4343243 -6.1406884 0.5200367 0.24311702

fc2.bias f4 [10]
00000000: 4247 b63f a578 a7be 7a7a b2be ada3 7fbe
00000010: 36f4 a63f be57 ccbe 791d b7be 58fa 95be
00000020: c764 c0bd f86f 4cc0
1.4240496 -0.32709232 -0.34859067 -0.24964781 1.3043277 -0.39910692 -0.35764673 -0.2929256
-0.09394222 -3.194334

fc3.weight f4 [3, 10]
00000000: 946c aa3e 6706 773f b999 243e 3207 893d
00000010: b507 fb3d 09c5 6dbd 53e9 4bbc cb33 a4bf
00000020: 8b1b 613e a66f 0a3c 82e7 6640 4ea3 213f
00000030: fd57 12be d17b 56bf 3459 0040 0208 9e3f
00000040: 03e1 27bf 122a c93e 0e6d 153e e6d7 b240
00000050: bf17 8e3d 5a75 95be 55b3 ae3e d6fb 09bd
00000060: 53c0 2c3b 71f7 413d a6f2 a3bc cf16 333f
00000070: 31ab 38be bdef de3b
0.33285964 0.96494144 0.16074266 0.066908255 0.122573294 -0.058049235 -0.012445766 -1.2828306
0.21983163 0.008449471 3.60788 0.6313981 -0.14291377 -0.8378268 2.0054445 1.2346194
-0.65577716 0.3928991 0.14592382 5.588855 0.06938123 -0.29191095 0.34121194 -0.033687435
0.0026359751 0.04735512 -0.020013165 0.6995668 -0.18034054 0.0068034814

fc3.bias f4 [3]
00000000: 6932 6e3f e1c5 423f 14ec 7ebb
0.9304567 0.7608319 -0.0038898038
